RL/Networks/v1_1.pt (torch, 508119 bytes, 12 tensors)

conv1.weight f4 [8, 5, 3, 3]
000000 79 29 31 3d 4d 23 01 3d 73 3d 05 3d 74 f3 33 ba
       0.043252442 0.031527806 0.032529306 -0.00068645854
000010 8a d2 14 be 8b 26 84 3d f6 c0 4f 3d 97 eb 11 3b
       -0.1453344 0.06452664 0.05072113 0.0022265667
000020 d5 fd ef 3c 6f 8e d0 3e 4a 44 86 3e 69 99 8d 3e
       0.029295841 0.40733668 0.26223975 0.27656105
000030 a8 04 72 3e 73 d2 9c 3d d5 f6 5e 3e 55 41 76 3e
       0.23634589 0.076573275 0.21773846 0.2404836
000040 2e 03 31 3e 54 93 76 3d 2a 8f f9 3d 68 57 61 3d
       0.17286369 0.060199097 0.121855095 0.055014998
000050 1a c4 27 3e ec 9c 4d 3d a7 0f 23 3e 18 e6 ab 3c
       0.163834 0.05019848 0.1592394 0.02098374
000060 ab 00 f8 bc 51 b0 60 3d 09 92 a8 bc 84 71 75 bd
       -0.030273756 0.05485565 -0.020577447 -0.05992271
000070 57 0f 79 be 00 5a c0 bc df 50 ac be 89 c0 8f be
       -0.24322258 -0.023480415 -0.3365545 -0.2807658
000080 86 0a 67 be 79 3e a3 be b2 76 ed 3c 7e 77 3e be
       -0.22562608 -0.318836 0.028987262 -0.1860027
000090 91 17 2b bd 63 d7 2b 3d 62 c4 66 bc 06 d7 d3 3e
       -0.04177052 0.041953456 -0.014084907 0.41374987
0000a0 65 32 f9 3d db 33 86 3e f9 8d 0a bd ce 20 b1 3b
       0.12167815 0.26211438 -0.033826802 0.005405522
0000b0 4b 0f 82 3b a5 7a 9b bc 3f 01 39 3e 6e 6d db 3d
       0.003969108 -0.01897938 0.18066882 0.107142314
0000c0 c1 da 7b bc 50 a3 cd 3d ff b9 03 3e a9 3f 82 3d
       -0.015371979 0.10040915 0.1286392 0.063597985
0000d0 12 56 19 3c 11 ed 3d 3d f4 d6 e5 3c 42 20 44 3e
       0.0093589 0.046368662 0.0280566 0.1915293
0000e0 19 41 81 3d 32 d9 00 bd 59 e3 f3 3d 85 85 ee bc
       0.063112445 -0.031457134 0.119085975 -0.029116401
0000f0 7c b3 c0 3b fb c9 61 bd 03 ba 3b be 6e 2b 8e 3c
       0.005880771 -0.055124264 -0.18332677 0.017354693
000100 bd 92 0a 3e f7 e6 ef 3d 33 9e db 3d 9f 8e 3b bd
       0.13532539 0.11713975 0.107235335 -0.04579031
000110 76 f4 f1 bb 6f de 47 3d 31 5d e9 bc 10 cc 50 3d
       -0.0073838783 0.048796114 -0.02848682 0.05097586
000120 c6 f2 b8 3e 20 67 f3 3e 07 f9 d7 3e b2 2b 12 3f
       0.3612272 0.47539616 0.4218218 0.57097924
000130 e1 16 69 3e d0 c3 df 3e 35 b8 d8 3e 88 5e 1e 3e
       0.22762634 0.4370408 0.4232804 0.15465748
000140 e6 19 58 3e 06 a8 d0 3d 0b 93 9d 3d 00 f2 68 3d
       0.2110363 0.10188298 0.07694062 0.056871414
000150 e6 09 4a bc c7 06 5a 3e d8 31 dd 3e 3f 08 8e 3d
       -0.0123314615 0.21291648 0.4320209 0.069351666
000160 b4 cf 8a 3e 43 dc 0c bd fb 41 36 3d e2 a1 07 bd
       0.2711159 -0.034389745 0.044496518 -0.033113368
000170 71 79 a5 3d d9 97 1d 3e 42 5a 1d bd 02 29 83 3d
       0.08079804 0.15389957 -0.038416155 0.06404306
000180 1f 17 60 3e 76 ca af 3c 2d bc de 3d 7c bf 31 3e
       0.2188382 0.021458846 0.108757354 0.17358202
000190 fa f2 85 3e 12 29 4a 3e 2a 5d 9d 3e 9d b6 d2 3d
       0.2616194 0.1974223 0.3073514 0.10288737
0001a0 ee 97 da 3e cf b7 d4 3e 29 7c f9 3d 36 9c b4 3e
       0.42694038 0.41546485 0.12181885 0.3527543
0001b0 ee 1a 3a 3d 90 e9 18 3e 51 be 82 bc c3 e6 ba bd
       0.04543584 0.14932847 -0.01595989 -0.091260456
0001c0 61 f9 22 bd 79 0f 80 bc a3 c6 38 be 48 aa 8a bd
       -0.039788608 -0.015632378 -0.18044524 -0.0677076
0001d0 25 4f c6 3d fe 3e 2d 3e d8 73 8b 3e cb 58 da bb
       0.09683064 0.16918561 0.2723682 -0.006663417
0001e0 c6 76 a6 be 04 3d 1a be 28 16 6c be 37 b3 93 be
       -0.32512492 -0.15062338 -0.23055327 -0.28847668
0001f0 4c 85 d2 be 00 dd 15 be 84 a3 58 3d 2e 03 2e 3d
       -0.41117322 -0.14635086 0.052890316 0.0424835
000200 2b 8f 1d 3e 5a 71 12 bd 7e c0 43 bd 55 42 a5 3e
       0.15386645 -0.03575263 -0.047790997 0.3227717
000210 62 71 09 3c 68 4a 9d 3e 38 ef 79 bc 56 90 f9 3c
       0.008388849 0.3072083 -0.015254788 0.030464333
000220 fa 43 9c bc 00 dc ae 3d 63 a4 a7 bd 01 c9 1f 3e
       -0.019075383 0.085380554 -0.08185651 0.1560402
000230 bf 38 a8 3b 97 79 75 3d b3 f0 bc bc 43 b0 f1 3c
       0.005133718 0.05993041 -0.023063993 0.029502993
000240 05 e5 00 3f cf e0 9a 3e 7e 55 f0 3e f7 7e 63 3e
       0.50349456 0.3024964 0.46940225 0.22216402
000250 8a 40 a3 3e d7 e5 7f 3e 36 0e 9e 3e 00 5f 8e 3e
       0.31885177 0.2499002 0.30870217 0.27806854
000260 e6 f2 b0 3e 0e a6 9e bd 25 ed 44 3d 65 fc 65 bd
       0.34560317 -0.07746516 0.04807772 -0.056148905
000270 cf 2d 3d 3d 24 7f ab bc 8d fb 3b bc 37 94 49 bd
       0.046186265 -0.020934649 -0.011473549 -0.049213614
000280 33 f8 ba bd 2a 0e 0d 3d e7 96 5c be 65 a2 8c be
       -0.091293715 0.034437336 -0.2154194 -0.27467647
000290 30 ce 71 be cb 43 32 bb 23 fe 29 be 31 d5 69 bd
       -0.2361381 -0.0027201052 -0.16600852 -0.05708808
0002a0 57 54 1f be 91 7b fa 3c 68 d5 e4 bd db 75 1d 3e
       -0.15559517 0.0305765 -0.111735165 0.1537699
0002b0 5c f0 06 3d f0 b4 ae 3e d6 f2 58 3d a7 08 35 bd
       0.03294407 0.3412242 0.05296596 -0.044197705
0002c0 7f 7b 20 3e 77 8a 19 bc 67 91 64 3e 48 34 32 3b
       0.1567211 -0.0093713915 0.22321092 0.0027191807
0002d0 d8 31 36 bd 14 86 46 bc c3 06 31 3d 4c ed cf bb
       -0.04448113 -0.012116928 0.04321934 -0.0063454267
0002e0 d2 67 f3 bc b4 68 57 bc 5f c3 8f 3d cb db 08 3c
       -0.029712591 -0.013147522 0.07019686 0.008353184
0002f0 4a 15 26 3d 59 99 40 3f c4 32 d1 3e 52 13 aa 3e
       0.040547647 0.7523399 0.40859044 0.33217865
000300 98 72 25 3f 35 6b 5d 3e 62 a4 9c 3e b2 b5 45 3f
       0.6462798 0.21622927 0.30594164 0.7723037
000310 4f b4 a6 3e 0c 49 37 3e f8 f8 14 3e 85 4f e2 3c
       0.3255944 0.17898959 0.14548099 0.027625808
000320 eb a3 e3 3c 67 23 54 3d a4 f0 d0 bd ac 17 f4 3d
       0.027788123 0.051791575 -0.102021486 0.119185776
000330 99 d0 7c bc 44 60 17 3e 4d ae 73 3d 62 f8 ea 3c
       -0.015430593 0.14782816 0.059492398 0.028682891
000340 50 0d c9 bc 29 7c 38 3d e6 8e a3 bd 4d 60 15 3d
       -0.02454248 0.045040283 -0.0798624 0.036468793
000350 58 f4 0c 3e 3e 19 4c 3b 90 d8 e3 3b 8a 2b 45 3e
       0.13765085 0.0031142975 0.0069533065 0.1925489
000360 e4 53 ba bd ce ac 9a bc 1d 8d 70 3d 95 61 7e 3d
       -0.09098032 -0.018881228 0.058728326 0.06210478
000370 7c 1d 0f bd 66 f1 25 bc 5b 01 bf 3d 1d 88 0f 3e
       -0.034940228 -0.010128355 0.093264304 0.14016767
000380 c4 a9 cd 3c f8 c0 77 3e ae 80 d3 3b 71 df 89 bc
       0.025105365 0.24194705 0.006454549 -0.016830178
000390 84 f0 16 3e 15 e3 bc bd 61 f6 82 3c 8d 0a 2e 3e
       0.14740187 -0.09223 0.015986623 0.16996212
0003a0 db 2c 89 bc fe 80 b5 bd b7 04 27 3e 76 b1 86 3d
       -0.016745022 -0.08862494 0.16310392 0.06576817
0003b0 5f df e6 bd 9c ad 0f be 56 f0 62 bd 06 43 07 be
       -0.112730734 -0.1403107 -0.055404983 -0.13209161
0003c0 50 60 b4 3c 41 0d 83 3d 2a c6 19 be 58 aa b8 bc
       0.022018582 0.06399012 -0.15017 -0.022542164
0003d0 69 3f f2 bd 27 71 55 3c b8 12 24 3e 43 78 47 bd
       -0.11828501 0.013027466 0.16022766 -0.048698675
0003e0 e3 8f d0 3d 54 3c 8b 3d a4 50 65 be ce 65 c0 3d
       0.10183694 0.06798616 -0.22394043 0.09394418
0003f0 c6 b8 e8 3e 53 a4 a7 3e 15 c6 fb 3e cf 7e 22 3f
       0.4545347 0.32742557 0.49174562 0.63474745

conv1.bias f4 [8]
000000 4a 79 fd 3b 17 6f 43 3b 2d 62 5a 3d 47 c2 31 3d
       0.007735406 0.0029820853 0.053316284 0.043398168
000010 b6 bc e2 3c 0c 0b 14 3e 86 f1 f2 3d 8a 92 df 3d
       0.027677875 0.14457339 0.11862473 0.10916622

conv2.weight f4 [16, 8, 3, 3]
000000 03 1d 25 3e fe 83 8f bd 16 57 b7 bd 1f 52 de 3b
       0.16124348 -0.070075974 -0.08952157 0.006784692
000010 7c 25 5a 3d 30 53 ce 3d 35 bc 45 bc 30 c0 1b be
       0.053258404 0.100744605 -0.012068798 -0.15210032
000020 b9 05 1b bb 7b 3a e2 bd a2 2d 96 bd 6b ce 0b be
       -0.0023654534 -0.110463105 -0.073329225 -0.13652961
000030 ca eb 0f 3d dd f0 08 3e 58 7c 31 bd 09 40 ea bd
       0.035136975 0.13373132 -0.043331474 -0.11437995
000040 9a b8 7f be 44 88 86 bd bb 5c 55 bd 4f 15 dd bd
       -0.24972764 -0.06568959 -0.052090388 -0.1079508
000050 31 f0 8a bd a4 09 f3 3d d4 81 74 bd d6 95 a6 3d
       -0.06784094 0.11867073 -0.059694126 0.08134048
000060 14 bc 21 3d ae 89 ed 3d 30 b3 03 3e ac e0 81 3d
       0.039486006 0.11598526 0.12861323 0.06341681
000070 6a 59 33 3e 41 57 cf bc 66 1d 67 3e 19 5d c5 bd
       0.17514578 -0.02531016 0.22569808 -0.096368976
000080 78 3f ff bc 34 22 c6 bc db 6c e3 3d e9 55 3d 3d
       -0.031158194 -0.024186231 0.11104747 0.04622451
000090 d0 ad 74 3e f1 fc 47 3c b0 f4 30 bc 90 4b 86 3e
       0.23894429 0.012206302 -0.010800526 0.26229525
0000a0 ce 8a 4b 3e fa 3b f7 bb 87 16 6d 3e ab 7d 25 3e
       0.19877169 -0.0075449916 0.23153125 0.1616122
0000b0 e0 14 26 3e 65 43 86 bb 1b 72 99 bd 5f cb b9 bd
       0.162189 -0.0040973895 -0.07492467 -0.09071993
0000c0 b0 34 a6 bd d7 dc 02 3d 96 90 53 3d 1b c3 51 3d
       -0.08115518 0.03194889 0.05165156 0.051211458
0000d0 ac 60 5e bb be c4 1b bd 8e a8 33 3d b0 3c 20 bd
       -0.0033932133 -0.038029425 0.04386192 -0.039120376
0000e0 b4 9e 57 3d ac 34 94 bd 12 d9 b0 3d 8f 7d 93 3b
       0.052641585 -0.07236609 0.08635153 0.0045010517
0000f0 09 a6 a9 3d 9e 7c 88 3d b8 d4 cf 3d 97 bc 01 3e
       0.08283622 0.06664394 0.10147995 0.12669598
000100 9c a8 ad 3d 9b 0c e7 bd 89 bb 7e 3d 77 04 1a bd
       0.08479425 -0.11281701 0.062190566 -0.037601914
000110 4d b8 8b bd d8 67 d4 3d 0c 35 09 bd e8 c9 47 bd
       -0.06822262 0.10371369 -0.033497855 -0.048776537
000120 9f 87 2e 3d 20 b4 d7 3b ac bf ec bc 05 40 83 bd
       0.042609807 0.006582752 -0.02889999 -0.06408695
000130 a3 40 fc bd 33 15 0b be c7 3c fd bd f2 66 3d 3e
       -0.12317016 -0.13582306 -0.12365108 0.18496302
000140 0c c2 d5 bd 75 01 30 3e fb 5c bf 3d b7 6b 64 3e
       -0.10437402 0.17188056 0.093439065 0.22306715
000150 c7 6a dc bc 1a 77 ca 3d 42 ad 4b 3e 66 37 47 3e
       -0.026906384 0.09885998 0.19890311 0.19454727
000160 5a fd 2d 3e 51 4f 20 3e 6f 49 4e 3d b9 69 ac bd
       0.16991177 0.15655257 0.050363 -0.084186025
000170 d4 19 d2 bd ab e0 11 3e 23 0d a2 bc 35 a7 5f 3d
       -0.102588326 0.1424586 -0.019781655 0.05460282
000180 74 91 85 3d 74 31 bd 3c e6 8f 1e be cd 6e 87 bd
       0.065218836 0.02309487 -0.1548458 -0.066129304
000190 d0 3b bb 3d af c9 3c ba 64 37 37 3c 01 c3 d7 3c
       0.09142268 -0.0007201684 0.01118264 0.026338102
0001a0 c9 eb 80 bd 43 e4 b0 3c 65 f2 10 3e 85 a5 e7 bd
       -0.062949724 0.021593219 0.14154966 -0.11310867
0001b0 64 cf b6 bd f3 fa 85 bd b7 7d 89 39 cd f3 4c 3d
       -0.08926275 -0.065420054 0.0002622434 0.050037194
0001c0 66 ab b1 3c 9f d8 70 3d 86 72 9b bd 7f 78 de 3d
       0.021688174 0.058800336 -0.07590203 0.108628266
0001d0 d1 5b bd bd 9b ab 50 3e 44 48 d5 3d ac 81 1f 3d
       -0.09246028 0.20377962 0.10414174 0.038942024
0001e0 b7 c8 0c 3d c4 85 93 3d f1 d6 ab bc 6f 9f b6 3c
       0.034371104 0.07203248 -0.020976515 0.02229282
0001f0 e6 98 1d 3e 32 a8 f8 3d f0 a7 f2 3d 83 f0 dc bd
       0.15390357 0.12141456 0.11848438 -0.107880615
000200 87 4e 16 be 11 1b f4 bc 84 50 cc bd 8f 23 c1 3c
       -0.14678393 -0.029798063 -0.09976295 0.023576526
000210 1b ab 9a 3d c0 6f 1e 3d 76 ac ed bd 79 dc 1a 3e
       0.07552167 0.03868079 -0.1160516 0.15123166
000220 16 cb 39 bc df 45 2e 3d f0 1c ed 3c 47 5e 00 3e
       -0.011339923 0.042547103 0.028944463 0.12535964
000230 88 99 ff 3d b3 18 53 3b a1 4e 01 3e 9c 64 c2 bd
       0.12480456 0.0032210767 0.12627651 -0.09491846
000240 91 22 0b 3d 28 19 17 bd d1 11 10 3e 11 ee 0b be
       0.033968512 -0.036889225 0.14069296 -0.13665034
000250 ec ef 14 be ef a3 23 bd a1 72 7b bd 1b 01 3b 3d
       -0.14544648 -0.03995126 -0.061388616 0.04565535
000260 e1 29 8a bd 7d a9 1a bd 9a 95 5c bc 3f ef 34 3e
       -0.06746269 -0.037759293 -0.013463402 0.1766939
000270 b4 15 d8 3d ad ad 04 3e 27 6b 50 3d 8f c7 a7 bd
       0.105510145 0.12956877 0.05088344 -0.0819236
000280 a4 f1 86 3d 9f 51 0b 3e 3d fb e9 bd 79 9c c1 3d
       0.06589058 0.13605355 -0.11424873 0.09453673
000290 24 20 2e 3e 00 93 12 3d 61 a0 36 be 53 87 e1 3d
       0.17004448 0.03578472 -0.17834617 0.11012139
0002a0 ea 2e fd 3d 63 13 86 3c a8 85 50 3e 50 6a 22 3e
       0.12362464 0.016366666 0.20363486 0.15860868
0002b0 de ac 16 3d c1 b8 88 3e 73 ed 8b bb 43 55 32 be
       0.036785953 0.26703456 -0.0042702495 -0.17415337
0002c0 35 6f 08 3e 70 80 81 3d 6c 7a 2b 3d 25 96 99 3d
       0.13323672 0.06323326 0.041864797 0.07499341
0002d0 14 cb ef bc 8a f7 26 3e dd de 8b 3d f3 4f 35 3e
       -0.02927164 0.16305366 0.06829617 0.1770628
0002e0 d6 30 ba 3d c6 e6 ab 3d a7 f4 60 3e 69 70 76 3e
       0.09091346 0.08393626 0.21968327 0.24066319
0002f0 13 02 a4 3d bf 02 09 3e ea 3b b1 bd cb 1b d9 bc
       0.08008208 0.13379954 -0.08654006 -0.02650251
000300 e2 1c a5 3d 7b db 48 3e 5e 0f 84 bd 29 76 48 3e
       0.080621496 0.19614975 -0.064482436 0.19576325
000310 dd d2 a8 38 0b 7a 1b bd 17 a8 cf 3a 96 25 fc 3c
       8.0501406e-05 -0.037958186 0.0015842941 0.030779641
000320 29 98 0b 3e 45 1f 8b bc 9f 32 e7 bd e9 17 16 be
       0.13632263 -0.016982684 -0.11288952 -0.14657559
000330 14 0a 30 be 01 7c 0e bc 6e 3e 92 bd cf 59 13 bc
       -0.17191344 -0.008696557 -0.07140814 -0.00899358
000340 ba ad e1 3d d2 7b 67 3e 0e a1 19 3e 08 11 c6 bd
       0.11019464 0.22605827 0.15002844 -0.09671217
000350 04 92 fc bd c5 84 e1 3d 19 28 bc bc a4 73 1a bc
       -0.12332538 0.11011652 -0.022968339 -0.009426985
000360 92 80 42 be 46 66 61 be dd 6d fe bc 3e 59 4c be
       -0.18994358 -0.2201167 -0.031058246 -0.19955918
000370 2f d0 3d 3d 6a 19 06 3e b7 9d 16 bd e8 b8 cb bd
       0.046341117 0.13095632 -0.036771502 -0.099473774
000380 56 35 87 3d d0 9b 06 be ee 1a 3a bc f5 ef 8d 3d
       0.0660197 -0.13145375 -0.01135896 0.06930534
000390 bb 83 ee bc a9 cc 73 3d 74 b0 2b bc bc ba 82 be
       -0.029115548 0.05952135 -0.010479081 -0.25533092
0003a0 28 ae 3b be 30 97 99 bd 6f 5c 2d bd b0 05 09 3e
       -0.18328154 -0.0749954 -0.04232448 0.13381076
0003b0 89 1c 8d bd 1a e2 c3 3d 7e ac 11 3e a7 6f 08 3d
       -0.06890208 0.0956461 0.14225957 0.033309605
0003c0 92 47 a4 3d 2e 78 92 3d 07 f0 9b bd 83 a0 ea 3d
       0.080214635 0.07151829 -0.07614141 0.114563964
0003d0 04 02 dc 3c 52 53 60 be 35 c5 3b bc 1e c0 94 bb
       0.02685643 -0.21906784 -0.011460592 -0.0045395037
0003e0 4d ba 75 bc 90 28 d9 bc 98 1d 69 3e 9e 53 cb 3c
       -0.014998031 -0.0265086 0.22765195 0.024820145
0003f0 8f 66 e4 3d e8 5f b2 3d 66 e8 ec 3c 6b c5 7c 3d
       0.11152374 0.08709699 0.02891941 0.06171171

conv2.bias f4 [16]
000000 67 73 51 3d a7 d6 78 bd ac f4 dd bd d0 86 2e 3e
       0.051135447 -0.060751583 -0.10837683 0.17043614
000010 7a ca 0c 3d 12 f4 2c 3d 3a 40 8a 3c 0b 84 92 3d
       0.034372784 0.04222495 0.016876329 0.071540914
000020 83 95 7f bd 52 fa a3 3d 9a 08 88 3b 41 25 78 bd
       -0.062398445 0.08006729 0.004151416 -0.060582403
000030 ab 3c aa 3d ab 10 21 bd 86 45 01 3e b3 a8 45 bd
       0.08312353 -0.039322536 0.12624177 -0.048256587

conv3.weight f4 [32, 16, 3, 3]
000000 c1 04 97 bd ed 26 7c bd d6 c2 7b 3d c2 a6 f6 bd
       -0.073739536 -0.06156056 0.061465107 -0.12043525
000010 2a 37 f8 bd d9 8b 05 3d eb a7 04 3e de ac 7a 3d
       -0.12119897 0.032604072 0.1295468 0.061200015
000020 cb 76 a1 3d 55 cb d1 bd 77 06 c3 3d 5d c8 02 be
       0.07883986 -0.10243861 0.095227174 -0.12771745
000030 f3 60 b4 3b d3 f3 75 3d 40 9e 91 bc f4 f4 ed bd
       0.0055047213 0.060046982 -0.017775655 -0.11618987
000040 4d c9 fe bd de dc 43 3c c7 12 91 3b 60 eb 07 bd
       -0.12440739 0.011954514 0.0044272873 -0.033183455
000050 29 f0 fe bc cf 53 7e bd 70 49 bc bb 5c cb 04 3d
       -0.031120377 -0.062091645 -0.005746059 0.0324205
000060 6d 8c f7 bc 5d 74 5d bd 62 06 c8 3d 1a 05 25 3d
       -0.030218327 -0.05406605 0.097668424 0.04028807
000070 af 2a bb 3d 6a 22 fe bc 2d ed f8 3c 66 71 e7 3d
       0.091390006 -0.03102227 0.030386532 0.11300926
000080 a7 f4 ad 3d 67 40 c9 3d 28 2c 24 3e 6e f9 92 bd
       0.08493929 0.09826737 0.1603247 -0.07176481
000090 8e fa de bd 1e 39 bc bd e0 f0 2f be a3 52 12 3e
       -0.10887633 -0.09190582 -0.1718173 0.14289336
0000a0 ad 51 62 3d 18 8b e4 bb 60 13 87 3d f5 1d 29 3d
       0.055253673 -0.006974589 0.06595492 0.041288335
0000b0 9d bc dd bd b3 40 2c 3e 8a 6c cf 3d f0 2e 06 bd
       -0.10826991 0.16821556 0.10128124 -0.032759607
0000c0 22 ff 94 bd cc e3 04 ba 58 4b fc 3d 68 45 e7 bc
       -0.07275225 -0.0005069345 0.12319058 -0.028231338
0000d0 d7 31 c9 3d 4a 1a f1 3d 57 56 d1 bc 29 14 25 3d
       0.09823959 0.11772592 -0.025553865 0.04030243
0000e0 2d 1a ce bd d9 e2 14 3e 58 51 4d bd 43 07 9d bd
       -0.100635864 0.1453966 -0.050126404 -0.07667401
0000f0 b1 5d c6 3d ae 75 a5 bd 3e 84 cf bd fe 53 7c bd
       0.09685839 -0.08079086 -0.10132645 -0.06160354
000100 f5 ac bd bd 81 b8 fb bb 84 64 30 bd ba d6 af 3d
       -0.092615046 -0.0076819067 -0.04306461 0.08585878
000110 b9 02 b1 3d 8e 70 b1 3d 88 76 4c bd 13 58 e4 3d
       0.086430974 0.08664046 -0.049917728 0.11149611
000120 3e d1 ce bc 8a 6d 95 3d 6d 6f b6 bb c4 c3 b2 bd
       -0.025246259 0.072962835 -0.005567482 -0.087287456
000130 90 64 fe 3d 84 e8 24 bc 9e 04 eb 3c 9d 8a 7d bc
       0.124215245 -0.010065202 0.028688725 -0.0154749425
000140 82 14 f4 3a 29 2a 0f 3e 3f d8 24 3d 0f 05 eb 3d
       0.0018621834 0.13980927 0.04024529 0.11475574
000150 f2 6a fd 3c de 2b 3b 3d c4 f1 9d 3b 3b e4 c6 bd
       0.030934785 0.045696132 0.0048200805 -0.097115
000160 75 87 08 3e 51 ff f7 3b 93 f3 1d bb b1 ed c5 bc
       0.13332923 0.007568278 -0.002410148 -0.024161192
000170 c8 f1 b7 bd 5f 98 0f bd 50 7f 7a bc d1 97 98 bd
       -0.08981663 -0.03505742 -0.015289143 -0.07450832
000180 5e 18 2d 3b 7a 4d f7 bd 6b 2a 3a bd 1e 72 cc bc
       0.002641223 -0.12075324 -0.04545061 -0.024956759
000190 cf cb 2a be 06 d4 89 bd 8c 25 6f bd 6d 1b 80 bd
       -0.1667931 -0.067298934 -0.058385417 -0.06255231
0001a0 2b 5a bf 3d 63 17 05 be 78 52 42 bb 6c 4d 2c 3e
       0.0934337 -0.12997203 -0.0029651206 0.16826409
0001b0 dc 58 a7 3c 98 e1 ba bc 2f 5a 55 bd bf b8 be 3d
       0.020428114 -0.02281265 -0.05208796 0.09312581
0001c0 c3 55 f0 bc 43 16 9d bc 83 27 95 3d 5b 8a 78 3d
       -0.02933777 -0.019175654 0.07282927 0.06067882
0001d0 75 2e e8 3d 86 ca c5 3d dd 7c f4 3d f6 0d c2 3c
       0.11336986 0.09657769 0.11937878 0.023688298
0001e0 2a 0c 8a 3d 33 6b 11 bc 42 45 09 3d 56 e0 41 bb
       0.06740601 -0.008875656 0.033513315 -0.0029583178
0001f0 41 95 37 3e fb 16 5c 3d b4 79 38 bb 88 9e cb bc
       0.1792803 0.053732853 -0.0028148713 -0.024855867
000200 3a db e8 3d b2 09 5d bd fc 3a 5f 3b 65 03 3f 3d
       0.11369939 -0.053964324 0.0034062257 0.046634097
000210 dd c9 09 bd 31 f2 df bd 08 c9 b4 bc bc 3d 76 bd
       -0.033639777 -0.10934866 -0.022068515 -0.06011747
000220 34 47 87 bc 93 e7 94 bd 72 43 88 bc df ff 97 bb
       -0.016513444 -0.07270732 -0.016633723 -0.0046386565
000230 c7 f5 5a bd 72 2a 40 3d d5 84 5b bd 3b 9f 23 3e
       -0.053457048 0.04691548 -0.053593475 0.1597871
000240 08 ac 23 3d a3 64 0e 3d c7 15 9d 3d ef 74 24 3c
       0.039958984 0.034763943 0.07670169 0.010037645
000250 b5 3c 2e bd 57 78 14 3d 76 12 b8 bc 91 47 03 3d
       -0.042538363 0.036247578 -0.02246974 0.032050673
000260 48 71 2c 3d ef 42 68 bd 6b c9 00 be 3b e9 4d be
       0.04210022 -0.056704458 -0.12576835 -0.20108502
000270 5b 7d 50 bb 9c e4 30 be 9b a3 b1 bd dd 6e c4 bb
       -0.0031813 -0.17274708 -0.086737834 -0.0059946612
000280 93 fd 08 bd 56 ce 67 be ca 5b 89 3d c8 0a 42 3c
       -0.033444952 -0.22637305 0.067069605 0.011843391
000290 f0 3c 63 bd e5 09 a9 3d ee 6c 01 3c c6 f0 be bb
       -0.055478036 0.0825384 0.007899506 -0.0058270423
0002a0 7d 8d 0c be ae 31 d6 bd c5 28 f4 bc 9e e4 59 3d
       -0.13725848 -0.104586944 -0.029804597 0.053196542
0002b0 a7 07 a4 bc 85 bd d0 bd f8 5a 5b 3d 42 d5 1b 3d
       -0.02002318 -0.10192398 0.05355355 0.038045175
0002c0 ea 74 19 bd 6d 8e 75 3d a7 e3 97 bd 27 0f 08 3d
       -0.037465014 0.05995028 -0.07416468 0.033217575
0002d0 01 af 7a 3d 7e 00 0e 3e 6f a7 47 3b c8 8a 80 bd
       0.061202053 0.13867375 0.0030464788 -0.062764704
0002e0 00 47 ed 3d 93 89 21 3e 1f 65 83 3d 2d 53 b4 bc
       0.11585808 0.15775137 0.06415772 -0.022012318
0002f0 ef 52 f2 3d 44 19 6f bd af 23 34 3d 24 3c 24 bd
       0.118322246 -0.058373705 0.043979343 -0.040096417
000300 1f 85 a3 bd f4 66 28 3d fb f1 32 3d 1f ca a0 bd
       -0.07984375 0.04111381 0.0436878 -0.078510515
000310 13 6c 64 bc d2 a2 6a 3d 52 90 8d bd e6 b4 d1 bd
       -0.0139417825 0.057284184 -0.069122925 -0.10239582
000320 b9 e5 ef bd cc ac 0b be 2c 29 79 bd c9 28 1a be
       -0.11713738 -0.13640136 -0.06083028 -0.15054621
000330 69 bb 10 3d 32 dd f9 bd 7e 7a c9 bd f1 bd 91 3d
       0.03533498 -0.12200393 -0.09837817 0.071163066
000340 49 f2 0b 3d 71 e9 10 3e 1f 0e e4 3b 30 cf 69 bd
       0.034166608 0.14151551 0.006959691 -0.057082355
000350 15 98 34 bd a4 a3 c3 3d 14 b5 47 3d c6 f4 c8 3c
       -0.04409035 0.09552696 0.048756674 0.02453078
000360 2b 2d 4d 3d 61 75 c6 3d 67 97 13 bd 2f 28 7b 3d
       0.050091904 0.09690357 -0.03603306 0.06131762
000370 18 37 c6 3d 8c 74 62 3d d7 45 08 3e 7f 20 23 3e
       0.09678477 0.05528693 0.13307892 0.15930365
000380 aa d2 4c 3d 6c 1e 93 bc a2 b8 00 3e 0a 36 03 3d
       0.050005592 -0.017958842 0.12570432 0.032033958
000390 d9 d5 a0 bd 4f bc 38 bd 0b 93 d7 bd 3a 49 87 bd
       -0.07853288 -0.04510146 -0.10526093 -0.06605764
0003a0 a3 9f fb 3c 9a 72 5f bc 8a 8c 8c bd b8 91 a0 3c
       0.03071577 -0.013638163 -0.06862743 0.019600734
0003b0 a0 12 b3 3c 6b e7 cb 3d 5e 70 e9 bc 01 76 84 3d
       0.021859467 0.09956249 -0.028495964 0.0646782
0003c0 5b ee 11 bc 8d 1f a5 3d e8 8e b0 bc 48 10 58 3d
       -0.008906926 0.080626585 -0.021552518 0.052749902
0003d0 4a 4f 03 bd 09 85 26 3e 34 9f d9 3b 31 f3 e8 3c
       -0.032058038 0.16261686 0.006641293 0.028436275
0003e0 e4 0f 95 bd 06 f6 0d be 8f 37 15 3c e8 4d f2 3b
       -0.072784215 -0.13863382 0.0091074845 0.007394541
0003f0 d3 5a 81 bc 56 8f 93 bc c1 ae a7 3d 4b 25 92 bd
       -0.015790379 -0.018012684 0.081876285 -0.07136019

conv3.bias f4 [32]
000000 23 a7 7d 3d ba 7e c7 bb 84 19 60 bd 21 08 c2 bd
       0.061926972 -0.006088105 -0.054711834 -0.09474207
000010 3e b8 ab 3b 56 cd f6 3c a8 fa 6e 3d e7 31 c8 bd
       0.0052404692 0.030127209 0.058344513 -0.09775143
000020 80 04 23 bd 0f 4c 41 bd b5 5e f3 3c ed f6 c1 bd
       -0.039799213 -0.047191676 0.029708246 -0.094709255
000030 ee b3 91 bd f8 5c 99 3d 2e 19 61 3d 2f 02 04 3d
       -0.07114397 0.074884355 0.054955654 0.032228645
000040 01 c0 da 3d 41 2c 11 3c 0f 3d 71 3d 0b 93 f5 ba
       0.10681153 0.008860649 0.05889612 -0.0018735839
000050 9a bb a9 3d 9e 69 bc 3d bc 36 8a 3c 98 e4 76 3b
       0.08287735 0.091998324 0.016871803 0.0037672874
000060 cd c0 0b bd 7d 58 fb bc 47 59 dc bc f3 1a 9a bd
       -0.034119416 -0.030681843 -0.02689804 -0.075246714
000070 12 e0 5f bd 6f dc f7 3d ff 4e 43 3d fb f6 81 3d
       -0.05465705 0.12102591 0.04768276 0.06345936

layer1.weight f4 [128, 804]
000000 f4 8b ff bc 8a ac 09 3c 01 65 70 3c f9 4c db bc
       -0.031194665 0.008402953 0.014672519 -0.026770102
000010 b1 53 0c ba ac ac 21 3d 5a c6 91 bb 21 0a 21 bd
       -0.0005353047 0.039471313 -0.004448694 -0.0393163
000020 31 97 0f bb 06 95 e6 3c 2c 44 8a 3c c0 f3 a9 bb
       -0.0021910185 0.028147232 0.01687821 -0.005186528
000030 38 6b 84 bd 8a 87 ca bb 94 5c fc bc ac 81 16 bc
       -0.06465763 -0.0061807083 -0.030805863 -0.00918619
000040 a7 42 04 3c dd e5 0b 3d e4 f2 7e 3c 60 18 4f b9
       0.008072532 0.03415476 0.015560839 -0.00019750139
000050 92 a7 97 3c 88 39 24 bd 76 4e 87 3d f2 db 46 bd
       0.018512521 -0.04009393 0.06606762 -0.0485496
000060 29 a5 da bb f0 81 09 3d bc 72 a1 3c d1 26 e4 3c
       -0.0066725207 0.033571184 0.01970803 0.02785054
000070 27 1a 8f 3d 1a bb d1 3b c7 2e b3 3c 57 1c 06 bd
       0.0698741 0.006400478 0.021872891 -0.03274187
000080 d4 e9 2d 3c 97 96 87 bc f4 63 8d 3d 40 8e 20 bc
       0.010614831 -0.016551299 0.0690383 -0.00979954
000090 c1 fa 82 3d 07 d3 16 3a f0 89 35 3d 7a 3a 5e 3d
       0.06395484 0.00057534914 0.044321 0.054254986
0000a0 f0 d7 63 3c a0 0d be 3b a5 41 dd bc bb 43 eb ba
       0.013906464 0.005799964 -0.02700884 -0.0017949262
0000b0 50 74 39 3a 21 10 4f 3d 0c 9a 48 3d 30 57 cc bc
       0.0007074522 0.05055249 0.048975036 -0.024943918
0000c0 d3 bc b9 bc d2 6e f6 bc 27 a6 18 bd af a9 fa 3b
       -0.022673046 -0.03008214 -0.03726783 0.0076496224
0000d0 63 d6 7c bd 9c 7a 89 3d 9b a0 02 3d 15 4e 5b bc
       -0.061727893 0.06712839 0.031891447 -0.013385315
0000e0 19 6f 51 bb 07 6a 8d bd 38 72 cf 3d d1 27 68 3d
       -0.0031957089 -0.06904989 0.101292074 0.056678597
0000f0 82 fb ae 3c 25 f4 92 bc 43 9b 84 bc d8 86 f2 3c
       0.021360163 -0.017938683 -0.016187316 0.029605314
000100 2e 47 18 3c 6b b8 b3 bc ec 38 48 bc 34 aa e6 3c
       0.009294314 -0.021938523 -0.0122206025 0.028157331
000110 9e 0d 02 bd dc ef a6 3d 88 f4 30 3c 0e af ac bd
       -0.031751268 0.08151218 0.010800488 -0.084318265
000120 3a b7 d3 3c 3f b9 ac bc 61 af 91 bd 7a 7e b0 3c
       0.025844205 -0.021084426 -0.07113529 0.021544684
000130 c8 c0 a4 3c 24 b2 56 bc b1 57 55 3d 03 ad 04 3d
       0.020111457 -0.0131039955 0.052085582 0.03239156
000140 55 93 d3 bb fa 6d 43 3c 43 4e 1a 3b 6b 47 7c bc
       -0.0064567723 0.011928076 0.0023545183 -0.015397887
000150 b9 3d 0b 3d 6c 13 66 bd 99 e1 b6 3c 5a 19 34 3d
       0.03399441 -0.056170866 0.02232437 0.04396949
000160 bc 44 96 bc 6e bd 43 3b 86 1f 57 bd 22 76 f6 bc
       -0.018343322 0.0029867548 -0.052520297 -0.030085627
000170 f3 7f 02 3d 43 9e 02 3c b8 1e 02 bd 8b 70 23 3c
       0.031860303 0.007972303 -0.031767577 0.009975563
000180 1e ed b0 3c 7f 39 64 bc c3 41 26 39 6c da 54 bc
       0.021597441 -0.013929724 0.00015855492 -0.012991529
000190 60 7a 84 3c 8d 0e 87 ba 85 68 76 ba 20 3b 17 bb
       0.016171634 -0.0010304019 -0.000939973 -0.0023076013
0001a0 a2 f9 82 3c b0 37 54 3b c0 6f 9e bc 23 e5 4b 3d
       0.015988175 0.0032381825 -0.019340396 0.04977907
0001b0 97 97 a1 3b a0 8a ae 3c 98 f0 32 bc 1c 3e 9f bc
       0.004931401 0.021306336 -0.01092162 -0.019438796
0001c0 79 8d 25 bc c0 b9 82 bb df 66 05 bd 13 77 23 bd
       -0.0101045305 -0.0039894283 -0.03256881 -0.03990848
0001d0 6a cd 1d bc 9d dc 20 3d b8 85 c7 bc 59 ef 9c bc
       -0.009631494 0.039272893 -0.024355754 -0.019157099
0001e0 5f f9 fe 3b 96 b0 1e 3c 12 7f ac 3c c7 80 29 3d
       0.007781192 0.009685656 0.021056686 0.041382577
0001f0 a7 55 24 3c 50 bb 11 bb 51 6c ce bc 84 d6 89 bc
       0.010030187 -0.002223689 -0.025198134 -0.016825922
000200 79 66 26 bc 0f ee 8e 3a db 2b 64 3b e5 b5 c8 bc
       -0.010156267 0.0010904687 0.003481618 -0.024500797
000210 2a 3a 24 bd c1 0f a6 bc 32 b8 46 3d b3 7e 28 3c
       -0.040094532 -0.020271184 0.048515506 0.010284114
000220 70 d4 85 3c 07 c4 6c bb 7f 2e 5d 3c 58 dc 10 bc
       0.01633665 -0.0036127584 0.013499855 -0.008841597
000230 36 46 fe bc 80 1b d5 bb eb fe c2 bc 92 e1 86 bc
       -0.031039339 -0.0065035224 -0.023803195 -0.016464982
000240 8e 8f c2 3c 73 ba 49 bc c1 0a 8d 3c 84 9f cf 3c
       0.023750093 -0.012312519 0.017217042 0.025344618
000250 58 f5 b3 bb 38 40 b7 3a f1 3e 70 bc c6 58 8a 39
       -0.0054918937 0.0013980931 -0.014663444 0.00026387552
000260 27 13 bc bc e0 97 ee 3c 55 9c ba bc c3 27 9a bc
       -0.022958351 0.029125154 -0.022779623 -0.018817788
000270 0e 83 1a bd 70 70 18 3d 03 bc 12 3d e3 92 aa 3a
       -0.03772264 0.037216604 0.035823833 0.0013013746
000280 34 93 02 3c 8b 57 d9 3b 78 06 e1 39 f9 54 61 3c
       0.007969666 0.0066327504 0.00042920164 0.013753169
000290 e7 b8 bd 3c da 46 ac 3b dc b2 18 3d 6e 09 28 3d
       0.023159457 0.0052574696 0.03727995 0.041024618
0002a0 f8 b2 24 bc 84 30 34 3d 03 8a f6 3c d9 ee 87 bc
       -0.010052435 0.04399158 0.030095106 -0.016593384
0002b0 c6 fe 08 3d a6 ab 3e 3d 0e 99 60 3c cd d2 8d bc
       0.033446096 0.046550415 0.013708366 -0.017312432
0002c0 71 46 ba 3c da 5f 3a bc cb 06 96 3c 14 dd 79 3c
       0.022738667 -0.011375392 0.018313786 0.015250463
0002d0 13 31 35 bd 5e f5 44 bd e7 c7 4c 3d a3 b0 49 3c
       -0.044236254 -0.048085563 0.04999533 0.01231018
0002e0 d0 94 37 bc d6 31 e1 bb 48 1a 32 bd d7 7f 7e 3c
       -0.011204913 -0.006872396 -0.043482095 0.015533409
0002f0 ad fa 1e bd f0 b9 0c bd 57 aa a0 3c 18 4d aa 3c
       -0.03881328 -0.03435701 0.019612474 0.020788714
000300 4a be 9c 3c 63 3d 8e 3d d0 90 2d bc 5f 92 38 3c
       0.019133706 0.06945302 -0.010593608 0.011265366
000310 67 90 b5 bb b4 a6 bf bc ad ec 5a 3c a0 79 f1 3c
       -0.0055408957 -0.02339492 0.013362092 0.02947694
000320 91 e9 85 bc ec 06 f8 3b 8f e0 7f 3d f9 19 c8 3c
       -0.016346725 0.0075691845 0.062470015 0.024426447
000330 4e 2b ff 3c 64 3b 27 bd f0 37 d4 3c 2e 20 cc ba
       0.031148579 -0.040828124 0.02590558 -0.0015573555
000340 71 34 24 3d f5 99 f5 bb 63 a6 9a bc 01 35 f4 bc
       0.040089075 -0.0074951597 -0.018878167 -0.02981043
000350 87 5c 08 3d b8 5c 44 3d d7 0f 4c 3d b0 06 89 3c
       0.033291366 0.047939986 0.049819794 0.016726822
000360 ce ce 40 3d 21 1b 81 3d f3 59 03 3b db 62 c3 3b
       0.047072224 0.063040026 0.0020042628 0.005962712
000370 4f 3d 22 3d 0d 2c 4f 3d e8 91 4f 3c e4 39 4d 3d
       0.03960925 0.05057912 0.012669064 0.050104037
000380 e2 f8 9e 3c 1f 6f ea bb 0f 42 86 bc 8a 32 42 ba
       0.019405786 -0.00715436 -0.016388921 -0.00074080436
000390 93 bc cf 3b 99 90 6c bc 8f 06 33 3d 46 1f d2 bc
       0.0063396185 -0.014438772 0.043707427 -0.025649678
0003a0 63 0e 09 bd 21 28 43 b8 4f 26 99 3c 90 89 8b bc
       -0.033460986 -4.6528996e-05 0.018695025 -0.017033368
0003b0 5f 61 16 bd 45 14 80 bb 13 c4 e7 3c 52 74 f2 3c
       -0.036713954 -0.0039086663 0.028291738 0.029596481
0003c0 06 e5 52 bc 54 d0 93 bb 8c 29 09 3c 64 b2 8d 3b
       -0.012871986 -0.0045109186 0.008371722 0.0043242443
0003d0 90 01 35 bc 46 4b a5 3c ef 2d 36 bd f3 51 9a bc
       -0.011047736 0.020177495 -0.0444774 -0.018837905
0003e0 80 94 4d 3d 6a 12 8d bb 13 85 24 3c 90 a9 e4 3b
       0.05019045 -0.0043051736 0.010041493 0.0069782212
0003f0 93 d8 ee bb 1f f5 51 3c 04 a8 ad 3c 43 13 50 bd
       -0.0072890013 0.012814789 0.02119828 -0.05079962

layer1.bias f4 [128]
000000 d8 20 81 3c cb 0a af 3c 80 da bb 3c c5 94 9c bb
       0.015762731 0.021367451 0.022931337 -0.004778477
000010 f3 e8 25 bc e0 70 de 3b df 99 56 bc 48 48 2d 3c
       -0.01012634 0.006788358 -0.013098209 0.010576315
000020 8c 88 b1 3c a9 50 0f bb 2f 41 8f 3c e1 9f 7a 3b
       0.021671556 -0.0021868146 0.017487137 0.0038242268
000030 bc b8 f8 3c 7e 41 17 3d f2 17 56 3c 01 1a bb bc
       0.030361526 0.036927693 0.013067232 -0.022839548
000040 16 1c d2 bc f6 99 cc bc 11 3b e5 bb f3 e2 09 3d
       -0.025648158 -0.024975758 -0.0069955667 0.0336637
000050 6e e2 6e bc f3 76 93 bc da 07 00 3d 46 d7 a3 b9
       -0.014580352 -0.018001055 0.031257488 -0.00031250174
000060 db 89 19 3c 9d 3b 10 3b 0f de 9b 3c 1d 5b cf bc
       0.009371246 0.0022008189 0.019026784 -0.025312
000070 c2 56 0d 3d 21 ec 14 bc 2a 21 26 3c e3 8c b2 bb
       0.034506567 -0.009089501 0.010139743 -0.005448924
000080 ba e7 ab bb 69 f1 09 bd e3 28 b5 3b 49 4f 0c 3d
       -0.00524613 -0.033677492 0.0055285557 0.0342553
000090 30 44 5c 3c bc fa 53 bd a3 c8 36 bc c5 16 15 bc
       0.013443992 -0.05175279 -0.011156234 -0.009099667
0000a0 e9 7f b8 bc bc a6 18 3d ec f0 87 bb d8 20 0e bc
       -0.02252193 0.037268385 -0.004148593 -0.008674823
0000b0 84 ee 7a bc 50 a8 e8 3b 83 c8 1e 3c 37 c4 d5 3c
       -0.015315656 0.0071001425 0.00969136 0.02609454
0000c0 8c 51 dc 3b c4 b7 4e 3a 43 48 ca bc be 3a 90 bc
       0.0067235883 0.00078856596 -0.02469266 -0.017606135
0000d0 35 d7 3b bc 61 8a f5 3c 4a 7b d4 bc 64 71 92 3b
       -0.011464884 0.02997321 -0.025937695 0.0044690836
0000e0 61 5b c9 3c 49 93 00 3d 8a 1a d4 bb 7d d0 d0 b8
       0.024579706 0.031390462 -0.0064728903 -9.957047e-05
0000f0 96 f4 a2 bc 66 35 0d bd 43 9a c4 3b a6 ff 7e 3b
       -0.019892018 -0.034474753 0.0059998347 0.0038909703
000100 20 6d 82 3c 87 26 02 bd 55 a8 94 3c 81 86 5e bc
       0.015921175 -0.031775024 0.018146673 -0.013581873
000110 1b 7e 03 3d e0 73 5f 3c 55 47 e5 3c 8d e4 8a bc
       0.032102685 0.013638467 0.027988115 -0.016954685
000120 ff 88 9c bc 53 6f ad bc 8f b2 21 bc f4 93 a8 3c
       -0.019108294 -0.021171248 -0.009869232 0.020578362
000130 12 22 07 3c 7d 84 2e bb 64 c1 d0 ba 3f f2 17 bd
       0.008247869 -0.0026629262 -0.0015926776 -0.03709626
000140 95 2d db bc cb a9 d2 bc fd 9c 4c 3c 55 4b 1a 3d
       -0.026755134 -0.02571573 0.012488601 0.0376695
000150 c7 e5 12 bd 7a 1a 81 bc e5 56 fd 3b 1e 7c 21 bc
       -0.035863664 -0.015759695 0.007731306 -0.009856252
000160 84 60 95 3b 55 a7 1f bc fe ee ee 3c d8 96 2e 3c
       0.0045586247 -0.009744485 0.029166695 0.010656081
000170 fa 97 4e 3c 92 e6 49 3c 53 b0 21 3d 3d 72 de bc
       0.012609476 0.012323039 0.039474797 -0.027154082
000180 2d d7 e1 3c c2 cd fd bc 02 89 c1 bc 2b 8f 83 bc
       0.027568424 -0.030981902 -0.0236249 -0.016059479
000190 2d 46 2b 3c 9c 5f 3b 3c 90 89 09 bd 47 c0 08 bb
       0.010453743 0.011436369 -0.033578455 -0.002086656
0001a0 66 0f b1 bc 5d c4 5b 3b 2e 6f 03 3b 6c 18 6b 3b
       -0.021613788 0.003353379 0.0020055282 0.003587271
0001b0 b8 b6 25 3c a8 d7 cc bb 73 2b 96 3c 71 14 a6 3c
       0.010114364 -0.006251294 0.018331265 0.02027342
0001c0 60 51 ae bc b8 56 19 3b 95 fb 20 bd 9d 1e d2 bc
       -0.021279037 0.0023397636 -0.039302427 -0.025649363
0001d0 17 24 af bc c6 08 b7 bc 78 c0 31 bd a8 7d 4c 3c
       -0.021379514 -0.02234305 -0.043396443 0.012481131
0001e0 6b 69 74 3b ff 72 b9 bb 23 79 2f 3d d4 86 a2 3c
       0.003729428 -0.0056594606 0.042840134 0.019839682
0001f0 3d 56 96 3c 83 31 78 bc 2e 32 1e 3b a0 ef 90 3b
       0.018351668 -0.015148523 0.0024138796 0.004423097

layer2.weight f4 [128, 128]
000000 ea 32 e3 bd 04 2a 40 3e 45 f8 98 bd 46 82 3e 3c
       -0.110936955 0.18766028 -0.07469229 0.011627739
000010 c5 c6 71 3e 1a ae ff be 3c 7b a8 3d b3 61 80 be
       0.23610981 -0.49937516 0.0822663 -0.2507454
000020 17 25 91 be 28 58 14 3e 46 3f 67 be 95 69 21 be
       -0.2834861 0.14486754 -0.2258273 -0.15762933
000030 52 83 e4 bc 29 09 31 bd 2b a8 05 bf 4b c1 b4 bc
       -0.02789465 -0.043221626 -0.5220973 -0.022064826
000040 6d 24 a0 be dd ef 9c 3d 34 a7 e3 be da c6 23 3d
       -0.3127779 0.07662938 -0.44463503 0.03998456
000050 dd 12 10 3e 48 25 2f 3e 48 6f 14 3d e4 fa 82 bc
       0.14069696 0.17104065 0.03623894 -0.015988775
000060 8d 53 cb be 6a 03 a9 bd 01 1c 48 be 60 0d 08 3e
       -0.39712182 -0.08252604 -0.19541933 0.13286352
000070 66 cb 6b be ea 6f bd 39 33 63 e6 3d 4d 75 a7 3d
       -0.23026809 0.00036132272 0.112493895 0.0817667
000080 e6 fb 0d bd d2 c3 82 3d 0a 7e 04 bd fc bf bb be
       -0.034664057 0.06385006 -0.032346763 -0.3666991
000090 70 51 6d 3d 10 bd 5f 3e 7f e2 6d bd 68 59 04 3d
       0.057938993 0.21849465 -0.05807733 0.032311827
0000a0 30 66 83 3e b2 c9 d5 bd 93 f5 10 bd 85 77 21 bd
       0.256639 -0.10438861 -0.035390448 -0.039420623
0000b0 d5 b3 bb 3d f9 fe 19 bd 09 56 46 bd 83 a8 ce bd
       0.091651596 -0.037596676 -0.048421893 -0.10090735
0000c0 af 56 fa bc 60 e8 b1 3b b4 ed 8c 3e 65 2a 8b 3c
       -0.030558912 0.0054293126 0.27525103 0.016987989
0000d0 d1 b3 b0 3e da 14 b4 3c 2f 61 c9 be a9 66 86 3d
       0.3451219 0.021982599 -0.39331958 0.065625496
0000e0 89 3c ae 3e 44 9e ac be cd 5f e6 bd 37 05 a9 3d
       0.3403056 -0.33714497 -0.11248741 0.08252948
0000f0 9f 0d 35 be 09 a3 e2 3d d3 09 9c bd 8c 35 5e be
       -0.17680977 0.11066253 -0.07619061 -0.21700114
000100 04 8a 07 3d 3a b7 27 3d bd c3 b1 3d 07 dc de bd
       0.033090606 0.040946223 0.08679912 -0.10881811
000110 a0 ce b7 be 14 0a a2 ba bd 4f 16 3e df 9f 48 3e
       -0.3589983 -0.0012362623 0.14678855 0.19592236
000120 99 97 ef bc 6c 6a 25 be fa 9d a7 bd 50 f4 2e 3e
       -0.029247092 -0.16153878 -0.081844285 0.17085385
000130 72 e0 90 bd 13 78 87 bd 49 ab 0a 3d e0 58 03 be
       -0.070740595 -0.06614699 0.033854757 -0.12826872
000140 29 db a1 3d 5a 11 02 3e 78 db 4a be 04 c9 cd bd
       0.079031296 0.12701932 -0.19810283 -0.10048106
000150 76 db 03 3e 4c 5a 26 bd 96 e4 e0 bb 35 03 bc be
       0.12876686 -0.040613458 -0.006863187 -0.36721197
000160 a1 a1 85 3e 74 08 88 3d 3e 69 87 3d cf b9 2e 3b
       0.26099876 0.06642237 0.0661187 0.0026661044
000170 66 dc d4 3c 1b 54 26 bd fd e4 4f be ba 89 b7 be
       0.025984 -0.040607553 -0.20302196 -0.35847265
000180 92 21 1b bc 93 cb fc bd 2c 6a 10 3e f6 a8 20 3d
       -0.009468453 -0.12343516 0.14103001 0.039223634
000190 e2 35 8b bb 24 5d 3a bc 86 0d 0c 3b 86 6c e5 be
       -0.0042483667 -0.0113747455 0.0021370365 -0.4480936
0001a0 a0 4e 59 be b3 c0 50 bd 82 62 8a 3e 36 df 78 be
       -0.212214 -0.050965022 0.2702828 -0.24303898
0001b0 a5 67 ad be f9 9b d3 3e c9 00 98 be 89 93 a7 bb
       -0.33868137 0.41329935 -0.296881 -0.005114023
0001c0 09 56 f7 3d 8d c8 85 3d 46 4c 54 bd 21 3e 6f 3d
       0.12076957 0.06532393 -0.051830553 0.05840886
0001d0 75 ba f0 bd 83 2f 95 bd ab 9c 47 3c ca 18 94 bc
       -0.11754314 -0.07284453 0.012183349 -0.018078227
0001e0 e3 07 ba 3d 10 d9 d2 3c d3 a3 87 ba 1e 17 0b be
       0.090835355 0.02573827 -0.0010348506 -0.13583037
0001f0 f2 d4 8a 3e 40 9a a6 bc db d2 6a 3e e7 a0 dc 3c
       0.2711559 -0.020337224 0.22931997 0.026932193
000200 13 fa 7e 3c 35 21 a4 3d eb fa 8e bd c0 55 b5 3c
       0.015562552 0.08014146 -0.069814526 0.022135615
000210 7a f0 8b 3c cf d2 47 be 7c 37 da bc c6 f9 fb bc
       0.017082442 -0.19514011 -0.026637785 -0.03075875
000220 49 2f 64 bd 0d c8 24 bd 59 b3 10 be 8a 57 8e be
       -0.055709157 -0.040229846 -0.14130916 -0.27801162
000230 0a 9f d4 3c 4d 95 91 be d2 20 b8 bd 9d 97 31 be
       0.025954742 -0.2843422 -0.08990635 -0.17342992
000240 a9 db 90 bd 40 c2 be bc bf 36 51 be 17 3e b4 3d
       -0.07073147 -0.023285985 -0.2043104 0.08800905
000250 71 ea 21 3c 46 f3 a0 3d 90 e8 45 3a e0 e6 39 3e
       0.009882555 0.07858901 0.0007549608 0.18154478
000260 a9 6f e6 bd c9 eb 69 be a9 9a 7f 3c 43 bc ed 3d
       -0.11251766 -0.22843851 0.015600839 0.11608174
000270 59 66 ff bd e8 1e 80 3e 7d bf 18 3d 72 79 b0 be
       -0.12470693 0.2502358 0.037291992 -0.34467655
000280 97 6b f7 bc 2e ed 3f 3d 91 e1 c2 3d 50 0b 19 be
       -0.03020267 0.04685705 0.0951568 -0.14945722
000290 0f b9 75 3d ed f8 46 bc 35 15 0c bd 1d 5c 7a bc
       0.05999094 -0.0121443095 -0.034199912 -0.015280751
0002a0 c6 0e 11 3d 34 f3 a7 3c 30 9d e2 3d 31 cc 13 be
       0.03541448 0.02050171 0.110651374 -0.14433362
0002b0 e8 bb 65 3d 9a 3e 55 3d 61 28 5c bb ca 67 47 bd
       0.056087404 0.052061655 -0.0033593404 -0.048682965
0002c0 35 b9 0e 3d 34 08 44 3c 8c 1b a2 3c 31 bb 5c 3d
       0.034844596 0.011964846 0.019788526 0.053889457
0002d0 83 66 9e 3e 5c 16 da bc 18 68 4e be 03 35 9d 3c
       0.30937585 -0.02662199 -0.20156896 0.019190317
0002e0 89 b3 cb 3d 5e 41 ce be ab 91 b8 bc d0 22 50 3e
       0.09946353 -0.40284246 -0.022530397 0.2032578
0002f0 d7 e5 8f bb 8c b2 c9 3d 06 ec 6f be fd 15 3e be
       -0.0043914127 0.09848508 -0.2342988 -0.18563075
000300 c7 7a cb bd 86 c2 cb 3a b4 fe 20 3d 22 43 9c 3c
       -0.09935527 0.0015545643 0.039305404 0.01907498
000310 e8 55 24 bd 16 90 91 3d 46 4d ed 3e f9 20 88 3d
       -0.04012099 0.0710756 0.46348017 0.06646914
000320 9b 92 97 3c 29 17 6e bc bb 14 b0 3d 80 8d 82 bd
       0.018502524 -0.014531889 0.08597704 -0.06374645
000330 c5 7d ed 3c 49 84 d9 3d 77 fd fe 3d 0a 43 c9 3d
       0.028990636 0.106209345 0.12450688 0.0982724
000340 43 10 4e be 98 b1 3c 3c 17 0c ac bd ba 93 cd 3b
       -0.20123391 0.011516951 -0.084007435 0.006273714
000350 a6 b6 3a bd db 80 0f be 6f e1 de 3d ee b1 ee bd
       -0.045584343 -0.14013998 0.10882842 -0.11655031
000360 86 eb b4 be 08 c3 86 3b b1 34 a4 bd 44 1d 81 3d
       -0.3533594 0.004112605 -0.080178626 0.0630441
000370 a6 38 65 bb 2b 36 fd 3d 06 d1 9a bc 6a 7f cd be
       -0.0034976392 0.12363847 -0.018898498 -0.40136272
000380 b9 78 b6 3c 23 e1 54 bd 67 2c a5 bd d2 03 db 3b
       0.022274362 -0.05197252 -0.0806511 0.006683805
000390 c8 db 1e be 70 ee 5c 3d a5 5d 2e bd 5b 53 c6 be
       -0.15513527 0.05393833 -0.042569775 -0.3873547
0003a0 10 41 9f bd 40 72 77 3d 20 fc 92 3e 20 cc 8a be
       -0.077760816 0.06041169 0.2870798 -0.2710886
0003b0 a6 8a 63 be e6 1f 5f 3d 93 c3 a8 3d f7 45 4e bb
       -0.22220859 0.05447378 0.08240428 -0.0031474808
0003c0 31 86 88 3c 82 96 02 bd 70 98 43 3d 31 39 e7 bb
       0.01666555 -0.031881817 0.047752798 -0.0070563783
0003d0 c0 d4 92 be 8c 84 61 bd 4d c3 b5 bd 57 4e 1a 3d
       -0.2867794 -0.055058047 -0.08875141 0.037672367
0003e0 b9 bb 97 bb 83 82 7c bd a0 d6 02 bd 86 60 01 be
       -0.0046305326 -0.061647903 -0.031942964 -0.12634477
0003f0 a0 95 09 3d 4a 23 00 3e fc e7 7d be 24 c0 3f bd
       0.03358996 0.12513462 -0.24795526 -0.0468141

layer2.bias f4 [128]
000000 37 78 d9 3d 1d 17 c8 3d 5b 83 5c 3d 37 1d 3f bd
       0.10618632 0.097700335 0.053836208 -0.04665872
000010 ba ee c9 3c 83 0b 63 3d 8e fe 57 3d 25 53 ca 3c
       0.024649967 0.0554309 0.052732997 0.02469785
000020 45 06 7b bc a4 28 e2 3c ad b0 93 3c 81 61 14 3d
       -0.015321319 0.02760727 0.018028582 0.0362258
000030 32 a2 b4 3c df 5c 99 3d 3b 19 63 3d 5d c8 64 bd
       0.022049997 0.07488417 0.055443984 -0.055855144
000040 c4 d1 93 3d a0 18 9b bd 97 0d 24 bd be ae 05 3d
       0.07217744 -0.07573056 -0.040052023 0.03263735
000050 93 31 c9 3c a2 fd a2 3d 95 58 01 3d 4f 34 81 bc
       0.024559772 0.07958533 0.03157862 -0.015772013
000060 d0 58 e4 bc 27 3a 96 3d 32 c7 fe 3c f4 c5 8c bd
       -0.02787438 0.073353104 0.031100843 -0.06873694
000070 c1 f1 bc bc 9d c2 e1 3b 2a 67 6e bd 33 1b f3 3c
       -0.023064496 0.006889655 -0.058203854 0.029676056
000080 68 a8 2d 3d 7e be 34 3d 32 50 9f 3c 15 02 22 3d
       0.042396933 0.04412698 0.01944742 0.039552767
000090 a5 6d a1 3d c5 e3 f6 bc 0a 48 76 bd 0c a9 fc 3d
       0.07882241 -0.030137906 -0.060127296 0.12336931
0000a0 21 f0 5e 3c d7 aa f9 3d 8e 60 d5 3c c4 7b 99 3d
       0.013607056 0.12190788 0.026047017 0.074943095
0000b0 06 36 92 3d cb e3 be 3b 60 40 e9 bc 09 75 75 bd
       0.071392104 0.005825495 -0.02847308 -0.059926067
0000c0 3a 16 7c 3c 74 17 95 3d e7 3f 83 3d f9 d1 3c bc
       0.015386159 0.07279864 0.06408673 -0.011524671
0000d0 77 70 c9 bc 53 3b 3a bd 34 aa 67 3d ba 8c 73 bd
       -0.02458976 -0.045466732 0.056558803 -0.05946038
0000e0 66 b4 73 bc 54 0e 78 bc a4 7a 0a bd 60 af bb 3d
       -0.014874553 -0.015140135 -0.033808365 0.091643095
0000f0 e2 ca 81 bd e2 77 4d 3d 03 ab c4 bb b5 fa bb 3d
       -0.06337525 0.050163157 -0.0060018315 0.09178678
000100 00 ca bb bb ac a0 68 bd b9 e7 92 bd 86 12 88 3d
       -0.0057308674 -0.056793854 -0.07173104 0.06644158
000110 6d 65 3b 3d e7 45 0c 3c c6 5c 90 bd 52 32 81 bd
       0.045751024 0.008561588 -0.07048945 -0.06308426
000120 80 92 88 3c e1 4d 98 bd bd 5f c7 bd 4b 8c 5a 3b
       0.01667142 -0.07436729 -0.097350575 0.0033347781
000130 3c 6a ae 3d 60 22 36 3d b3 d8 6c bc 2f a3 99 3d
       0.08516356 0.044466376 -0.014455962 0.07501828
000140 87 c8 71 3c 6e b9 81 3d 0a 57 17 3d ae 28 a0 3d
       0.014757282 0.06334196 0.03694824 0.07820259
000150 ad a4 da 3c 4b 0d 99 3d 7d 66 d4 3d 2d 84 8a 3d
       0.026689852 0.074732386 0.103711106 0.06763492
000160 c0 d7 59 3d 10 90 15 3d 26 68 f0 bb 53 30 07 bc
       0.05318427 0.03651434 -0.007336634 -0.0082512675
000170 ca de 69 3d fb e7 22 bc ac ef bb 3b 69 be 78 3d
       0.057097234 -0.009943004 0.005735358 0.060728464
000180 df eb c1 3d 99 cf f1 3c 6d 94 03 3e f7 2e 82 3c
       0.09468817 0.029517936 0.12849589 0.015891535
000190 a4 eb 6d bd ca 90 ac 3d e3 db bf 3b 8d ed b3 3d
       -0.058086053 0.08426054 0.00585507 0.087855436
0001a0 4b b9 f1 bc 51 29 71 3d 31 9a 13 bd 21 39 54 bd
       -0.0295073 0.058877293 -0.03603572 -0.051812295
0001b0 9a 01 b4 bb a7 e2 6d 3d a3 6a 5f bc a2 52 e8 bd
       -0.005493355 0.05807748 -0.013636264 -0.11343886
0001c0 83 00 c8 3c c3 0a 89 bc e5 f7 6b 3c 93 4f af 3b
       0.024414307 -0.016728764 0.014402364 0.005350062
0001d0 0b ff 6b 3d 8b 1c a2 3d 06 10 75 bc f7 a9 57 3d
       0.057616275 0.079156004 -0.014957434 0.052652325
0001e0 95 6a d5 3d 30 5c 4f ba 07 c8 0f bd 69 08 7b bc
       0.104207195 -0.00079101603 -0.03510287 -0.015321829
0001f0 68 b1 ac bb b6 7f 27 3c 8d 02 b9 3d 97 82 34 bc
       -0.005270172 0.01022332 0.0903369 -0.011017463
