UCT/Networks/v_1_2.pt (torch, 260097 bytes, 12 tensors)

conv1.weight f4 [8, 4, 3, 3]
000000 19 fb aa 3d 2e 7f fa 3c 6b 05 49 3d 76 d1 6c bd
       0.08348674 0.030578222 0.049077433 -0.057816945
000010 ba b4 03 3e 23 f6 a2 3c bc 00 d0 3c 69 6d b6 3d
       0.1286191 0.019892758 0.025390975 0.08907587
000020 d8 9d ce 3d ea 73 17 be 8d 84 e9 bc 2f cf 24 be
       0.100887 -0.14790311 -0.028505588 -0.1609466
000030 f9 b2 88 be 05 eb 43 be 59 2d da be b6 1d af be
       -0.26699045 -0.19132622 -0.42612723 -0.34202355
000040 b1 72 6e be 6e 0a f3 be 78 87 05 3e a6 29 d3 3d
       -0.23285939 -0.47468895 0.13039958 0.10310678
000050 a9 81 68 3e f1 1d 85 3e b6 58 d3 3d 5d ab 90 3e
       0.22705711 0.25999406 0.10319655 0.2825574
000060 b7 06 b1 3e 87 0f 15 3e ec 84 89 3e 99 92 98 bd
       0.34575436 0.14556704 0.26859224 -0.07449836
000070 6e 3e 9a bc 80 95 5e be f3 c1 06 3f 2c db 49 3e
       -0.018828597 -0.21736717 0.52639693 0.19712514
000080 ff 86 f4 bd 21 6c 85 be 41 9b e3 bd 8b df 41 be
       -0.11939811 -0.26059058 -0.11113597 -0.18932931
000090 3a fd 96 bc c6 10 f8 3d c8 ab 57 3d 0d 7f 14 3e
       -0.018431295 0.12112574 0.052654058 0.14501591
0000a0 af fb 8a 3c 45 77 9a 3d cb 31 2c 3d 39 6e 96 3d
       0.016965715 0.0754228 0.042039674 0.07345242
0000b0 56 e2 46 3b 6d 88 76 3e 49 82 ea 3d 28 29 9a 3e
       0.003034731 0.2407548 0.11450631 0.30109525
0000c0 61 99 c4 3d 76 ef b4 3d 88 b9 95 3e b5 6a 42 3e
       0.09599567 0.08834736 0.29243112 0.18986018
0000d0 fb f6 fc 3d c9 78 95 3e c0 bb af be 0c 46 c0 be
       0.12351795 0.29193714 -0.3432293 -0.37553442
0000e0 cc b4 f5 be ff d4 a2 be fb 6b 7b be 98 51 c0 be
       -0.479895 -0.31803128 -0.2455291 -0.3756225
0000f0 e8 2e 9d be c7 5f bd be b8 c1 b4 be 64 a2 ad 3e
       -0.3069985 -0.36987135 -0.35304046 0.33912957
000100 fd fc cb 3e bd 0e 48 be 10 8e 99 3e 04 bb 31 3e
       0.39841452 -0.19536872 0.29991198 0.17356497
000110 91 2a 26 3d ec 66 09 be 24 62 1a 3d 2e 23 33 3e
       0.04056794 -0.13418168 0.03769125 0.17493889
000120 67 df e8 3d 3e 53 2a 3d bb 71 88 3d 7c 35 27 bc
       0.113707356 0.041583292 0.06662317 -0.010205623
000130 a0 4f 84 3d a2 ed ba 3c 4a 83 ff 3d fa 65 eb 3d
       0.064605 0.02281839 0.12476213 0.1149406
000140 da 27 47 3d 93 4a d6 3e e9 99 5b 3e 60 e4 a1 3e
       0.04862199 0.4185377 0.21445431 0.3161955
000150 ef d7 65 3e f1 24 71 3d df 42 bc 3d ac e8 6c 3e
       0.22445653 0.05887312 0.09192442 0.23135632
000160 93 b1 86 3d 10 93 4d 3e 93 a0 e9 be 9a 03 ae be
       0.06576838 0.20075631 -0.4563032 -0.33987123
000170 3f d2 e6 be f7 0c b8 be 76 d1 40 bd 61 7a b6 be
       -0.4508228 -0.3594739 -0.047074758 -0.35640243
000180 d3 52 2b be 0c 7e 5c bd 9d d5 b0 be 89 f7 5b 3e
       -0.16730814 -0.053831145 -0.34537974 0.21481146
000190 8d 59 4f be c5 29 db bd 7d 0c 4f be db a1 8d bd
       -0.20249005 -0.10701326 -0.20219608 -0.06915637
0001a0 59 56 43 be 23 39 f0 3e 09 8c ee bc 55 99 34 3e
       -0.19075908 0.46918592 -0.029119508 0.17636617
0001b0 c9 38 02 bd 0c f7 32 bb 4e 21 ec 3a e8 2f 7b 3d
       -0.031792436 -0.0027307896 0.0018015297 0.061324984
0001c0 1b 3e 64 3c 7a cc b0 bc 59 d0 ed bc 83 c3 8b bd
       0.013930823 -0.021581877 -0.029030012 -0.068244
0001d0 17 5c 32 bc 0d 14 a4 3c d6 67 c4 3c 90 d8 8f 3d
       -0.010886214 0.020029092 0.023975294 0.07023728
0001e0 22 03 32 3c eb 93 68 3b 81 ab e7 3c a0 fa 40 be
       0.010865005 0.0035488557 0.028280022 -0.18845606
0001f0 70 93 08 be 53 11 98 bd a6 d3 fb bb 7f f2 fa bc
       -0.13337493 -0.07425179 -0.0076851426 -0.03063321
000200 db 99 07 3d 1c bc 06 3d 60 2e ff 3c 83 cb d3 3d
       0.033105712 0.03289424 0.031150043 0.10341551
000210 81 4c 41 3e 64 fb 5e 3e 3a f7 19 3e 73 24 b2 3e
       0.1887684 0.21775585 0.15035716 0.34793434
000220 c4 68 2c 3f 22 c1 8c be 1d 3b 0f be 53 e5 4e 3e
       0.6734736 -0.274911 -0.13987394 0.20204668
000230 40 c5 87 be af 8a 48 3f 14 0d 0b bd 80 77 31 be
       -0.26517677 0.78336614 -0.03394802 -0.17330742
000240 e1 d1 62 3d 7f c7 4f 3d 07 4f 1a 3d 2f 11 1c 3d
       0.055375937 0.050727364 0.037673023 0.038102325
000250 a8 f3 9d 3d c6 54 2b 3c 50 76 46 3d ee ac 0d 3d
       0.07712489 0.010457223 0.048452675 0.034588747
000260 a5 30 d9 3c ea 71 89 be 7c b6 69 be 3a 76 f0 bd
       0.026512453 -0.26844722 -0.22823519 -0.117413
000270 b6 e8 4f be 8f 4f dd bc 2c a3 f4 bd ea 6c 8f be
       -0.20303616 -0.027015476 -0.11945185 -0.28012782
000280 a5 04 57 be a2 9a 73 be 58 2d 8a 3e e1 f6 ed 3d
       -0.20997865 -0.23789456 0.2698772 0.11619354
000290 33 2b be 3d 8f b9 c6 3d 3a fa fa bb fe af d6 3d
       0.09285583 0.09703361 -0.007659224 0.104827866
0002a0 a7 80 5d 3e f0 b9 9c 3d 0e b9 57 3e 5b 23 6c bd
       0.21631108 0.07652652 0.21066687 -0.057650905
0002b0 7d 8a 73 3e 87 39 ce bc 0a bf 12 3d 27 ac 6d bc
       0.23783298 -0.025173916 0.03582672 -0.014506376
0002c0 64 1b 1b 3f b8 a3 00 3f a0 e0 fa 3e 15 dc e1 3c
       0.6058867 0.50249815 0.489995 0.027570764
0002d0 4e ae a7 3c cc 82 95 3c ad ff 5a bb a4 7f c4 3b
       0.020468857 0.018250845 -0.0033416555 0.0059966613
0002e0 e0 f0 eb 3c 48 87 3e 3d b6 fa 79 3d 97 51 5a 3d
       0.028801382 0.046515733 0.061030112 0.053300466
0002f0 f4 df 15 3b 0c 22 16 3e b0 99 7f 3d d4 01 18 3d
       0.0022869082 0.14661425 0.062402427 0.03711112
000300 24 d4 ac 3d c4 14 68 bc 66 d5 8c bc a1 9d 73 3e
       0.084389 -0.014165107 -0.0171916 0.237906
000310 0d d6 60 3e a6 15 e8 3d ef 6d d2 bd 3e 4f 3b bd
       0.21956654 0.11332254 -0.102748744 -0.045729868
000320 95 f5 53 3d 1d 61 07 be 0c 5c da 3d 27 b9 7f 3d
       0.051747877 -0.1322064 0.10662088 0.062432434
000330 d5 9e c4 bd 37 31 b0 bd eb 98 fc bc 40 31 27 3f
       -0.09600607 -0.08603137 -0.030834636 0.65309525
000340 a6 60 07 3e 21 47 8d 3e 06 41 d4 3d db 94 98 3e
       0.13220462 0.2759333 0.10363965 0.29801068
000350 11 7f 1d 3f 03 6c d0 3d 5f b6 a6 bd dd df 3e bd
       0.6152201 0.101768516 -0.08140253 -0.04660021
000360 05 e6 65 3c 1e a2 03 bd ee cf 2d 3d c1 89 71 bd
       0.014031892 -0.03213703 0.042434625 -0.058969263
000370 9a 33 21 bd b4 56 c0 3c 71 74 ac bc c5 4d a1 3c
       -0.03935585 0.023478843 -0.021051617 0.019690404
000380 c8 8b 28 3d 64 3e 5f 3d 7d 84 12 bd 2c 76 28 be
       0.04114893 0.05450286 -0.035770882 -0.16451329
000390 cb 7c ed 3d 5d 64 9b 3d 7b a7 df 3c 26 86 59 3e
       0.11596068 0.07587502 0.02730154 0.2124258
0003a0 be 93 38 3d 19 c7 01 bd 9e e7 1d be 58 2b 83 3d
       0.045062773 -0.031684015 -0.15420386 0.064047515
0003b0 76 e0 12 3e e3 3b 2f be 2f 6e 98 bd a7 99 e7 bd
       0.14343438 -0.17112689 -0.07442891 -0.11308604
0003c0 23 ae 5c be 97 4b 53 be 21 76 1e be df 97 41 be
       -0.21550803 -0.20634304 -0.1547475 -0.1890559
0003d0 96 c1 39 3f cc 9f 2c be ba 50 a2 bd cf 99 15 3e
       0.72561014 -0.16857833 -0.079255536 0.14609455
0003e0 8c 28 dd 3c 27 8e ea 3e b6 7c fa 3e bf 27 09 be
       0.026996873 0.4581158 0.48923272 -0.13394068
0003f0 1a fd 42 bd ec 14 6a bd e7 a2 d0 bc e6 47 75 3d
       -0.047604658 -0.05714886 -0.025468303 0.05988302

conv1.bias f4 [8]
000000 65 1b 65 3e b5 cb 06 3e 19 27 1b 3e 53 65 8c 3e
       0.22373731 0.13163646 0.15151633 0.27421054
000010 17 63 cd 3c 88 bd 48 3d 58 28 31 3e 0b 9c 8c 3e
       0.025071664 0.049008876 0.17300546 0.274628

conv2.weight f4 [16, 8, 3, 3]
000000 f4 46 2f 3e f6 a4 f8 3d 68 15 ea 3d 45 f0 07 3e
       0.1711691 0.12140839 0.11429864 0.1327525
000010 76 fd 1a 3c e7 e0 3e bd 7d 2c c8 bd 6e 24 3d bc
       0.009459844 -0.046601202 -0.097741105 -0.01154433
000020 dd 37 9b 3d 30 64 92 3d 60 5e 77 bd f5 14 23 bd
       0.075790145 0.071480155 -0.060392737 -0.039814908
000030 63 e1 87 3d 49 1b 03 be e7 eb e4 bd 61 73 a4 bd
       0.06634786 -0.12803377 -0.11177807 -0.08029819
000040 0d a7 09 3e bf bc 2b 3d 44 cc ad 3d cf 1c f0 bb
       0.13442631 0.04192805 0.08486226 -0.007327653
000050 87 34 3e be 51 a2 f5 3d f7 70 54 3d d3 cc fe 3c
       -0.18574725 0.1199385 0.051865544 0.031103527
000060 3f 9f 39 3e 63 c1 e2 3c f1 1a b4 3d 9a 29 95 bd
       0.18127154 0.027680105 0.08794201 -0.072833255
000070 ff 92 bd bd dc a7 95 be 43 c8 67 3d ea 81 e5 bc
       -0.09256553 -0.2922963 0.05658747 -0.02801605
000080 9c 52 37 3d 0f bc 2a 3e 26 67 46 3c 31 0a 64 3d
       0.044756517 0.16673301 0.012109553 0.05567378
000090 4e 08 90 bc 63 22 0e 3e d7 5f 89 3e 2b 81 55 be
       -0.017582085 0.13880305 0.26830932 -0.20850055
0000a0 99 eb f0 ba e5 7c 7b bb 9b b5 ba bd b2 26 d2 3d
       -0.001838076 -0.0038374003 -0.0911667 0.10261287
0000b0 95 fe 3a 3e 07 62 1f be 7f 3c bb bb a9 11 88 3e
       0.18261178 -0.15564738 -0.005713999 0.26575974
0000c0 48 7a e0 3d 74 89 0d be 8a 5b b8 3d c1 46 c0 bd
       0.10960823 -0.13821965 0.09001835 -0.09388495
0000d0 88 65 c7 bd ef f4 27 be 8a 63 39 3d 77 da 9b 3a
       -0.097361624 -0.16402029 0.045260943 0.0011890669
0000e0 1f 8b e3 bd 78 50 18 be a5 08 b6 bd 61 e4 d6 3c
       -0.111105196 -0.14874446 -0.088883676 0.026231946
0000f0 14 7b a4 ba 4b c1 bf 3d 6c bc c2 bb a2 21 e6 3d
       -0.0012548887 0.093630396 -0.005942872 0.11236884
000100 e2 a3 f4 3d 92 1c 74 be 12 6c fd 3c 68 aa ba 3c
       0.11945321 -0.23839024 0.030935321 0.022786334
000110 50 fc 33 be fc aa f0 3c 7a ba b5 3d 42 1b 38 3e
       -0.17576718 0.029378407 0.08873458 0.17979148
000120 06 9e c4 3d d8 7a 15 bc 4d 1c 4a 3c 73 d8 eb bd
       0.09600453 -0.0091235265 0.012335849 -0.11515894
000130 30 ee fd bd 2a 85 11 be 35 9b cf bd 26 83 27 bd
       -0.12398946 -0.14210954 -0.10137025 -0.040896557
000140 ff de 0a 3e a0 fc 97 3e b4 79 50 3d c2 a8 8a bd
       0.13561629 0.29684925 0.050897315 -0.06770469
000150 d2 29 6c bd dc 9c d2 39 5d 9c 37 bc 87 38 3e bc
       -0.05765707 0.0004017119 -0.0112067135 -0.011610157
000160 b4 e1 24 3e 99 51 6b 3d b3 72 f8 bc 83 2f 8e 3b
       0.16101724 0.057450864 -0.03032813 0.00433916
000170 20 d7 b2 3c 79 d4 04 3e 08 3b 06 3e 3c b1 21 3e
       0.021831095 0.12971677 0.13108456 0.15790266
000180 d5 ba 94 3d f3 00 86 bd 63 1a cf bd dd 83 8e 3d
       0.07262198 -0.0654315 -0.10112455 0.06958745
000190 50 3e f0 bd f3 96 6c bd 82 94 01 bd ab 5b c8 3b
       -0.11730635 -0.057761144 -0.03163577 0.0061144433
0001a0 0e 1f b8 bb 8a 70 be bd c2 c6 8b bd 0f 22 e7 3b
       -0.0056189364 -0.09298809 -0.068250194 0.0070536206
0001b0 57 38 b7 3d 48 00 64 be 38 69 db 3c 8f d0 7c bd
       0.08946293 -0.22265732 0.02678357 -0.061722334
0001c0 1e eb ad 3d 0a 87 5f 3d 72 1c 45 3e 37 e8 8b 3d
       0.08492111 0.054572143 0.19249132 0.06831401
0001d0 eb 86 91 bd ae 65 8c 3e 6f 4e 35 bc 3c 54 5c bd
       -0.07105812 0.27421325 -0.011066063 -0.05379127
0001e0 0b c6 dc 3d 4f f1 08 be 8d 46 e4 3b 2c 10 90 3e
       0.10779961 -0.13373302 0.006966418 0.28137338
0001f0 22 20 6e 3d 25 fe ad 3e b2 29 03 bd 2b b2 87 bc
       0.058136113 0.3398296 -0.032022186 -0.01656445
000200 f4 72 99 bd 06 62 29 be f9 01 20 3e 2c e8 c5 3d
       -0.07492629 -0.16541299 0.15625753 0.09663424
000210 55 a6 92 3c 33 4f 82 3e c1 7d 56 be 83 40 ad 3d
       0.017901579 0.2545105 -0.20946409 0.0845957
000220 c6 e7 c1 bc b3 57 64 bd 79 83 e3 bc b4 e9 31 3e
       -0.023670088 -0.0557477 -0.027772652 0.17374307
000230 ab 36 e0 3d b0 41 33 be 57 2e dc 3d e3 2a 68 bc
       0.10947927 -0.17505527 0.10751026 -0.014170381
000240 71 92 65 3d 97 e8 7d bd 79 59 1f bd 1b 97 0f be
       0.05604786 -0.061989393 -0.038903687 -0.14022486
000250 bb 90 0a 3c 45 96 b4 3d 99 13 08 bd 01 6b ee bd
       0.008457358 0.08817724 -0.033221815 -0.11641503
000260 77 a4 07 be 09 b9 35 3e f1 cf 11 3e cf 2c 93 bb
       -0.13246332 0.17746367 0.1423948 -0.0044914256
000270 66 15 be 3d e4 24 b0 bd 55 63 db 3d fe 07 a3 3d
       0.09281425 -0.08600786 0.107123055 0.07960509
000280 ee cd 0b be 42 02 e4 bd bd 35 20 3c 04 fb 04 be
       -0.13652775 -0.11133243 0.009778437 -0.1298638
000290 b9 84 35 3c f5 07 88 bc 28 12 3f bd 62 5c be bd
       0.011079007 -0.016605357 -0.046648175 -0.092949644
0002a0 58 91 95 bd e3 03 15 3d 3d df cc 3d 1f de e3 3d
       -0.07303113 0.03638066 0.10003517 0.111263506
0002b0 4a de 59 bd f6 5d 7d 3e 05 f6 81 3e 23 ce a4 3d
       -0.053190507 0.24742875 0.2538301 0.0804713
0002c0 4c f7 f5 bb b6 b9 60 be ba 55 4d 3e fd e4 ae 3d
       -0.0075062867 -0.21945843 0.20052233 0.0853977
0002d0 6b 95 73 be 27 35 c0 3d 7d c9 92 bd fe e0 2a 3e
       -0.23787467 0.09385138 -0.07167337 0.1668739
0002e0 57 3f c8 bd 3d 9e ca bd a1 ae 9b 3c 22 b8 62 3e
       -0.09777706 -0.09893463 0.019004168 0.22140554
0002f0 2d 79 7a 3e 3d ae 21 3e c4 54 79 3e 0a 36 d1 3d
       0.24460287 0.15789123 0.24348742 0.10215385
000300 06 17 1a 3e 9f 8d e1 3d 18 2b 5a be 88 5b a3 bd
       0.15047845 0.1101334 -0.21305501 -0.079764426
000310 c2 c2 63 be d5 ff 6e 3e c1 c2 03 bd 74 b5 29 3c
       -0.22242263 0.2333978 -0.032168154 0.010358203
000320 48 a7 a8 3d 8b eb 2f 3e 63 38 32 be ae b0 ed bd
       0.08235031 0.17179696 -0.17404322 -0.116059646
000330 4b 06 51 3d 1f cf 1a 3e 55 4c ae 3d 3b a9 80 bd
       0.051031392 0.15118073 0.08510653 -0.06282278
000340 15 91 98 bd 56 c8 d5 3c fa 74 5e 3d d9 5e 61 bd
       -0.07449547 0.026096504 0.054310776 -0.055022094
000350 49 ad 70 3d 6f a3 aa 3c 2b 91 19 3e 0a 56 c2 bd
       0.058759008 0.020829884 0.14996783 -0.09489067
000360 65 8b 22 3e 38 f6 14 bd 28 30 58 39 06 7b 35 3d
       0.15873487 -0.036367625 0.00020617305 0.044306777
000370 3c e8 7e bb b4 a3 6c 3c f9 35 b8 bd 5c ea 22 be
       -0.0038895747 0.014443327 -0.089946695 -0.15909714
000380 aa 89 1a be f4 a7 90 3e 60 c7 b7 3d 67 27 e5 3d
       -0.15091577 0.28253138 0.08973575 0.11189156
000390 ad 0e 4a 3e 4f 8f 97 3d 7a 23 70 3c 99 62 82 bd
       0.19732161 0.07400381 0.014656896 -0.06366462
0003a0 11 6f 75 3d 31 02 a3 bd 98 e8 94 3a 2a c6 af bd
       0.059920374 -0.07959402 0.0011360822 -0.08582719
0003b0 9d db 02 be b3 44 11 3e cc 77 38 3c 73 9b 05 bd
       -0.12779088 0.14186363 0.011259031 -0.03261895
0003c0 aa 00 aa 3d 21 6d 4d 3e f3 9f 87 3d c8 e9 3b 3d
       0.08300908 0.2006116 0.06622305 0.045877248
0003d0 22 52 71 bd a8 a0 41 3e 50 3a 17 3e d0 79 22 bc
       -0.05891622 0.18908942 0.14768338 -0.009916738
0003e0 9f 95 02 be 1e cb 66 be c3 2c a0 3d 4c 96 d6 bc
       -0.12752388 -0.2253842 0.078210376 -0.026194714
0003f0 5a ea c2 bd de 26 31 be 08 b4 d4 3d f3 05 d2 bd
       -0.09517355 -0.17299983 0.10385901 -0.10255041

conv2.bias f4 [16]
000000 8e 10 e5 3c 80 f8 e4 3c 45 a7 93 3d 0a ed f0 3d
       0.027961995 0.027950525 0.072096385 0.117639616
000010 e7 74 d5 bc 86 bc d8 3c f3 16 8c 3d 32 d5 0e 3e
       -0.02605672 0.026457082 0.06840315 0.13948515
000020 5f f9 a0 3d 30 3a d9 3c d3 2a ba bd 2a 40 ef bb
       0.07860064 0.026517004 -0.09090199 -0.00730135
000030 0f d7 cc 3d 83 1e 69 bd b4 eb 1a bd 63 5e 8b 3d
       0.10001957 -0.056913864 -0.03782244 0.06805112

conv3.weight f4 [16, 16, 3, 3]
000000 bb 0e 1c 3e 74 b0 bd 3d 40 cd b8 bd 77 54 e2 ba
       0.15239994 0.092621714 -0.09023523 -0.0017267604
000010 ca c2 2c 3e 16 61 1d be 93 eb cd 3c 0f cc 3f 3e
       0.16871181 -0.15369067 0.025136745 0.18730186
000020 21 f8 8d 3c 8e ff 4a bd 55 23 57 3c 2d 22 68 bd
       0.017330231 -0.049560122 0.013130982 -0.056673218
000030 66 94 4a 3d 5a 04 c8 3c fe da 7b bc b2 07 1a 3d
       0.04945793 0.024416137 -0.015372036 0.037604995
000040 5e 7a 11 be 27 5a ef bd f0 12 85 3d 4a 91 eb bd
       -0.14206836 -0.11687117 0.06497753 -0.11502321
000050 70 08 6a be 3f 82 a5 3d 0c 40 78 3d 6e 06 ef 3d
       -0.22854781 0.08081483 0.060607955 0.11671148
000060 5d 3a 7d be 5a 42 cd bd 30 cf b6 3e 7e 48 da 3d
       -0.24729295 -0.10022421 0.35704947 0.10658358
000070 96 dc 9e 3c 92 34 27 be 0e 68 20 3e 3c 8e 8f 3d
       0.019392293 -0.16328648 0.15664694 0.07009551
000080 86 b3 9a bc 11 a5 d9 bc de c5 78 3d 1b 92 b9 3d
       -0.018884432 -0.026567968 0.060735576 0.090610705
000090 72 58 3e 3d 4b 20 3c 3d bb f0 0e 3e e7 bd 11 bb
       0.046471067 0.045929234 0.13959019 -0.0022238435
0000a0 93 37 5e 3c 6c 36 08 3e 02 e5 bb bd 40 bf 96 bd
       0.013563055 0.1330201 -0.09174539 -0.07360697
0000b0 89 64 be 3d 77 e3 77 3d 21 3e e8 3c 98 21 b6 bd
       0.09296519 0.06051966 0.028349938 -0.08893126
0000c0 74 37 7a bc 7d 14 08 3e c5 3f 0c 3d fb ab 15 bd
       -0.01527201 0.13289066 0.034240503 -0.036540966
0000d0 02 d9 30 bd 76 a6 a1 3d 1d 48 c1 bc b8 5e bf 3d
       -0.043175705 0.07893078 -0.023593957 0.09344238
0000e0 49 19 11 3e 30 5d 16 3c a0 a1 4e 3d 14 20 64 bd
       0.14169802 0.009177491 0.050447106 -0.055694655
0000f0 2e 0a 88 3d 35 59 32 3d 1a 9e 4a be f2 e7 97 3d
       0.066425666 0.043542106 -0.19786873 0.07417287
000100 9f d4 04 3e f6 3c bf 3d 9e 84 98 3c 8c eb 6d bd
       0.12971734 0.09337799 0.018617924 -0.058085963
000110 40 76 89 3d 4d 77 96 3c 66 57 02 3e cd 96 eb 3c
       0.067120075 0.018367434 0.12728652 0.02875843
000120 de 6b 91 3d ab 0e e2 bd fd 8d a8 3c 53 a1 11 bd
       0.07100652 -0.11037954 0.020575518 -0.03555424
000130 32 f7 88 bd 52 87 1f 3b 0b 3e 8f 3d a9 15 2c bd
       -0.06687774 0.0024342132 0.06994256 -0.042012844
000140 60 b4 2b be 8c a9 5d 3d 2e fe aa 3d 42 b8 e6 3c
       -0.16768026 0.05411677 0.08349262 0.028164033
000150 d6 09 a6 3c 0d 7c ab 3d f0 0d 2e 3e 11 68 ac 3d
       0.020268362 0.0837327 0.16997504 0.084182866
000160 c1 81 bb bd 53 ea 11 3d 80 fe 7f bd ea 31 39 bd
       -0.09155608 0.03562386 -0.06249857 -0.045213617
000170 5d 1b 39 3c 6f 70 56 bd 5b 54 62 bc 4b 17 9d bc
       0.011298028 -0.05235332 -0.013814057 -0.019176146
000180 b8 8a 98 bd 63 42 bc bd 40 2d a7 3b 30 4b 59 bc
       -0.074483335 -0.0919235 0.00510183 -0.013262555
000190 e2 c6 8d bd 94 dd 37 3c e0 90 a6 bc c8 c0 53 3d
       -0.069226995 0.011222262 -0.020332754 0.051697522
0001a0 1c c5 64 3c 6f f6 a7 3c a1 9b 07 3d 25 2b 28 be
       0.01396301 0.02050325 0.033107404 -0.16422708
0001b0 75 5b eb 3c 58 a4 08 3d eb 37 9b bd 57 ac 2e 3b
       0.028730134 0.033359855 -0.07579025 0.0026653016
0001c0 fd f9 c5 3d 48 a7 b6 ba fe b4 b0 3d 7e f0 11 be
       0.09666822 -0.0013935352 0.086282715 -0.14251897
0001d0 e9 7d 54 be 32 94 8a 3d 1b 9c 07 be 3f 9d a3 bd
       -0.20751156 0.06766547 -0.13243143 -0.07988977
0001e0 7a 81 81 3d e5 74 32 be c8 c7 11 bc 18 31 98 3d
       0.06323524 -0.17427404 -0.008897729 0.07431239
0001f0 cf ca 98 3d bf 6d bf bc ca 91 9a bc b7 1b e1 bb
       0.07460558 -0.02336776 -0.018868346 -0.006869759
000200 7d ab 24 be 66 fe 19 bd b9 f4 7d bd fb 68 17 be
       -0.16081043 -0.03759613 -0.062000964 -0.1478614
000210 4f d5 31 3d 50 7c 47 3d ba b1 8d bd c7 82 96 bd
       0.043416318 0.048702538 -0.06918664 -0.073491625
000220 d5 25 34 bd bd d8 4b be 81 99 b4 3c 77 70 a5 3d
       -0.043981392 -0.19906898 0.022045853 0.080780916
000230 d0 24 41 be 64 be 33 3d ff 30 63 bd 02 58 44 be
       -0.18861699 0.043882743 -0.05546665 -0.19174197
000240 51 7f 02 be 83 60 de bd 86 c6 82 be 79 ea 55 3d
       -0.1274388 -0.10858252 -0.25542086 0.052225564
000250 8a 40 e1 bd 16 03 d3 bd bf 91 42 3d 6f 20 9d 3d
       -0.10998638 -0.10303323 0.047502276 0.07672202
000260 54 5f 92 bd ec b8 84 3c 09 aa 71 bd 33 99 f6 3c
       -0.07147089 0.016201459 -0.05900005 0.030102348
000270 ee 92 ab bc 62 95 6e 3c 9b da 4a bd 3f 4f f1 bd
       -0.020944085 0.014561983 -0.049524885 -0.11782693
000280 02 c0 5d bb 45 c7 4e be ce 09 c0 3b 74 e0 46 be
       -0.003383637 -0.20193203 0.005860544 -0.1942156
000290 fc e4 28 3e b2 60 b1 3d 08 c4 ea bd f0 ee 6a 3d
       0.164936 0.08661021 -0.11463171 0.057356775
0002a0 bd 31 a0 3d 1b 23 0d bd 47 6b 56 3d 5e 2b fc bd
       0.07821987 -0.034457307 0.0523484 -0.12312959
0002b0 d1 61 25 bd 9f 0c 3c bc 4c 00 c0 bc 5a f0 cd bd
       -0.040376488 -0.0114776185 -0.023437642 -0.10055609
0002c0 b9 6e 79 bd c0 37 1a 3d 9b 09 ed 3d eb 95 16 bd
       -0.06089661 0.037650824 0.11574098 -0.036764067
0002d0 fb b1 3c bd 27 89 ee 3c 38 c2 df 3d 68 7d 8f bd
       -0.046068173 0.029118134 0.10925716 -0.07006341
0002e0 6b 56 5f 3d 9f 61 94 ba 57 f6 8d bc 35 ab 76 bd
       0.054525774 -0.0011320597 -0.017329378 -0.06022187
0002f0 79 eb 60 bd c7 10 9a 3d d2 f7 b9 3d 1e c5 0f 3e
       -0.054912064 0.07522731 0.09080471 0.14040038
000300 da 3c e1 3b 93 87 43 bd d8 4a 36 3d cf c2 de 3c
       0.006873709 -0.047736716 0.04450497 0.027192501
000310 8e a6 07 3e 87 bc 02 3e 3d 53 1d 3d 2e 0d e6 3d
       0.1324713 0.1276723 0.03840946 0.112329826
000320 12 63 57 3e 84 69 1f 3c 60 d1 8c 3b 42 ac 94 3c
       0.21033886 0.009729747 0.0042974204 0.018148545
000330 e8 35 b9 3c f7 34 ca 3c e0 a4 c8 bc f0 66 0a 3d
       0.022608712 0.024683459 -0.024492681 0.033789575
000340 2f 86 ac bd 67 31 54 3d 2e ef 47 3d 5a 00 91 3d
       -0.08424031 0.051804926 0.048812084 0.07080145
000350 fc 94 34 bd 7b 8a 7a bd 81 8e 97 bd 28 3b e0 bd
       -0.044087395 -0.06116722 -0.07400227 -0.10948783
000360 62 24 a9 bb ff b2 a2 bd 1e 73 27 3d 57 72 7f bc
       -0.005161808 -0.07944297 0.04088127 -0.015591226
000370 bc 7a 16 3e fd 1f 5e 3e fc 08 85 bc c0 74 92 3d
       0.14695257 0.2169189 -0.016239636 0.071511745
000380 23 f6 60 3d 01 24 4c 3d 1f 40 5d 3d bc 4a bc 3d
       0.054922234 0.049839024 0.05401623 0.09193942
000390 b5 50 18 bd 11 7b 8d bd ec ef f2 3d 07 b0 1f b9
       -0.037186343 -0.06908239 0.11862168 -0.00015228997
0003a0 bf d8 3d 3d 72 b5 09 3e 81 a3 2b bd b1 13 26 bd
       0.046349283 0.13448122 -0.041903976 -0.040546123
0003b0 31 2c 1e 3d a7 af 06 3e 4c e1 b8 bd 93 e7 44 3d
       0.038616363 0.13152944 -0.09027347 0.04807241
0003c0 57 12 26 3e 9e 55 9a 3d 66 ae fa bd dc fa 8c bd
       0.16217934 0.075358614 -0.12240295 -0.06883785
0003d0 65 ce d6 bd b7 39 0d 3e e0 55 b9 3c 4b 31 c7 3b
       -0.104885854 0.13791548 0.022623956 0.006078874
0003e0 04 b0 89 3c db 92 08 be d2 85 41 3d 1a 3b cb bc
       0.016807564 -0.13337271 0.04724676 -0.024808455
0003f0 26 38 07 3c 9f d4 ef bc 72 12 31 bb 2c 60 bd bd
       0.008253133 -0.02927619 -0.002701905 -0.09246859

conv3.bias f4 [16]
000000 55 f9 96 3d 4e e6 81 3d 30 3e 8a bd 11 19 31 3d
       0.07371775 0.06342755 -0.067501426 0.043236796
000010 ad b7 55 bc aa 57 3b 3d e2 b5 46 3d af fb 99 bc
       -0.01304428 0.0457379 0.0485133 -0.01879677
000020 9a 1e 30 3a 43 20 b0 3c 47 c9 2b 39 8b 52 22 bd
       0.0006718427 0.021499759 0.00016382812 -0.0396295
000030 d2 8a 65 bd 58 e9 23 b9 5c 9b e7 bc 8f e1 2e 3b
       -0.056040592 -0.00015631819 -0.028272323 0.0026684736

layer1.weight f4 [128, 404]
000000 a8 31 ce bc ea 51 3c bd 58 ef ca bb 71 4d 07 3d
       -0.025170162 -0.045976557 -0.006193083 0.03303284
000010 bb 43 95 bc 38 a1 9b bb a6 ea 3c bb 92 6f dd bd
       -0.018220773 -0.0047494434 -0.0028826385 -0.10812296
000020 b6 89 8b 3d 41 db 3b bd 51 8a 03 bc 31 b3 62 3d
       0.06813376 -0.045863394 -0.008028583 0.05534667
000030 7d d9 21 bd d4 a3 6b 3d 9f e6 8a 3c a7 b3 71 bc
       -0.039514054 0.057529286 0.016955672 -0.014752305
000040 c5 a8 dd bc 86 17 e4 bc 08 6a 11 3d 8e 90 65 3b
       -0.027058015 -0.027843248 0.03550151 0.0035028788
000050 06 e8 1d bd e4 7f 6a bd cc a1 96 3d 0f d8 ad bc
       -0.038551353 -0.057250872 0.07355079 -0.021221189
000060 c0 a0 7d bc 3e 8c 07 3c 1d b4 b1 bc 18 44 89 3c
       -0.01548022 0.008273182 -0.02169233 0.016756102
000070 2a 86 59 bc 2d 69 51 3d bf 8e 16 3c 32 a1 d0 bc
       -0.013276616 0.051125694 0.009189307 -0.025467489
000080 77 aa ed 3c cd 06 28 3d f2 55 a0 3c 26 2e 24 bd
       0.029011948 0.04102211 0.019572232 -0.040083073
000090 94 53 1d bc 5d ea 0f 3d 42 1b b9 3c 92 43 71 3c
       -0.009602446 0.035135616 0.022596005 0.014725583
0000a0 4c 90 92 3c eb 97 f2 bc 06 44 ba bb 2a c7 01 bd
       0.017891072 -0.029613456 -0.0056843786 -0.03168408
0000b0 db a0 5b 3d d7 87 d4 bc 7e 32 51 bc 11 f1 12 3d
       0.0536202 -0.02594368 -0.012768386 0.03587443
0000c0 03 64 8c 3a bb bf 85 bd 96 3f e4 3c ca 34 96 3d
       0.0010710958 -0.0653071 0.027862351 0.073342875
0000d0 0a 1a 8a bc a3 4f 98 3d ba 96 58 bc 44 9b af 3d
       -0.01685812 0.074370645 -0.01321953 0.085745364
0000e0 f4 da e2 ba 87 28 38 3d 34 5e 5c 3d 4c f9 9b 3d
       -0.0017307685 0.044960525 0.053800777 0.07615909
0000f0 58 44 0c bd c7 f8 51 3d c7 dc 31 3d af 88 df bc
       -0.034244865 0.051262643 0.04342344 -0.027286856
000100 34 de ea 3c 00 51 78 bb ef bc cc 3b 36 bf a0 3c
       0.028670408 -0.0037890077 0.0062481086 0.019622426
000110 c3 ae 96 3d ac c7 97 3d 86 38 89 3c 29 57 6f 3c
       0.07357552 0.07411131 0.016750585 0.014608183
000120 dc bb d5 3c 8c 23 68 bb 3d 44 98 3c 67 6d 62 bd
       0.026090555 -0.0035421578 0.018587226 -0.055280115
000130 b0 f3 38 3d 00 38 5e 3d c4 6b 3d bd 3c 1d 13 3d
       0.045154274 0.054252625 -0.04624535 0.035916552
000140 55 11 a1 bc 88 4f 51 bd 8d 68 28 3b 31 11 63 bd
       -0.019661585 -0.051101238 0.0025697083 -0.055436317
000150 8f fa 40 ba 06 4c 08 3b d1 db a1 3b 43 e6 57 bd
       -0.0007361555 0.0020797267 0.0049395342 -0.05270983
000160 28 93 63 bd 0f 46 12 bd e3 3f f8 3b 24 e1 e5 bc
       -0.05556026 -0.035711344 0.0075759753 -0.028061457
000170 70 7c 0d 3c dc 30 22 3d b3 26 d2 bb 11 c0 d9 bc
       0.008635625 0.039597377 -0.0064133047 -0.026580842
000180 50 ed e2 3c 30 a6 9f bc e5 1c 20 3d 88 a9 26 3d
       0.02770105 -0.019488424 0.039090056 0.04068902
000190 16 fe 89 3d aa c6 50 3d 88 70 c9 3c ca 39 54 bd
       0.06737916 0.05097071 0.024589792 -0.051812924
0001a0 08 ed 0a 3c e0 9f 92 bd a5 de 07 3d e5 ea fe bc
       0.008479364 -0.071594 0.033171315 -0.031117866
0001b0 2e 3a 3a 3c ad a3 1b bd 85 e5 91 3d 90 bd cd 3b
       0.01136641 -0.03799789 0.071238555 0.006278701
0001c0 31 26 e5 bb a7 9d 41 3c da 96 89 3d 0c bc 7d 3c
       -0.006993078 0.011817372 0.06718226 0.015486728
0001d0 9e 5c f0 bd 5f 3d a3 bd 49 d3 80 3d 31 de c7 bc
       -0.11736415 -0.0797069 0.062902994 -0.024397941
0001e0 37 95 22 bc 74 39 59 3d fc 96 7d 3d e3 26 73 3c
       -0.009923271 0.053033307 0.061911568 0.014840814
0001f0 4e f4 ff 3b 60 4a 46 bd cf 8f 3d 3d a4 ea b9 b9
       0.007811106 -0.048410773 0.046279725 -0.0003546077
000200 d5 c5 94 bb e9 df 00 3e 82 6d 1d 3d 2c 32 ba bc
       -0.004540185 0.12585415 0.038434513 -0.022729002
000210 44 73 ba bc 21 0a e6 3c 65 f5 32 bb 86 b6 cf 3c
       -0.022760041 0.028081002 -0.002730691 0.025355589
000220 29 3f c9 bd 02 e3 cb 3c e2 cc af 3c 61 32 19 3c
       -0.098265 0.02488852 0.02146 0.00935039
000230 c8 16 5d bd 52 1c 1e bc cf e3 79 3b f8 7c a2 3d
       -0.053976804 -0.009650307 0.003813017 0.07933992
000240 75 f0 64 3c cf 13 8f bd 54 a9 3e bd 93 bb d6 bb
       0.013973345 -0.069862 -0.046548203 -0.0065531223
000250 ce ec 4d bd a0 cd f8 bc d7 85 ee bb 66 4c af 3c
       -0.050274663 -0.030371487 -0.0072791385 0.021398734
000260 8e 3e 25 bd 09 7d d2 bc 23 93 5d 3c 86 36 4b bd
       -0.04034286 -0.025694387 0.01352385 -0.049612544
000270 2d e5 10 3d d2 cb 88 3c 4d bf f3 bb 35 8d 77 3d
       0.03537481 0.016698752 -0.0074385763 0.0604374
000280 2d a9 95 bc 30 93 14 bd e2 ff 08 3d 1d cf b0 3d
       -0.018269146 -0.03627318 0.033447154 0.08633254
000290 f4 7e c7 bc 98 57 40 3d 5a c2 e8 3c 0f f7 89 3c
       -0.024352528 0.046958536 0.028412987 0.01684144
0002a0 ef 1e 88 bd aa cc dd bc 26 65 b0 3c 97 6b fb bc
       -0.06646525 -0.02707513 0.021532606 -0.030690951
0002b0 e2 bc ed 3c c2 13 85 bd f4 7f 0f 3d 01 0c b8 ba
       0.02902073 -0.06497909 0.035034135 -0.0014041663
0002c0 7b 53 2f 3d bf ac e1 bb 3f 87 3d 3d 7c 43 be 3c
       0.042804223 -0.006887048 0.04627156 0.023225538
0002d0 b2 17 4c 3c 0e 56 02 3c 00 40 89 bc c6 bd 13 3d
       0.012456821 0.007955087 -0.01675415 0.036069654
0002e0 11 92 d8 ba 78 84 68 bc 95 d4 37 3a 6f ce 2d bd
       -0.0016523023 -0.014191739 0.0007012573 -0.0424332
0002f0 07 fc 08 bd 56 91 94 3d 27 ac 3c bd be 08 8f 3c
       -0.033443477 0.07254283 -0.046062615 0.017460223
000300 19 16 a1 3c 99 2d 29 3d f8 c2 25 bd 40 50 19 bd
       0.019663857 0.04130325 -0.04046914 -0.037430048
000310 9f 02 33 3d 32 d0 6f bc 23 12 18 3c 5a 7f 1c 3d
       0.04370367 -0.01463704 0.009281668 0.03820739
000320 fe f1 1a 3d 67 c9 94 3d d0 f2 28 3d 88 86 0b bd
       0.037828438 0.07264977 0.04124719 -0.034063846
000330 12 37 83 bc ed 81 24 3c 5f 20 94 3d 67 5e 9b 3d
       -0.01601747 0.010040742 0.07232737 0.07586365
000340 d3 60 c5 3c c9 3a be bd 2f aa 6e 3c 07 05 d7 bc
       0.024094021 -0.09288556 0.014566942 -0.026247514
000350 58 5f a4 bb 5a be 22 3c e7 cb 59 bd a4 bc de 3c
       -0.0050162487 0.009933079 -0.053172972 0.02718956
000360 40 46 bf bd 22 21 d0 bd 5c b9 ee bc c7 bf 8c 3c
       -0.09339571 -0.101625696 -0.02914112 0.01718129
000370 9b 4b 19 3d 82 38 a2 3b ab 5d 5e 3c 78 20 63 3d
       0.03742562 0.004950584 0.013572137 0.055450886
000380 46 ab d5 bc 43 b8 36 bd 98 fe 05 3d 3f ff 93 bd
       -0.026082646 -0.04460932 0.032713503 -0.07226419
000390 39 9f d6 3b 6c 55 28 3d 22 13 a5 3b 10 fc be bc
       0.0065497425 0.04109709 0.005037681 -0.023313552
0003a0 a4 d1 be ba af c1 b8 3d b0 16 22 3c c5 65 81 bc
       -0.0014558327 0.09021317 0.009893104 -0.015795598
0003b0 2f fa 9a 3c 9d 05 9a 3d c4 80 81 3c ba 4e 1e 3d
       0.018918125 0.07520602 0.01580847 0.0386493
0003c0 8c a4 9d 3d b1 ce aa 3d d0 1b 04 3b c8 09 1e bd
       0.076974005 0.083402045 0.002015818 -0.038583547
0003d0 a6 f8 b9 3c a8 2b a3 bd ac 0b 4f bd 61 14 05 bd
       0.022701573 -0.07967311 -0.05054824 -0.032490138
0003e0 26 db 88 3d 14 c3 89 bd fe 95 4f bd ca a2 d5 bd
       0.06682424 -0.06726661 -0.050680153 -0.1043144
0003f0 40 c5 2a bd e9 27 1e 3d 74 8c f3 3c 3b 10 c8 bc
       -0.04169202 0.03861228 0.02973006 -0.024421802

layer1.bias f4 [128]
000000 d4 5f c1 3c 90 76 11 bd c9 4a b2 3c 55 bc 02 bb
       0.023605265 -0.03551346 0.021764176 -0.001994868
000010 97 cb 0e 3d 0b bc b1 ba a5 dc d3 3c 79 20 3f 3d
       0.034862127 -0.001356007 0.025862047 0.046661828
000020 27 7a 19 3d f8 f2 13 3d 17 db 5a 3d 84 52 ac bc
       0.03747001 0.036120385 0.053431597 -0.02103544
000030 f0 02 97 3c 1e 0e 0b 3d 55 a9 d4 3b b3 96 12 bc
       0.018434018 0.03394901 0.0064899125 -0.008947062
000040 f3 af 9e bc cb 38 7e bc dd 79 f4 3c db 4e 16 bc
       -0.019371009 -0.01551647 0.029843265 -0.009174074
000050 bd d4 2a bd 31 a7 a1 3c 3e c2 97 bc 0f 6b fe bc
       -0.04170679 0.019733043 -0.01852524 -0.031056909
000060 89 3c 21 bc b2 27 df 3c eb b0 16 bd 95 07 88 3c
       -0.009841093 0.027240608 -0.036789816 0.016605178
000070 15 36 26 bd e8 9f 08 3d 7e e1 2c bb fd 39 83 3d
       -0.04057892 0.033355623 -0.002637952 0.06407545
000080 3e 6e 49 bc 78 ff cc bc ff e7 4b bd d6 66 bd 3a
       -0.01229435 -0.02502416 -0.049781796 0.0014450203
000090 ca 8f 3f bd da dd a3 3b a1 0d 24 3d f5 ce c0 3c
       -0.046767987 0.005000812 0.04005206 0.023536185
0000a0 d2 f2 91 bc 60 8f 53 bc 83 59 25 3d e2 a0 6a 3d
       -0.017815981 -0.012912601 0.04036857 0.057282336
0000b0 0e cd 63 bd 41 2d b2 bb 2e a3 0b bc ca 13 20 3d
       -0.055615477 -0.0054375236 -0.008522792 0.039081372
0000c0 38 c2 14 3c 8d 56 2c 3d e5 06 8e bc b7 20 09 bc
       0.0090795085 0.04207473 -0.017337272 -0.008369616
0000d0 e3 9b 97 bc b7 11 18 3d d7 60 80 bb bc c8 bb bc
       -0.01850695 0.03712627 -0.003917794 -0.022922866
0000e0 f0 81 a6 bc 8f 5c 2d 3d be b8 7c 3c c7 67 20 bd
       -0.02032563 0.0423246 0.015424905 -0.03916147
0000f0 73 cf f0 bb eb 81 4d 3c f2 ad 33 bd 75 8a 11 3c
       -0.0073489486 0.012543182 -0.04386706 0.008883108
000100 47 d2 3b bc 0f c7 f3 3c d3 12 dd bc de ab 2f bc
       -0.011463708 0.029758004 -0.026986515 -0.010722129
000110 5c 47 37 3d b8 4b ff bc 95 14 6e bd 6a 25 26 3c
       0.044745788 -0.031164035 -0.058125097 0.010140756
000120 1e 5b 77 bc 9c b5 53 3d fa 26 be ba 89 74 03 bd
       -0.015097408 0.051686868 -0.0014507466 -0.03209356
000130 1f 4f 0f 3d 99 0a 9f bc 05 76 52 bc 70 be 3c bd
       0.034987565 -0.019414233 -0.012845521 -0.046080053
000140 f6 f8 f1 bc b9 08 ea bb a4 fd a6 bb d4 be 17 3d
       -0.02953766 -0.007142153 -0.0050961543 0.037047222
000150 51 3e 93 bc 5c 75 ab bc 92 2a 0d 3d 85 b0 0d bd
       -0.01797405 -0.020929985 0.034464426 -0.03459217
000160 48 04 0b 3d 85 50 e8 bc d1 c1 f3 bc 63 54 5e 3d
       0.03393963 -0.028358707 -0.029755505 0.054279696
000170 55 eb 27 3a 78 f7 1c bd c5 09 d9 3c 31 84 bf bc
       0.00064056116 -0.038321942 0.026493916 -0.023378463
000180 18 e7 59 bc 79 31 c8 bc 83 62 02 3d 4b 32 70 3b
       -0.013299726 -0.024437653 0.03183223 0.003665107
000190 4f 65 5b 3d 4c ae 41 bd 6a 32 8e bc 03 44 a1 3c
       0.053563412 -0.047285363 -0.017358024 0.01968575
0001a0 9e 8e 7d 3c cb 8e 18 bd 14 63 50 3d 78 2f 16 3d
       0.015475897 -0.037245553 0.05087574 0.036666363
0001b0 69 e4 84 3b 30 e1 23 3d 8a 10 5e bc ab 4a 17 3c
       0.004055549 0.040009677 -0.013553748 0.009234111
0001c0 f9 9e 3a 3c 1c bf c4 3c 29 ba 02 bc 6d de 44 bd
       0.011390441 0.02401691 -0.007978954 -0.048063684
0001d0 8d fb eb bc 1f 73 8f 3b 32 5f 84 3d 9b df 19 bd
       -0.028806472 0.004377737 0.064634696 -0.037566762
0001e0 ab 30 07 bd ee 29 a3 ba 38 46 a8 bc 63 37 76 bc
       -0.033005398 -0.0012448409 -0.020541295 -0.015027854
0001f0 cd 4b 5f bd f4 b2 64 3c de 12 bd 3b 77 a9 0e bd
       -0.05451565 0.013958681 0.0057700714 -0.034829583

layer2.weight f4 [64, 128]
000000 c9 81 1a be 09 e9 49 be 5f 54 6a be b8 1e b4 3d
       -0.15088572 -0.19717802 -0.22883748 0.08794922
000010 12 1c d3 3d b3 a0 8c be e7 00 8b be 6b b9 a4 3e
       0.10308088 -0.27466354 -0.27149126 0.32172713
000020 2c 53 88 3e 11 17 9d 3e 22 a7 e7 bd e4 46 e3 be
       0.26625955 0.3068166 -0.11311175 -0.44390023
000030 52 dc 05 be 9e 24 f1 3d dd 7b 9a 3e 1a 52 fe bd
       -0.13072327 0.11774562 0.30172625 -0.124180034
000040 39 dd 4c bd 14 ef ae bd d6 f4 79 be 43 11 5d 3e
       -0.050015662 -0.08541694 -0.24409804 0.21588616
000050 07 4e db 3e dd de 99 bd 1a f6 fd 3e b5 d8 26 be
       0.42832968 -0.07513211 0.49601823 -0.16293605
000060 9a f3 94 3e 10 48 86 3d ab 92 24 bd f1 c4 b0 3e
       0.29092103 0.065567136 -0.040178936 0.34525254
000070 05 84 19 3d d2 6c 9f bd f5 4a 7e be c7 da a5 3e
       0.03747942 -0.07784428 -0.24833281 0.32393476
000080 0f f7 83 be a6 c4 2f 3e 13 66 71 be fb 47 86 be
       -0.25774428 0.17164859 -0.23574094 -0.26226792
000090 d8 97 c5 3e 01 7a 5e 3e a0 34 71 be ca 7e 6e be
       0.3859241 0.21726228 -0.23555231 -0.23290554
0000a0 de 87 0a be 67 01 53 be 38 17 5f bd 1c 43 b3 bd
       -0.13528392 -0.20606004 -0.054465503 -0.087530345
0000b0 84 c4 7b 3d ff 2f f3 3d 7c 15 e7 3d f6 62 f1 3d
       0.06146671 0.11874389 0.11283395 0.117864534
0000c0 0f 01 fe 3d b9 e0 e7 bc a3 62 82 be 3a 2f 79 3e
       0.12402546 -0.028305398 -0.2546588 0.24334422
0000d0 90 1d c7 be c1 0a 55 3e 07 d3 5b be 2f b1 90 3d
       -0.38889742 0.20804884 -0.2146722 0.07065045
0000e0 a6 90 13 3e 0c 2a 31 be 84 3c ca bd b8 85 a5 3e
       0.14410648 -0.17301196 -0.09874824 0.32328582
0000f0 a9 1e 32 be a6 38 8d 3d 12 7c b4 be ac c3 27 3f
       -0.17394508 0.068955705 -0.35250908 0.65532947
000100 a2 2e b3 3e a9 22 4e be 6d 39 42 3e 4d 59 89 3e
       0.34996516 -0.2013041 0.18967219 0.26825944
000110 e6 e0 99 3d 25 41 76 3e a2 33 db bd 13 a3 35 3f
       0.07513599 0.24048288 -0.107032076 0.70951957
000120 c1 c4 97 3e c0 92 8b be 4a 70 71 be ab 55 07 be
       0.296423 -0.272604 -0.23577991 -0.13216273
000130 0d 56 7c 3e a2 d1 1b be 8a d7 e5 ba 37 b8 69 be
       0.24642201 -0.15216687 -0.0017535549 -0.22824179
000140 6e 14 6a be e6 be d6 bc 81 ad 4a be 91 80 40 3e
       -0.22859356 -0.026214074 -0.19792749 0.18799044
000150 3e f5 4d be 9b 82 e9 3d 97 18 99 3d 94 6f ab bd
       -0.20113084 0.11401864 0.07475393 -0.08370891
000160 d1 a7 71 3e 46 14 48 3e 5f 70 8e 3e d4 36 39 3e
       0.23599173 0.19538984 0.27820107 0.18087322
000170 b4 9a 3e be 69 30 eb 3d 40 2c 29 be 48 c2 ad be
       -0.18613702 0.11483843 -0.16520786 -0.33937287
000180 9b c2 39 be dd 66 44 3e f5 56 ab bd 39 50 5b be
       -0.18140642 0.19179864 -0.08366195 -0.21417321
000190 5a f9 08 3e fb c2 3a bd 1a 10 ca bd c1 80 40 be
       0.1337637 -0.045596104 -0.098663524 -0.18799116
0001a0 ad cd 82 bd 9a 35 95 3e 9e d7 67 be d0 f6 a2 3e
       -0.06386886 0.29142457 -0.22640845 0.31828928
0001b0 18 25 25 3e a4 b7 4b 3e b8 c9 dd 3e 5c 77 9e bd
       0.16127431 0.19894272 0.43317962 -0.0773761
0001c0 82 85 af bd cb bf 21 3e 03 3f 15 3e ea dc 24 3c
       -0.085703865 0.1579582 0.14574818 0.010062436
0001d0 6d e4 c5 3d 8f 32 ea bd ca 8a 3b be e8 a6 61 bc
       0.096627094 -0.114354245 -0.18314663 -0.013772704
0001e0 98 38 dc be c3 3a 4c be 6c 9a f2 bd ac c1 9d 3d
       -0.43011928 -0.19944291 -0.1184586 0.077029556
0001f0 bb 6b 71 be 05 3e a9 be d8 d2 97 be 77 59 27 3f
       -0.23576252 -0.3305513 -0.2965305 0.6537089
000200 a1 b5 44 be b6 60 9c bd 6b f4 8a be 79 d8 f5 3c
       -0.19209911 -0.07635634 -0.271396 0.030010449
000210 4d 1e 55 3d ea a5 2b be 88 d7 cd be 25 27 fe 3e
       0.05203085 -0.1676251 -0.402035 0.4963924
000220 ce 0c 5f 3e ae c2 4d 3e d3 a6 62 be 63 59 ef be
       0.21782228 0.20093796 -0.22133951 -0.46747884
000230 5a 0e 30 be 35 05 09 bd 68 9f 9e 3e 53 e1 be bd
       -0.17192975 -0.03345223 0.30980992 -0.09320321
000240 99 76 09 be 71 ff c1 bd 2e 51 97 be c7 64 61 3e
       -0.13424148 -0.0947255 -0.29554123 0.220111
000250 5c c3 08 3f 1c 29 79 3d 75 6c 1d 3f 91 17 28 be
       0.53423095 0.06083022 0.6149362 -0.1641524
000260 a3 c7 37 3e b5 c7 ef 3d c2 47 dd bd 49 0f 8e 3e
       0.17947249 0.11708013 -0.10804702 0.27746037
000270 66 1a 95 3d 0b 0e 32 bd 9e e6 85 bd c1 71 a4 3e
       0.07280426 -0.043470424 -0.06538127 0.32118037
000280 7e 91 6a bc 5f b6 a0 bc bd 99 d6 be 96 c8 b8 be
       -0.014316915 -0.019618211 -0.41914168 -0.36090535
000290 96 35 c9 3e f5 9c 91 3e 3c a5 04 be 29 b6 f9 bd
       0.39298695 0.2844006 -0.12953657 -0.121929474
0002a0 69 5d 3b be e7 bf 86 be b1 4b ee bd c5 4a 4f be
       -0.18297352 -0.26318285 -0.11635531 -0.20243366
0002b0 dc de 1a bd 85 bb b2 3d 7a 93 28 3d 3a 43 4b 3d
       -0.03781019 0.08727173 0.04115627 0.04962466
0002c0 7c 3f 52 3e 9a 9a aa bc c1 6b e2 be fd 21 91 3d
       0.2053203 -0.020825673 -0.44222835 0.07086561
0002d0 46 9d f3 bd 4a 43 cf 3d 88 3f c2 bd 59 ff 1e 3e
       -0.11895232 0.10120256 -0.09484774 0.15527095
0002e0 0e 50 76 3e 89 f1 18 be c7 03 50 be d4 72 ef 3e
       0.24053976 -0.14935888 -0.20313941 0.46767294
0002f0 f2 6e 5e be 86 68 d6 bc 8e b2 b2 be 48 35 d1 3e
       -0.2172201 -0.026172888 -0.3490185 0.40860963
000300 a3 c8 e9 3e 63 6e 90 be b6 6e 70 3e 17 21 dc 3e
       0.45660886 -0.28209218 0.23479733 0.42993996
000310 9f 24 18 3e 57 38 99 3e 3e 10 9c be 77 ce 31 3f
       0.1485772 0.29925796 -0.30481142 0.69455665
000320 8a 38 1e 3e e8 28 23 be eb 0c 48 be 4b 2e c2 be
       0.15451255 -0.15933573 -0.19536178 -0.37925944
000330 0c 11 37 3e ab 7f 68 be b2 2e a6 bd 09 b3 89 be
       0.17877597 -0.22704951 -0.08114375 -0.26894405
000340 87 aa 02 be 21 12 39 3a 8c 68 ce be a5 a3 36 3e
       -0.12760364 0.00070598914 -0.40314138 0.17835863
000350 ff 5b ae be 6b 54 2c 3e 88 9f 15 3d f8 5d 8f be
       -0.34054562 0.16829078 0.036529094 -0.2800138
000360 a5 35 69 3e 6b da 79 3e 18 27 92 3e b6 f9 a2 3d
       0.2277437 0.24399726 0.2854545 0.07957785
000370 32 01 18 be 5a 2e 8d 3d 14 dc e1 3b 73 b2 27 be
       -0.14844206 0.068936065 0.0068926904 -0.16376667
000380 29 67 36 be 78 1d 5d 3e 8a 2d 68 be bb 34 1f be
       -0.1781279 0.21593273 -0.22673622 -0.15547459
000390 c2 54 13 3e 30 70 b4 3d b4 b3 b9 3d de 37 92 be
       0.14387801 0.088104606 0.09067479 -0.28558248
0003a0 d1 3c 6f bd cf 68 2e 3e 47 15 7c be af f0 bf 3e
       -0.05840761 0.17032169 -0.24617492 0.37488315
0003b0 26 2f 59 3e 8a 95 5a 3e 7a 69 ce 3e 4a 68 36 be
       0.21209392 0.21346107 0.40314847 -0.1781322
0003c0 6a 00 47 be 28 c6 8d 3d 05 5e 9b 3e 50 04 f7 3a
       -0.19433752 0.06922561 0.3034517 0.001884589
0003d0 5b 22 20 3e 26 18 3b be c7 37 a2 bc b7 56 a0 bd
       0.15638106 -0.1827093 -0.019801987 -0.078290395
0003e0 5b 2b e0 be 17 e3 53 be 3c 80 ab be c1 b1 82 3d
       -0.43783078 -0.20692097 -0.33496273 0.0638156
0003f0 91 a8 41 be 4e 95 e9 be 23 ee d2 bd 3f 08 24 3f
       -0.18911959 -0.45621723 -0.10299327 0.6407508

layer2.bias f4 [64]
000000 36 61 a0 3d 7e 27 33 bd 04 72 59 3c 7d 04 94 3d
       0.078310415 -0.043738835 0.013271812 0.072274186
000010 73 95 8d 3d 3d 8f 81 bc bd a7 e4 3c 5e f0 dd bc
       0.06913271 -0.015815372 0.027912015 -0.027092155
000020 72 76 21 bd 85 93 97 bc c1 5c 49 3d b7 10 d2 3c
       -0.0394196 -0.01850296 0.049160723 0.025642736
000030 66 be a0 3d 04 0b 6c bd 79 dd f4 bb 80 ae 61 bd
       0.078488156 -0.057627693 -0.0074726907 -0.055098057
000040 79 64 ff 3c d9 db a1 3d 48 c8 5b bd e3 2d dc ba
       0.031175839 0.07903261 -0.0536578 -0.0016798343
000050 98 75 53 bd 66 db 34 3b 27 db 31 3d 11 2b 9e 3c
       -0.051625818 0.0027596592 0.04342189 0.019307645
000060 dc 42 a0 3d 82 77 33 3d 21 d3 ed 3a 89 9b 4c bd
       0.078252524 0.043815143 0.0018144586 -0.049953017
000070 fb 14 8e 3b 37 4f 92 bd 82 67 17 3b 5a 4e 72 3d
       0.004335997 -0.07144015 0.0023102467 0.059156753
000080 d8 b7 d5 3d 0e 26 9d 3d cc 22 e0 3d 7f 4d 99 bd
       0.10435456 0.07673274 0.10944137 -0.07485484
000090 e6 f7 cd bc 05 5d d5 3c ea 0f 08 bd 4f cd 28 bd
       -0.025142621 0.026045332 -0.0332183 -0.041211423
0000a0 71 24 be 3d fa 33 e8 3d 6c 5a 89 bd cb 6d 2b bd
       0.092842944 0.11338039 -0.067067 -0.041852754
0000b0 9d 89 ee 3b ac d1 87 3d 4e 9c 24 3d d4 50 08 bc
       0.0072795884 0.066317886 0.040188126 -0.008320052
0000c0 2b 70 eb 3c 1e 8a c4 3d 29 f5 63 3d 85 7d 0d 3d
       0.02874001 0.09596656 0.055653725 0.034543533
0000d0 ca ff 4a 3d 85 20 8b bb a8 6f 86 3d 06 13 aa bd
       0.049560346 -0.00424582 0.065642655 -0.0830441
0000e0 68 c6 b7 3c e4 18 ae 3d fa 17 99 bd 62 9d bf 3d
       0.022433475 0.08500841 -0.07475276 0.0935619
0000f0 0f ec ca bd 40 f2 92 3d a4 f0 c9 bd d6 11 71 3c
       -0.09908306 0.07175112 -0.09860352 0.014713725

layer3.weight f4 [5, 64]
000000 66 9f 4b bf 25 7c 0c bf 4c 8f b9 3e fd ea 61 bf
       -0.795401 -0.5487693 0.3624214 -0.8824919
000010 34 cc d8 be 56 e5 1d 3e a9 98 17 3f f2 a8 a7 3e
       -0.42343295 0.15419516 0.59217316 0.32746083
000020 72 48 30 3f 3c c2 86 3f be 7e 9f 3e c3 7f 5e 3f
       0.6886054 1.0528026 0.31151384 0.869137
000030 50 c7 9d 3e d7 a2 81 3e a7 96 88 3f 4c 07 b4 3e
       0.30816126 0.2531955 1.0670975 0.35161817
000040 18 0f 25 3f 94 ae 1a bf 89 43 0d bf 98 ce f5 be
       0.64476156 -0.60422635 -0.55181175 -0.4800918
000050 6e 8a 61 3f 82 07 d3 3e 33 7b 37 bf 6a 07 83 3e
       0.8810185 0.41216666 -0.7167236 0.25591594
000060 ce 76 2f be 16 70 24 bf 64 87 50 3e 76 76 a5 be
       -0.17135164 -0.6423353 0.20364147 -0.3231694
000070 e5 08 7f 3e af 18 25 3f d4 6c bb 3e ab 31 50 bf
       0.24905737 0.6449079 0.36606467 -0.8132579
000080 d5 45 48 bf 5b fd 2d bf 8f a1 70 3f db 75 94 3e
       -0.78231555 -0.67964715 0.9399652 0.28996167
000090 cf 29 4b 3f 3e c1 87 be 48 94 c2 be 68 a3 32 bf
       0.7936067 -0.2651462 -0.38003755 -0.6978059
0000a0 8b 0f 97 3e 41 6f 48 bf f9 d9 e4 be 88 5b be bd
       0.29504046 -0.7829476 -0.4469755 -0.09294802
0000b0 7f e0 b6 3e 44 dc 8d be 11 c4 54 bf ad 64 27 3f
       0.35718152 -0.27707112 -0.83111674 0.65387994
0000c0 b6 d7 7d be cd 5e 2f 3f fc 14 06 3f 41 cc 72 bf
       -0.24789318 0.6850403 0.5237577 -0.94842917
0000d0 66 0c 4f bf 27 da e9 be f1 b5 33 bf f0 0b eb be
       -0.80878294 -0.4567425 -0.70199496 -0.45907545
0000e0 ea d9 1c 3f be 46 61 3f bd 38 01 3f 4b 87 55 be
       0.6127001 0.8799857 0.504772 -0.20852391
0000f0 db 14 36 3f 90 4a 3c bf 8d 60 29 3e 0b 4d c5 be
       0.7112557 -0.73551273 0.16540737 -0.38535342
000100 bb 5c 1a bd 75 cf fc bc 7a 20 91 3c 4b 6b 55 3c
       -0.03768609 -0.030860642 0.017715681 0.013026069
000110 85 ac 7a bd 2c af d6 3c 13 d7 96 bc 9f 7c 78 3c
       -0.061199684 0.026206575 -0.018413102 0.015166431
000120 4a be 61 bb f5 35 8e bb f2 f0 6e 3d c0 89 a6 3c
       -0.0034445697 -0.0043399283 0.058335252 0.020329356
000130 b5 a6 66 3c 8d d1 55 bd 27 ad 67 3d f6 53 73 3d
       0.014077832 -0.052201796 0.056561615 0.059406243
000140 83 1c cd bc 4b b9 3c bc f1 69 d5 3c 99 9b 01 bd
       -0.02503801 -0.011518787 0.026051493 -0.03164253
000150 c3 d7 65 bd 6e a2 1e bd 66 2b 5c ba be 4f f7 bc
       -0.05611397 -0.038729124 -0.0008398801 -0.030189391
000160 29 58 8d bc 34 28 40 bc 0e 9e 97 3d b3 d3 1c 3c
       -0.017253952 -0.011728335 0.074031934 0.009571957
000170 f6 8a b9 3c 97 b0 88 bd 0f 59 7a bc bb 5a ac 3c
       0.02264927 -0.06674307 -0.015280022 0.021039357
000180 04 e2 df ba 24 3e 85 3d 33 98 80 3c 4d 6f 7a bc
       -0.0017080908 0.06505993 0.015697574 -0.015285325
000190 20 5e 9f bd 8e 85 e3 bb d5 bf 53 3c 34 83 0c bc
       -0.07781625 -0.006943411 0.012924154 -0.008576203
0001a0 a3 38 b4 bc c7 e8 27 bd fa 83 8c bd 37 08 96 3c
       -0.021999663 -0.04099348 -0.0686111 0.018314464
0001b0 d6 0b 4d 3c 4b 86 a6 3c 3a 55 09 bb f7 09 9b 38
       0.012515029 0.020327708 -0.002095534 7.392832e-05
0001c0 52 52 3e bd c4 65 91 bc 84 3b 00 3d 03 9d fb 3b
       -0.046465226 -0.017748721 0.03130676 0.0076786294
0001d0 50 a7 85 bc 3a a1 a6 3c d1 23 4b 3d 44 79 54 bd
       -0.016315132 0.02034055 0.049594704 -0.05187346
0001e0 54 25 23 bd 5b 6a a3 3d ce f5 2d bd c3 26 87 3b
       -0.03983052 0.0797927 -0.042470746 0.004124494
0001f0 d2 19 15 bc 1f 1b ee bc 72 a7 4d 3d 42 53 1c bd
       -0.009100394 -0.029065667 0.050208516 -0.03816534
000200 ec 5f 1a bd a4 d0 fc bc 8c 1d 91 3c 62 64 55 3c
       -0.037689134 -0.030861206 0.017714284 0.013024421
000210 29 ad 7a bd 5b a8 d6 3c b3 d5 96 bc bd 8c 78 3c
       -0.061200295 0.026203325 -0.018412447 0.015170273
000220 9c d2 61 bb 1e 51 8e bb f2 ef 6e 3d c9 87 a6 3c
       -0.0034457808 -0.004343166 0.0583343 0.02032842
000230 e7 9c 66 3c 4f d2 55 bd 55 b0 67 3d bb 52 73 3d
       0.014075494 -0.05220252 0.056564648 0.05940507
000240 8a 1f cd bc a1 b3 3c bc f9 6b d5 3c 0e 9b 01 bd
       -0.025039453 -0.011517436 0.026052462 -0.031642012
000250 11 d9 65 bd 95 a5 1e bd 23 9a 5b ba cd 45 f7 bc
       -0.056115214 -0.03873213 -0.0008377155 -0.03018465
000260 c8 54 8d bc da 22 40 bc fc 9c 97 3d 0a e0 1c 3c
       -0.01725234 -0.011727059 0.07402989 0.009574899
000270 a7 82 b9 3c a0 b0 88 bd 34 4f 7a bc 8d 58 ac 3c
       0.022645308 -0.066743135 -0.015277673 0.021038318
000280 25 d4 df ba 8e 3d 85 3d 39 9a 80 3c e3 6a 7a bc
       -0.0017076774 0.06505881 0.01569854 -0.015284273
000290 bb 5e 9f bd ba c7 e3 bb e0 b6 53 3c e3 81 0c bc
       -0.0778174 -0.0069512995 0.012922019 -0.008575889
0002a0 fc 3a b4 bc 14 e8 27 bd f2 83 8c bd 49 0d 96 3c
       -0.022000782 -0.04099281 -0.06861104 0.018316882
0002b0 db 1c 4d 3c 67 8e a6 3c a6 55 09 bb 67 ea 9e 38
       0.012519087 0.020331575 -0.0020955591 7.577688e-05
0002c0 a4 54 3e bd ec 66 91 bc 7d 3d 00 3d c2 a1 fb 3b
       -0.04646744 -0.017749272 0.03130864 0.007679195
0002d0 6d a6 85 bc d3 a5 a6 3c aa 23 4b 3d c0 78 54 bd
       -0.01631471 0.020342743 0.04959456 -0.05187297
0002e0 87 27 23 bd 39 69 a3 3d b6 f3 2d bd fa 2c 87 3b
       -0.039832618 0.07979054 -0.04246875 0.0041252347
0002f0 43 18 15 bc af 19 ee bc e0 a5 4d 3d 7d 4f 1c bd
       -0.009100023 -0.029064981 0.05020702 -0.038161743
000300 8e 4a 1a bd 1c f9 fc bc eb 28 91 3c 88 43 55 3c
       -0.037668757 -0.030880503 0.017719707 0.013016589
000310 f7 a4 7a bd 74 b0 d5 3c 7f c7 96 bc ac f5 78 3c
       -0.06119248 0.026085116 -0.018405674 0.0151952915
000320 f5 5f 62 bb d5 27 8e bb 13 be 6e 3d 19 31 a6 3c
       -0.0034542058 -0.0043382444 0.058286738 0.020287083
000330 61 79 66 3c 3d da 55 bd 02 c5 67 3d 08 4e 73 3d
       0.014067025 -0.05221008 0.056584366 0.05940059
000340 7a 29 cd bc 4f 09 3d bc fa 70 d5 3c f6 91 01 bd
       -0.025044192 -0.011537864 0.026054848 -0.03163334
000350 10 d8 65 bd d2 a6 1e bd 90 26 5d ba 6f e9 f6 bc
       -0.056114256 -0.03873331 -0.0008436227 -0.030140607
000360 6e 48 8d bc 28 2a 40 bc cc 8b 97 3d d9 3c 1d 3c
       -0.017246451 -0.011728801 0.07399711 0.009597027
000370 50 4d b9 3c 91 b0 88 bd 00 08 7a bc 36 63 ac 3c
       0.022619873 -0.06674302 -0.015260696 0.021043401
000380 32 83 df ba 03 34 85 3d 5d a1 80 3c 7e a6 79 bc
       -0.0017052649 0.06504061 0.015701944 -0.015237449
000390 12 5c 9f bd 0e df e5 bb da e3 53 3c 60 48 0c bc
       -0.07781233 -0.0070151156 0.012932742 -0.008562177
0003a0 0c c8 b4 bc 1c ef 27 bd 12 88 8c bd 45 92 96 3c
       -0.022068046 -0.040999517 -0.06861891 0.018380294
0003b0 81 62 4d 3c e9 a5 a6 3c 5e c4 09 bb 35 c1 bd 38
       0.012535692 0.020342784 -0.0021021585 9.04821e-05
0003c0 42 54 3e bd 2b 5d 91 bc c2 5e 00 3d c7 36 fb 3b
       -0.046467073 -0.017744621 0.031340368 0.007666442
0003d0 38 99 85 bc 45 97 a6 3c 51 2e 4b 3d a3 6e 54 bd
       -0.016308412 0.020335803 0.049604718 -0.051863324
0003e0 8b 2d 23 bd 21 64 a3 3d d5 d3 2d bd d5 2d 87 3b
       -0.039838355 0.079780824 -0.042438347 0.0041253367
0003f0 40 f9 14 bc c0 ff ed bc 79 a3 4d 3d 84 32 1c bd
       -0.009092629 -0.029052615 0.050204728 -0.038134113

layer3.bias f4 [5]
000000 8f fc 41 bd 06 cc 43 3c ee d5 43 3c a3 49 44 3c
       -0.04736 0.011950498 0.01195286 0.011980447
000010 c4 a9 43 3c
       0.011942331
