UCT/Networks/v_2_1.pt (torch, 261121 bytes, 12 tensors)

conv1.weight f4 [8, 4, 3, 3]
000000 5f 9f 3a 3d 7a 3b db bd 79 7e d5 3c e5 09 71 be
       0.045562144 -0.10704704 0.026061283 -0.2353893
000010 c9 5d 48 3d 3b 3c f9 bd 1d fe f8 3d aa f6 37 3d
       0.048917565 -0.12169691 0.12157843 0.04491297
000020 66 1e e4 bb ef c8 ca 3c a8 3b 48 be 8d cb 01 be
       -0.0069616316 0.024754016 -0.19554007 -0.12675305
000030 2b b5 79 3b ec 1b b1 3d 71 6b 51 bd 86 39 07 3e
       0.003810237 0.08647904 -0.051127855 0.13205537
000040 83 46 75 3d 14 c3 24 bd 51 63 f1 3e a0 73 67 3e
       0.0598817 -0.040225103 0.47146085 0.22602701
000050 4e 74 7c 3e 68 60 2d bd 95 f4 50 be 1f ca e7 3e
       0.24653742 -0.04232827 -0.204058 0.45271394
000060 5d e6 22 3f 09 5e 0e bf ad 85 f3 3e 36 2f b6 bd
       0.63632756 -0.55612236 0.47562924 -0.088957235
000070 f6 25 d3 bd 71 64 fe bd 44 94 8e bd 44 ef 06 bd
       -0.10309975 -0.124215014 -0.06961873 -0.032943025
000080 ea 5e 23 bc d4 31 51 3d 37 78 2b be f5 cc 1f bd
       -0.00997136 0.05107291 -0.16745077 -0.03901382
000090 67 b4 ef bc b9 14 bf 3a 85 d2 0b bc 84 24 03 3d
       -0.029260827 0.0014578319 -0.0085340785 0.032017246
0000a0 36 a7 8c 3c 51 f5 46 3d a0 b1 be bc 7c ee 83 bc
       0.017169576 0.048573796 -0.023278058 -0.01610493
0000b0 72 1c f0 bd c2 08 1b be 50 00 42 3d 41 d6 1e be
       -0.117241755 -0.1514006 0.04736358 -0.15511419
0000c0 fc e2 02 3e c6 b8 0a be 40 47 6d bd 09 e8 91 3d
       0.127819 -0.13547048 -0.057929277 0.07124335
0000d0 26 78 1b be f2 41 26 3d 44 1f 60 3f 45 38 7a bc
       -0.15182552 0.040590234 0.8754771 -0.015272205
0000e0 3b 39 02 bd db 9d dc 3d 9f 47 3a be 0c de db 3d
       -0.03179286 0.10772296 -0.18191384 0.107357115
0000f0 6d c1 09 3d 32 47 52 3e e8 03 60 3f be 6c 1c 3d
       0.03363173 0.20534971 0.8750596 0.038189642
000100 eb ce 14 3d 22 24 8d 3d 5b 2a 29 3d 70 a7 de bd
       0.036330145 0.068916574 0.04130016 -0.1087178
000110 96 57 93 3c 7d 75 65 3d 33 b8 f2 3c ad ef fb bb
       0.0179861 0.05602025 0.029628849 -0.0076884837
000120 a0 d8 81 bd 4d 95 8e bd a4 eb b6 bd 19 bb e6 3d
       -0.06340146 -0.069620706 -0.08931664 0.11266155
000130 c3 e1 81 bd c8 38 8b 3d ae 90 f7 3c 98 19 50 bc
       -0.06341889 0.067979395 0.030220356 -0.0127014145
000140 19 92 be bc f9 bf 17 3e f1 d9 cd bd 2f d1 12 3d
       -0.023263024 0.14819326 -0.10051335 0.035844024
000150 cd dd bb 3d 54 4a 75 3d 19 0c bd bc 22 9f 52 3d
       0.091731645 0.059885338 -0.023077058 0.051421292
000160 3e a9 3c 3e 23 96 4d be f1 65 07 3f 73 66 74 3e
       0.18423936 -0.20076804 0.52889925 0.23867206
000170 c7 bb 85 3f bc 23 f6 3b 63 c4 d8 3d 25 a6 45 3f
       1.044793 0.007511584 0.10584333 0.7720664
000180 95 f9 16 bc 02 43 54 bd 18 03 ea 3e 25 f5 7c bd
       -0.009214778 -0.051821716 0.45705485 -0.061757226
000190 4b 5f e2 bd ad b2 d2 bd b7 9a 48 be 23 81 2c be
       -0.11053332 -0.10287986 -0.19590269 -0.16846137
0001a0 6b df b0 bd 17 87 49 be b0 c0 25 bd ce cb bc bd
       -0.086363636 -0.19680439 -0.040466964 -0.0921856
0001b0 e4 1e 16 bd ec 9e 83 bd 51 93 d4 be 28 a2 a8 3d
       -0.036650553 -0.06426796 -0.41518643 0.08234054
0001c0 e9 fc c7 bd 61 da 40 bc c5 7f 83 3d f5 00 81 3d
       -0.09765036 -0.011770816 0.064208545 0.06299011
0001d0 a0 f7 90 3d e7 a5 8e 3e 08 34 5c 3e 97 35 1d 3f
       0.07078481 0.27860948 0.21504223 0.61409897
0001e0 bc 59 60 bb 00 27 f9 3e e8 dd 8a 3b 63 c0 25 3e
       -0.0034233173 0.48662567 0.004237879 0.16186671
0001f0 e2 4f 7c be 05 2b 66 3e 66 01 80 bd be 46 ff bd
       -0.24639848 0.22477348 -0.06250267 -0.12464665
000200 e7 a6 86 3c 5b 79 ff 3e ee b1 d8 3e b2 0d c1 bd
       0.016437007 0.49897274 0.4232325 -0.0942644
000210 c9 0f 4f 3e f5 e6 75 3e 20 de 77 bd 62 cd fe 3c
       0.20220865 0.24013884 -0.06051457 0.031103794
000220 8d e0 06 3e f6 c2 4a 3d 03 b1 74 3d 4e 84 94 3c
       0.13171597 0.049502335 0.059739124 0.018129494
000230 d6 6b 17 3e d9 84 82 3d d4 3d 06 3e 08 e7 34 3e
       0.1478723 0.06372995 0.13109523 0.17666256
000240 e1 1a e9 bd 52 35 04 be b4 38 ff bd ed fa b2 3d
       -0.1138208 -0.12910965 -0.12461987 0.087392665
000250 d3 6f 76 3e d3 9c 73 3e 3e 49 83 bd 2d 4f 92 be
       0.24066095 0.23790292 -0.06410454 -0.2857603
000260 13 20 a4 be a9 78 c2 3d c0 7c e2 3c df c0 25 3e
       -0.3205572 0.0949567 0.027647376 0.16186856
000270 19 e4 92 3d 7f c2 be bb 08 fc 9b 3e bd d2 79 3e
       0.071724124 -0.0058215256 0.30465722 0.24396797
000280 ec bc 9b bd eb 4f ba 3e 55 30 00 bc 4a 84 26 bb
       -0.07604393 0.36389098 -0.007824023 -0.002540844
000290 ff 7a b6 3c 02 ef 67 b9 52 18 17 3d bc 7f 2f bb
       0.022275446 -0.00022118914 0.036888428 -0.0026779016
0002a0 a7 20 cd 3d 7f cd 17 3b cb 62 13 bd a8 0f c1 3d
       0.100159936 0.0023163257 -0.03598289 0.09426814
0002b0 9e ec 2e b8 2c a5 67 bd 6f 0b 2b 3b bd b9 16 3c
       -4.17052e-05 -0.056554005 0.0026099344 0.009199557
0002c0 a1 6c 7e bd 51 cf a5 3d 3a f7 10 bd db 54 48 bd
       -0.062115315 0.08096183 -0.035392024 -0.04890905
0002d0 27 b3 22 bd 67 19 4e 3c 58 23 5b 3b 6e 48 92 3c
       -0.039721634 0.012579299 0.0033437815 0.017856803
0002e0 86 ed 83 3d b3 81 f2 bc 72 2c 2f bc 7c 5e a1 bd
       0.064417884 -0.029602861 -0.010691749 -0.078793496
0002f0 1e b1 b8 3c 87 d1 c5 3d f9 81 86 3e 77 a0 df 3d
       0.022545394 0.09659105 0.26271036 0.10919278
000300 43 a6 c5 3a 66 09 8a 3d d1 43 54 3d b7 a6 ea bd
       0.0015079457 0.06740074 0.051822487 -0.114575796
000310 57 0d c5 bd 95 8e 13 3e 81 76 5f 3f cc 4c 02 3e
       -0.09621685 0.1440986 0.872902 0.12724608
000320 19 78 1e be 75 0b 4f 3f 5c e1 ee bd 7f 97 5d be
       -0.15475501 0.8087686 -0.11664078 -0.21639822
000330 78 63 9e 3f 6f f1 53 bc ca a9 6d 3e b3 ed ae be
       1.2374105 -0.01293598 0.232093 -0.34165725
000340 ac a0 ba be 32 f4 24 be 73 a6 91 be f9 14 42 be
       -0.36450708 -0.16108778 -0.28447303 -0.18953313
000350 e1 2d 69 be c6 f0 86 be 20 65 99 be 73 e0 8d be
       -0.22771408 -0.2635557 -0.29959965 -0.27710304
000360 ac fc 1d be f6 79 1c 3d 40 ad 7c bd 87 ee 7d bd
       -0.15428418 0.03820225 -0.06168866 -0.061995056
000370 83 a8 86 3d 46 c1 14 be bf ea 0b be 88 7e d4 3d
       0.0657511 -0.14526853 -0.13663767 0.103756964
000380 1c 98 40 be ea a0 78 3e c2 6d 15 3f c5 3e a7 3e
       -0.18808025 0.24280134 0.583706 0.32665077
000390 7b 76 f7 3e 0d b5 dc 3e 5d 66 5d 3e f8 44 91 3d
       0.4833258 0.4310688 0.2162108 0.07093233
0003a0 04 ae d6 3e fc 1e 83 3e dc 9b b4 3d c0 f8 b3 bd
       0.41929638 0.25609577 0.0881879 -0.0878768
0003b0 7f 30 88 3e 17 3b 9c bd 34 ae dc 3e fe 78 50 be
       0.265995 -0.07628458 0.43101656 -0.20358655
0003c0 d5 19 8c bd 45 4b 84 3d a4 60 16 bd 51 c4 17 bd
       -0.068408646 0.06459669 -0.036713257 -0.037052456
0003d0 bc 1f 55 bd 96 94 13 3d da 10 f1 bc 44 a8 82 bd
       -0.052032217 0.036030374 -0.02942698 -0.0637975
0003e0 b0 b1 b3 bd e9 91 4c 3d b1 4d 79 bd 7a a0 04 3d
       -0.087741256 0.04994384 -0.060865108 0.032379605
0003f0 dd c6 55 3e 9e bd 10 be 6d a5 33 3e b6 61 5c bc
       0.20876642 -0.14134833 0.17543574 -0.0134510305

conv1.bias f4 [8]
000000 ea 91 f1 3d 2d cc 3b 3d 8c d9 e1 3c a1 f3 03 bc
       0.11795409 0.045849014 0.027569555 -0.008053691
000010 f2 94 67 3d a5 39 7d 3e 3e b3 07 bd 12 ce d8 3d
       0.05653853 0.24729021 -0.033129923 0.1058618

conv2.weight f4 [16, 8, 3, 3]
000000 71 1f 14 3e e8 f2 10 3e bc c6 20 3e e0 7f 4c bc
       0.14465119 0.14155161 0.15700811 -0.01248166
000010 cf 95 01 be 1d f3 c2 bd cb e5 9b 3c 4f 3e bb 3c
       -0.12654804 -0.095190264 0.019030472 0.02285686
000020 4b 9a 01 3e 01 c9 8d 3d d7 fa 3d bb 83 76 d9 bd
       0.12656514 0.06923104 -0.0028988624 -0.106183074
000030 d4 d6 13 bc f1 43 91 bd 15 67 65 3d 86 71 dd 3e
       -0.009023387 -0.07093037 0.05600651 0.43250674
000040 9b 03 9e 3d aa 60 49 3e b7 59 cc bd 50 54 32 be
       0.077155314 0.1966578 -0.09978049 -0.17414975
000050 97 38 02 be 95 6c 04 be 96 07 ac 3d c7 21 ff 3d
       -0.127169 -0.12932046 0.083998844 0.124576144
000060 77 5c fc bd 4b 3e 45 3c 7c 71 8b 3e bc e5 97 bc
       -0.12322324 0.012038778 0.2723502 -0.018542163
000070 fb 89 fa 3d 2d 44 c2 3d 5a c6 09 3e dc d3 f7 3d
       0.12233349 0.0948566 0.13454571 0.12100956
000080 c7 87 b0 3d a5 1f e2 bc e5 13 96 bc 21 03 2e be
       0.086196475 -0.02760298 -0.018320033 -0.16993381
000090 e2 a5 0d be 94 6e 54 3d 23 da 42 3e 43 28 9b 3e
       -0.1383281 0.051863268 0.19028525 0.30304155
0000a0 c4 ea 8b 3e 53 f0 5c 3e 82 18 f4 3c 08 e3 4f 3e
       0.2732755 0.21576051 0.029796842 0.2030145
0000b0 a2 7d d7 3c 28 fa bf 3d 54 d9 d7 3d da fd a0 ba
       0.026305024 0.093738854 0.10539499 -0.0012282685
0000c0 b0 f5 af 3d 8e 2f ea bb b4 63 cf 3d f3 06 74 3e
       0.08591783 -0.0071467822 0.10126439 0.23830776
0000d0 5d 40 7e 3c fe 9a 0a be d0 1e 7c be ca 63 4d 3d
       0.015518275 -0.13535687 -0.24621129 0.050143994
0000e0 0e 2b 2b bd b1 da 4f 3d cd 87 db 3d a7 60 a4 3d
       -0.041789107 0.05074567 0.10719261 0.080262475
0000f0 8a 69 8d be 72 5d dd bd 7a ed 37 bd 16 fe 56 be
       -0.27619582 -0.10808839 -0.04490421 -0.20995364
000100 8c 58 c3 bd d1 59 43 bd c6 73 12 bd 00 4f 12 3e
       -0.09538373 -0.047693077 -0.03575494 0.14287949
000110 db 21 72 3d c9 36 a3 bd 35 45 f9 3d cb 0e 30 3e
       0.05911432 -0.07969434 0.12171403 0.17193143
000120 3a b1 0b 3e a3 67 16 3e f4 46 80 3e 3f 5c c8 bd
       0.13641825 0.14687972 0.25054133 -0.097832195
000130 73 04 eb 3d 04 5a a1 3e c0 0f 4e bc 3f e1 17 be
       0.11475458 0.3151399 -0.012576997 -0.14832018
000140 a3 6e ba 3d aa 9f 80 bb ba a9 a5 3d 4b 42 08 3f
       0.091031335 -0.0039252834 0.080890134 0.53226155
000150 5c e8 22 3e cd 54 a4 bd 65 48 84 3e eb ee c7 3e
       0.1590895 -0.08023987 0.25836483 0.39049467
000160 33 0c 33 be 2a 8f 35 3e 41 b1 a6 3e 35 f0 88 3e
       -0.17485122 0.17730394 0.3255711 0.26745763
000170 b7 c1 1e 3f 0c 18 d7 bc 88 7e 28 bc ce 90 99 3e
       0.62014335 -0.026256584 -0.010284074 0.2999329
000180 50 fb 45 3c fb f0 10 be ac 3a ee 3e bb b5 a3 bd
       0.012083843 -0.14154427 0.46529138 -0.07993647
000190 f1 83 1a be bc 34 68 3c 6c 7d 30 bd 93 ff 18 be
       -0.15089394 0.014172729 -0.04308836 -0.14941244
0001a0 3a 2d 62 bd 80 0c d7 bd 78 20 3b 3d b3 0a 0f be
       -0.055218913 -0.10500431 0.04568526 -0.13968925
0001b0 f7 84 18 be a3 01 56 bc 92 94 96 3c 4d 0a 6b bd
       -0.14894472 -0.013061914 0.01838139 -0.05738287
0001c0 4c 51 4a 3d 8b e6 23 3d 48 49 96 3c 3e 45 ac bd
       0.049393937 0.040014785 0.01834549 -0.084116444
0001d0 7e 84 95 3d 1d ad 84 3d 35 89 dd bd 2c 66 24 3e
       0.073006615 0.06478331 -0.10817186 0.160546
0001e0 b4 25 73 bd a6 f3 14 be 7b 89 19 3e 69 c0 25 3e
       -0.05936213 -0.1454607 0.14993851 0.1618668
0001f0 96 59 cc bd e9 93 3f 3e 78 fa 2e be 84 36 be bd
       -0.09978025 0.18708767 -0.17087734 -0.09287742
000200 5d 5e b5 3d 43 6f c7 bd 88 3b 64 bd 9f 3b 0b bc
       0.08855889 -0.09738018 -0.055720836 -0.0084981015
000210 5e 58 87 bc 9d cd c3 3d 2f 17 04 bc 81 9b 56 bd
       -0.016521629 0.09560702 -0.008062168 -0.052394394
000220 89 60 8e 3b 04 08 55 3e 8f da ed 3d 35 bb a4 3d
       0.004345004 0.20803839 0.11613952 0.080435194
000230 8c 22 ac 3d 0e b4 f1 3b ab 31 d4 bd 4b ea 1f be
       0.08405027 0.0073762005 -0.10361036 -0.1561672
000240 1a 27 fb bc 83 23 a4 3d b9 83 f9 3c ef cc ee 3d
       -0.030658294 0.08014586 0.030458318 0.11660182
000250 a4 09 26 3e c7 31 c9 bd 02 61 fe 3d f2 fa de 3d
       0.16214615 -0.098239474 0.124208465 0.10887708
000260 5b 8b 31 3e 95 31 f1 3d 80 c4 ad 3e 1c 4b 32 be
       0.17338316 0.11777035 0.3393898 -0.17411464
000270 ce ea 96 3d f1 92 4a 3d 83 a6 76 be 51 80 4c be
       0.07369004 0.04945654 -0.24086957 -0.19970824
000280 28 ac e4 bd 32 77 82 be 87 45 1c be 58 b1 37 bd
       -0.11165649 -0.25481564 -0.15260898 -0.044846863
000290 c9 e2 e5 bd a7 47 25 bd 53 b5 da bc 30 d8 7f 3e
       -0.112248965 -0.040351536 -0.02669779 0.24984813
0002a0 e7 e0 1c 3e 4a bc 07 be 58 8e 07 be ef 5a 2c bb
       0.15320168 -0.1325542 -0.13237894 -0.0026299318
0002b0 fa 6a fc bc 5e 54 10 3e 4a 6c a8 bd 3f ee 09 bd
       -0.03081273 0.14094684 -0.082237795 -0.033674475
0002c0 b2 8d 4a bd 53 ad 9c 3e 87 b4 c1 bd 80 b9 9b bd
       -0.049451537 0.30600986 -0.09458261 -0.07603741
0002d0 98 da f9 bd e8 5a bb bd 79 d5 3b be 5a cd 85 bd
       -0.121998966 -0.09148198 -0.18343152 -0.06533308
0002e0 e5 ff 95 bd b7 df 8a bd 9f 09 4a be 9d 18 5a be
       -0.07324199 -0.067809515 -0.19730233 -0.21298452
0002f0 a8 16 2d bd 1b 1a ca bd 6d ed d4 bd cc f5 73 3d
       -0.042257935 -0.098682605 -0.10396848 0.059560582
000300 c1 f9 32 3e 2c 39 4b 3c 94 ad 88 3d 17 a8 1c 3e
       0.17478086 0.012403768 0.066737324 0.15298496
000310 f0 7a 2c bd c2 36 51 3d 55 50 5d 3e f1 62 43 bd
       -0.04210943 0.05107761 0.21612675 -0.04770178
000320 2a e2 3e bd 5b b8 99 3e ba 49 a3 3d 79 a9 85 3e
       -0.046602406 0.30023465 0.079730466 0.2610586
000330 47 91 b1 3e c1 7f 82 3e c9 f2 04 bc 60 e2 13 3e
       0.3468115 0.25488093 -0.008114525 0.14441824
000340 e9 89 e3 3d 76 2b 0f bd 22 d7 33 3e cd bd 1e bd
       0.11110289 -0.034953557 0.17562535 -0.038755227
000350 d3 26 30 bd 81 57 7e 3e b2 1e ba 3d b1 d8 3c 3e
       -0.043005776 0.24838068 0.09087886 0.18442036
000360 ff a0 09 3e fe 87 33 be 8b 97 7b bd c9 05 5d 3d
       0.13440321 -0.17532346 -0.06142382 0.053960595
000370 8c 83 6d 3e d9 7e ec bd 35 b0 2a bd 07 99 5d 3e
       0.23194712 -0.11547632 -0.04167195 0.21640407
000380 95 df 61 3b 26 48 c7 3d 4a 43 ee 3d 84 cb de 3d
       0.003446554 0.09730558 0.11633928 0.10878661
000390 13 83 f7 bd be 72 62 3e 65 9a 67 3e a1 6e 74 be
       -0.12085547 0.22114083 0.2261749 -0.23870327
0003a0 64 67 08 bd b7 5e 6a be 5e 0d 83 3e 2b 5e e3 bc
       -0.033301726 -0.22887693 0.25596136 -0.027754864
0003b0 d5 f0 65 be ce ba 5d 3e 31 09 a5 ba 4c 5e c2 3c
       -0.22455151 0.21653292 -0.001259124 0.023726605
0003c0 d5 0a a2 be 45 eb 2c 3e 3f bc c3 3d be 86 0e 3e
       -0.3164889 0.16886623 0.095573895 0.13918588
0003d0 15 35 9a 3d 05 9a 30 3d 49 c2 c0 be 6a df b7 3d
       0.07529656 0.043115634 -0.37648228 0.0897816
0003e0 ca 2b fa bd 86 21 7b 3e 8f 78 f7 3d 1f 27 dd 3d
       -0.12215383 0.24524507 0.120835416 0.107984774
0003f0 7b 09 86 3e 93 7d 0b bd 6f 4f 16 3e 12 41 f9 3d
       0.26179108 -0.034055304 0.14678739 0.12170614

conv2.bias f4 [16]
000000 fe bf ad 3c f5 32 a0 3c 31 2d f5 3c 7a bd bd 3d
       0.021209713 0.019555548 0.029928776 0.092646554
000010 75 05 65 3d 94 33 bd bc de e9 f2 3b d2 a6 18 3d
       0.055913407 -0.023095883 0.007413133 0.037268467
000020 19 a0 d8 bc 9a a4 07 be 3d d4 9c ba 6c 5b ec bd
       -0.026443528 -0.13246384 -0.0011965107 -0.11540875
000030 8f c4 73 3d 8f de 9c bd ae 99 7e 3d 67 6a 18 3e
       0.059513625 -0.07659637 0.06215828 0.1488434

conv3.weight f4 [16, 16, 3, 3]
000000 31 4b 39 be 4c 6f 7e be 0b c8 79 bd ed 69 90 bd
       -0.1809509 -0.24847144 -0.06098179 -0.07051454
000010 a2 8a fd bd 04 09 d1 3d b6 f8 75 be 9b 7d 5b be
       -0.12379958 0.10206798 -0.24020657 -0.21434633
000020 31 96 12 be ab ad f8 bd 78 ec 9d 3d 57 09 a9 3e
       -0.14315106 -0.121424995 0.077111185 0.33014938
000030 05 79 0a 3e b8 e0 4c bd 66 7b 1e 3e 10 39 b6 bc
       0.13522728 -0.050018996 0.1547676 -0.022244006
000040 b9 08 86 bd f4 46 53 3e 3a d0 3e bc 5b 74 a6 bd
       -0.065446325 0.20632535 -0.011646325 -0.08127662
000050 33 2c 02 bc ab 2d 8c 3d 78 2f 65 3e 21 96 90 3d
       -0.007945108 0.06844648 0.22381389 0.07059885
000060 cc 65 8b 3e cc 1d 19 3e 81 14 11 3e 51 23 32 be
       0.27226102 0.14952773 0.14167978 -0.17396285
000070 49 83 44 3c 5e 6a 33 3c 06 e6 16 3c 86 32 c0 3d
       0.011994191 0.010950653 0.009210115 0.093846366
000080 ed 7e 2f bd 18 f6 e3 bc 84 5c f2 3c da 32 d6 3d
       -0.042845655 -0.027827308 0.02958513 0.10458918
000090 6d a6 01 3e bb 30 94 bc e1 0c 5e bc c9 0d 79 3e
       0.12661143 -0.018089643 -0.013552875 0.24321665
0000a0 29 5c 1d bd 05 63 6a 3d 2a 5b 49 3e 50 3a 03 3d
       -0.03841797 0.05722334 0.19663683 0.032038033
0000b0 44 af 7d 3e fc d5 c3 bd d0 d0 d4 bd 8e fc 41 3d
       0.2477389 -0.09562299 -0.1039139 0.047359996
0000c0 3d 1c 74 3d 69 4a d4 bc 77 55 02 3d 96 7c 43 3d
       0.059597243 -0.025914388 0.031819787 0.047726236
0000d0 30 8b 1b be 6d 88 93 bc df 3f 75 3d 41 ee e0 3d
       -0.15189815 -0.018009389 0.059875365 0.10982943
0000e0 54 d7 b5 3c e4 ae ef 3b 80 b1 b2 3d 99 48 9f bc
       0.022197403 0.0073145498 0.08725262 -0.019443797
0000f0 76 52 20 3d b4 0f 2e 3d ac 24 f7 3d 0e 22 38 3e
       0.03914114 0.042495444 0.120675415 0.17981741
000100 d9 12 86 bd 86 05 fd bd b3 2b e4 3c b4 a9 5a 3d
       -0.06546564 -0.12354569 0.027852869 0.053384498
000110 3a eb 03 be d1 ee e4 3d a4 55 84 3c 58 97 d9 3c
       -0.128827 0.11178363 0.016154118 0.026561424
000120 42 c8 34 3d cb b2 95 bd fa d9 15 bd 05 db 63 bc
       0.044136293 -0.07309493 -0.03658483 -0.013907199
000130 44 5b b2 bd eb c6 15 3d c8 71 b1 bd 35 ac ea bc
       -0.08708814 0.036566656 -0.0866428 -0.028646568
000140 c9 9f d9 bd a3 bd c4 3c 51 af 4e bd 72 74 be 3d
       -0.1062618 0.024016207 -0.050460164 0.09299554
000150 b3 8f 05 bd 39 e3 42 bd 22 ad b2 bd 7b 7b 42 3e
       -0.032607745 -0.047579978 -0.08724429 0.18992417
000160 8e b8 81 ba f5 f1 df 3c b5 e3 8e bd 11 bd 30 3b
       -0.000989692 0.027337054 -0.069770254 0.002696816
000170 ad 04 d9 3d c3 52 c5 3d 77 25 00 3e 40 c8 a7 3d
       0.10596595 0.09634926 0.12514292 0.081924915
000180 52 99 c9 ba a2 68 26 3d ed 61 15 3e 32 91 b5 3d
       -0.0015380776 0.04062713 0.14588137 0.088655844
000190 d2 8f ca 3c 14 d7 ce 3d 4b 43 1c 3d 4e 8c 81 bc
       0.024726782 0.10099617 0.038150113 -0.015813973
0001a0 e7 b2 04 3e c4 f7 31 3d 57 bb ea 3d 2f 89 a9 3c
       0.12958871 0.04344918 0.114615135 0.020695297
0001b0 b8 a2 b9 3c a8 2b 03 3c 70 fc 07 3e bd e0 08 bc
       0.022660598 0.008006014 0.13279891 -0.008354363
0001c0 fd 36 bd 3c 16 38 c3 3d 8b db f2 bd 4a 06 0f be
       0.02309751 0.09532182 -0.11858281 -0.13967243
0001d0 2d 3d 90 bd c4 3a 06 3e a6 bc 99 3d 3b f0 aa 3c
       -0.07042918 0.13108355 0.07506685 0.020866504
0001e0 9c 35 9a 3d 0f e9 50 3e 21 dd e6 bb 63 40 be 3d
       0.075297564 0.20401405 -0.0070454036 0.092896245
0001f0 b9 32 92 3d ca 18 81 3d 75 8b 13 be 64 9c 81 bb
       0.07138581 0.06303556 -0.14408667 -0.003955411
000200 cd cb 93 bd 4e 12 c8 bc 10 13 8f bb 25 93 a1 bd
       -0.07216606 -0.02442279 -0.004366286 -0.07889394
000210 b3 d9 e8 bd d3 c9 fc bd 39 13 f8 bd 91 47 05 3e
       -0.11369648 -0.123431824 -0.121130414 0.13015582
000220 75 9b 03 3e 73 ce 0a be fd a0 b6 3d a0 ac 44 3d
       0.12852271 -0.13555317 0.08917425 0.04801619
000230 a5 74 38 3d 04 51 80 3c 28 e3 bd bd a1 2d 86 be
       0.045033116 0.015663631 -0.09271842 -0.26206687
000240 c5 f2 0e 3e 01 ac 2a 3e 75 6d f1 3d b4 8b 3b be
       0.13959797 0.16667177 0.117884554 -0.18315011
000250 db 6e 24 3d 34 5b c1 3c ee bb 82 3e 1d 3e 4b 3e
       0.040144783 0.02360306 0.25534004 0.19847913
000260 f3 53 b9 bd 69 94 22 3c d6 bf df 3d 29 b9 aa 3e
       -0.09049215 0.009923079 0.10925262 0.3334439
000270 80 f3 a1 bd 18 bf a7 3d ce 1c 3e 3d f4 69 f5 3c
       -0.07907772 0.08190745 0.04641419 0.029957749
000280 06 4e 28 3e 95 d8 2c bd 89 d2 6c be 63 67 1e be
       0.16436014 -0.042198736 -0.23127188 -0.15469126
000290 3d 09 55 be 4a cc 33 3c 7d ed 07 bd 9b 09 06 be
       -0.20804305 0.010973999 -0.03318547 -0.13089602
0002a0 cb 3b da 3c 3a 73 35 3d e9 66 86 bd 62 ee a3 3d
       0.02663984 0.04429934 -0.06562597 0.08004452
0002b0 02 9c 9d 3d 28 4e ca bd d5 c4 3e 3e 1f 20 9e bd
       0.07695772 -0.09878188 0.18629773 -0.0772097
0002c0 5b 04 f4 bd 6a b4 09 3e 08 74 a0 bd 42 08 51 bd
       -0.11914893 0.13447729 -0.07834631 -0.051033266
0002d0 7f f5 fa 3c 3f 5b 40 3e c1 93 1a 3d cb c8 f4 bc
       0.03063464 0.18784808 0.037738565 -0.029880902
0002e0 6e 70 0c 3e db 74 83 ba b8 7b 19 3e c4 62 a8 bb
       0.13714764 -0.0010029332 0.14988601 -0.005138727
0002f0 f2 eb 9b bd c9 7d 78 bd 45 6c 58 3d 91 92 50 3e
       -0.07613362 -0.060666833 0.05283763 0.2036841
000300 b4 7b 05 be e3 ef 97 3d 34 1e f6 3d 67 35 bb 3d
       -0.1303547 0.07418802 0.120174795 0.09141045
000310 2e 7d 47 3a 96 a4 54 be 14 93 27 be dc 88 6d bd
       0.0007609901 -0.2076591 -0.163647 -0.057991847
000320 c0 77 17 bd 01 61 1a 3c b8 26 c2 ba 7c cf 50 bc
       -0.036979437 0.009422542 -0.0014812564 -0.012744781
000330 b5 18 06 bd a5 8f 15 be 7b ee f0 3b c8 ba de 3d
       -0.032738406 -0.14605577 0.007352648 0.108754694
000340 57 ff 04 3e aa ae ce bd ee df 12 bc 05 7f 25 be
       0.1298803 -0.10091908 -0.008964522 -0.16161735
000350 77 cc 63 be 2d 34 62 be c8 3c e8 3c 83 df 99 bb
       -0.22245966 -0.22090216 0.028349295 -0.004695834
000360 da 02 65 bd f8 11 06 be a2 28 32 be 66 57 96 3a
       -0.055910923 -0.13092792 -0.17398313 0.0011470139
000370 bb 09 b6 bd 57 43 09 be 1f b5 de 3d 18 84 ce bd
       -0.08888575 -0.13404594 0.1087439 -0.10083789
000380 76 aa 90 bd d1 ef 64 be eb 3b 43 be 59 01 22 bd
       -0.07063763 -0.22357108 -0.19065826 -0.039552066
000390 65 55 b3 3d 58 60 d2 bc 6d da 0d bd 15 3b aa 3c
       0.08756522 -0.025680706 -0.034632135 0.020780126
0003a0 50 a8 a0 bd 2a aa 4d be 89 5f 09 3e 39 2f 03 be
       -0.07844603 -0.20084444 0.1341535 -0.12810983
0003b0 8e 4e 23 be 20 b0 66 3e e2 18 9a 3d fb 22 e4 bd
       -0.15947935 0.22528124 0.07524277 -0.111394845
0003c0 6c b8 f2 bd 8d 09 58 bd dc df d4 3c dc 5a 89 3d
       -0.11851582 -0.052743483 0.02598565 0.06706783
0003d0 ff 77 ec 3c 2e ae d3 bc aa 95 a0 bc 99 39 e4 bd
       0.028865812 -0.025839891 -0.019602615 -0.111437984
0003e0 42 8f 63 be 25 45 1b bd a7 fe 5d 3d e0 32 22 bd
       -0.22222617 -0.03790774 0.054197934 -0.0395993
0003f0 94 84 43 bd 2c 89 ee 3d c6 bb f7 3d 6d 65 37 be
       -0.04773386 0.11647257 0.12096362 -0.17909785

conv3.bias f4 [16]
000000 f9 f8 48 3d f9 97 7e 3d d9 f9 b8 bd 7c ed 8a bd
       0.049065564 0.06215665 -0.0903203 -0.06783578
000010 9b 1d c7 bb 14 8e 67 bc 29 36 34 bd 74 62 39 bd
       -0.0060765273 -0.014132995 -0.043996964 -0.045259908
000020 fc d8 48 bc 7b ba b3 3d bc 97 25 3d 53 d9 91 bc
       -0.012258764 0.08775803 0.04042791 -0.017803824
000030 ef f4 f4 3c c7 72 da 3d 20 4d f3 3c 42 12 e4 3d
       0.02990195 0.10666423 0.029699862 0.11136295

layer1.weight f4 [128, 404]
000000 a5 b9 ec bc 0a 1b ff bc 09 82 35 3d 70 3a d0 bb
       -0.028897116 -0.031140823 0.044313464 -0.0063546225
000010 6e 4b e8 3c b6 45 c9 3c c2 25 d4 3c a9 5f dc bc
       0.02835628 0.024569374 0.02589691 -0.026901083
000020 48 db 16 bc 1d 23 ff bc 16 97 d4 3c bd 87 30 3d
       -0.009207554 -0.031144673 0.02595095 0.0430982
000030 81 3b 22 3d f4 24 1c 3c d8 d5 c2 bb e0 aa 2a bd
       0.03960753 0.009530295 -0.0059459023 -0.041666865
000040 97 7b fb bc 31 4a 27 3d b1 c6 0f 3d 1d 8e 49 3d
       -0.03069858 0.04084224 0.035101596 0.049207795
000050 b9 0b 0b 3d 76 c7 e0 3c 2f 1f 35 bd f9 b3 39 bd
       0.033946726 0.02743886 -0.044219192 -0.04533765
000060 e3 a5 09 bd 20 ee f7 bc b7 b1 02 3d 30 90 8f 3b
       -0.033605468 -0.030264914 0.031907763 0.004381202
000070 a0 b4 ea 3b 10 a7 d1 bb b6 03 cf 3c 0d 14 2b 3d
       0.0071626455 -0.006398089 0.025270324 0.04176717
000080 59 ff 38 3d 86 5d e7 3c 18 66 ee bb 6e 83 8a bc
       0.045165394 0.028242838 -0.007275354 -0.016908374
000090 d2 49 ab 3c 1e a8 a2 bc 74 a9 70 3c 1d 7f 28 3d
       0.020909224 -0.019855555 0.014688838 0.04113685
0000a0 78 45 1a 3c 9a 91 12 bd 16 b1 bd bc fe f4 dc bc
       0.009415977 -0.035783388 -0.02315573 -0.02697229
0000b0 d9 bd 11 3d 53 fc e6 bc 0b 64 34 3d 90 d9 9d bb
       0.035581443 -0.02819649 0.04404072 -0.0048171952
0000c0 7e 04 f9 3c 1c 36 95 bc 00 fa 42 bc 9c 6d 74 3c
       0.03039765 -0.018214278 -0.011900425 0.014918711
0000d0 9e 0f 9a bc df 35 00 3d 2e bc 21 bd 2f 5d 13 3d
       -0.018806275 0.031301375 -0.039486103 0.03597754
0000e0 3d 21 3b bd 24 18 1d bc 41 0f 43 3d 22 53 29 bd
       -0.045685995 -0.009588275 0.04762197 -0.041339047
0000f0 66 21 cd 3c cc 92 56 bc 96 62 c9 3c 55 01 0e 3d
       0.02504034 -0.013096523 0.024583142 0.03466924
000100 48 75 ef bc 18 f7 84 bc 20 6d 3c bd fa 70 49 bd
       -0.029230729 -0.016231105 -0.046002507 -0.04918001
000110 8d 72 f9 bc 64 07 09 bc c1 cc 40 bd f3 85 d2 bc
       -0.03045013 -0.0083635785 -0.04707027 -0.025698638
000120 9b b9 1f bd ba c5 c4 3c f1 3f c9 bc 52 01 cd bc
       -0.038995367 0.024020065 -0.024566622 -0.025025044
000130 32 bb bf bc 78 b0 5b bc e3 51 47 bd de 40 49 bd
       -0.023404691 -0.013408773 -0.048662078 -0.049134128
000140 c9 f6 01 bd 46 eb aa 3c a0 b3 b6 3b f8 c1 85 bc
       -0.031729493 0.02086414 0.005575612 -0.016327843
000150 33 2b 3c 3d 78 d7 52 bc b8 17 3d bd 77 b0 04 3d
       0.045939635 -0.012868755 -0.046165198 0.032394852
000160 4c 5e 1f bd bd 6e 3c 3d ba a3 b6 3c e7 e6 1c bd
       -0.038908288 0.046004046 0.022294868 -0.038306143
000170 e2 b6 d0 bc 3c 75 0d bc b8 49 40 bd e0 9a ae 3b
       -0.02547783 -0.008633908 -0.046945304 0.005328521
000180 0e 0e 82 3c 1a af 90 3c 62 02 8b bc ff 08 06 3d
       0.015875842 0.01766162 -0.01696891 0.032723423
000190 00 8d a4 b9 14 d3 04 bd 74 5a 4d 3c 9d 71 25 3d
       -0.0003138557 -0.032427862 0.012533773 0.040391553
0001a0 3e ab cb 3c e4 c5 04 bc 88 1a ba bc 86 cf c2 bc
       0.024861928 -0.008103821 -0.02271773 -0.023780596
0001b0 7f 80 cf bc 7a 05 d0 3c b2 46 8d 3c ca 17 c6 3c
       -0.025329826 0.025393236 0.017245624 0.024181265
0001c0 c6 49 e8 3c 67 2b 27 3d b1 c4 04 bd 9d a7 22 3d
       0.02835549 0.040812876 -0.032414142 0.03971063
0001d0 3b d3 02 3d 21 46 f6 bc 34 22 63 3c 2c 60 23 bc
       0.031939726 -0.030062737 0.013863135 -0.00997166
0001e0 27 c6 06 3d fe 56 83 3c f2 7a ee 3c f0 8c 51 bb
       0.032903817 0.016032692 0.02911136 -0.0031974874
0001f0 29 ff 45 3d d4 41 9a bc 4e 38 2e bd 95 b1 1a 3d
       0.048339043 -0.018830217 -0.042534165 0.03776701
000200 b7 25 e1 bc 4b c4 40 3d c1 2e f8 bc f9 79 df bc
       -0.027483804 0.0470622 -0.030295731 -0.02727984
000210 a4 b8 8a bc 3e fe 34 bd 38 81 8d 3b dc 6f 2a 3c
       -0.016933747 -0.044187777 0.0043183826 0.010402646
000220 34 4b 32 bc a0 e7 aa bc 70 50 6e bc 1d 1f cb bc
       -0.010882188 -0.0208624 -0.014545545 -0.02479511
000230 eb 56 a4 bc 03 7f 2e 3d 37 21 00 3d f8 60 c7 bb
       -0.020060977 0.042601597 0.031281676 -0.0060845576
000240 10 5a 1d bc d8 2f 07 3c c9 93 16 bd 28 19 99 3b
       -0.009603992 0.008251153 -0.036762033 0.0046721883
000250 68 e8 07 bd 70 b8 55 bc f0 8b 0f 3c e0 94 f4 ba
       -0.033180624 -0.013044462 0.008761391 -0.0018660091
000260 9b eb 1b bd 34 4c 08 bd dc 0b 63 3c ea c8 85 3c
       -0.038066488 -0.033275798 0.013857808 0.016331155
000270 e9 d6 c3 bc fd cc 26 bd 68 18 82 3b 4a 57 84 bc
       -0.023906188 -0.040722836 0.0039701946 -0.016154904
000280 07 83 1e bd d7 55 c5 bc 2c 4e 01 3c 16 f4 ab 3c
       -0.038699176 -0.024088783 0.007892173 0.020990413
000290 60 97 73 bc 3a b3 a1 bc 63 04 38 bd 48 44 e8 bb
       -0.014867634 -0.019738782 -0.04492606 -0.007088218
0002a0 ea 07 de 3c e4 a6 1a 3c a0 6b af 3a d8 92 29 bd
       0.027103383 0.009439204 0.0013383515 -0.041399807
0002b0 26 9d 98 3c 3d 49 33 3d e8 ff 13 bd c3 d5 0b 3d
       0.018629622 0.043771017 -0.036132723 0.034139406
0002c0 4c 65 8a bc 60 17 86 bb a8 c1 23 bd 72 d9 80 bc
       -0.016894005 -0.004092142 -0.039979607 -0.015728686
0002d0 3c e5 0b bc 00 0c 0e b8 e0 36 be ba 5b 33 4b bd
       -0.00853854 -3.3866614e-05 -0.0014512204 -0.049609523
0002e0 5a 3a 25 bd f2 b6 af 3c c4 95 2c bd 93 b4 c0 bc
       -0.04033885 0.02144954 -0.042135015 -0.023523604
0002f0 b6 75 db 3c 24 f2 e3 bc 70 30 f9 3b 38 7f 12 bd
       0.026789527 -0.027825423 0.007604651 -0.035765857
000300 1e 0d e9 3c 80 a5 f1 bc 40 4f 73 3a 7e 90 e5 3c
       0.028448638 -0.029497862 0.00092815235 0.028023
000310 d1 0b 3e 3d f6 22 a1 3c 85 9b 0c bd 40 3b 0f bd
       0.046397988 0.019669991 -0.034328002 -0.034968615
000320 5c 5a 61 3c 2d 91 06 bd c2 6b 91 bc 70 d1 24 bc
       0.0137544535 -0.032853294 -0.017751578 -0.010059699
000330 56 5e fa 3c c8 70 a4 bb 13 1e 37 3d 50 e6 c9 bb
       0.030562561 -0.0050183274 0.044706415 -0.0061614886
000340 7e 6f d4 3c 05 1f 2c 3d c6 81 e8 3c 4f ba 37 bd
       0.02593207 0.04202177 0.028382193 -0.044855412
000350 a2 ea 97 3c a8 bf 05 bc da 0d cb 3c 12 07 83 3c
       0.018544499 -0.00816337 0.024786878 0.015994582
000360 93 0b 3d bd 3c 35 40 3c be 21 85 3c d5 02 2e bd
       -0.046153616 0.011731442 0.016251441 -0.04248317
000370 3d 9b 2f 3d 80 08 95 bc 8f 5e 49 3d e6 06 19 bd
       0.042872656 -0.01819253 0.049162444 -0.037360094
000380 82 62 85 bc c9 60 0e bd c9 29 ca bc d3 3a d2 bc
       -0.016282324 -0.03476027 -0.024678128 -0.025662815
000390 6f 9e 1a 3d ae 2d da 3c dc ed 56 3c e0 85 db ba
       0.03774875 0.02663311 0.0131182335 -0.0016748272
0003a0 20 bf 94 bb b6 d0 e9 bc da 32 e7 3c 85 a8 bc bc
       -0.0045393854 -0.028541904 0.02822249 -0.023029575
0003b0 88 19 c5 3b c4 03 4b 3c 51 d3 44 bd 43 90 0c 3d
       0.0060150065 0.0123910345 -0.04805309 0.034317266
0003c0 dd 5e 46 3d 24 42 6e bc 20 ea 90 bb 66 ff f5 3c
       0.048430312 -0.014542136 -0.004422441 0.03002901
0003d0 6b 16 4b bd 79 25 1f bd cc 95 2a bc 70 c4 49 bd
       -0.049581926 -0.038854096 -0.010411691 -0.049259603
0003e0 a2 b1 dd 3c de 53 1c bd 6f 6a 29 3d 1e d3 17 bd
       0.027062241 -0.03816592 0.04136127 -0.03706657
0003f0 85 72 32 3d 21 f5 26 3d aa 1c c4 3c 32 fe ad 3c
       0.043566246 0.040761117 0.02393945 0.021239374

layer1.bias f4 [128]
000000 6a b9 20 bd 42 45 21 bd aa 55 b8 3c 0e 94 e1 bc
       -0.039239325 -0.03937269 0.022501785 -0.027536418
000010 ea 60 1d 3d fb 78 69 bb 40 e9 12 bc 5b 7b 4c 3d
       0.038422503 -0.0035625088 -0.008966744 0.04992233
000020 f1 2c ac 3c 35 6e 36 bd 6d 60 f3 bc c8 fd f7 bc
       0.021017523 -0.044538695 -0.029709065 -0.03027238
000030 cb 39 d9 bc 11 54 cf 3c 75 7e 2a bc 3b 2a 5d bd
       -0.026516816 0.02530864 -0.010406126 -0.053995352
000040 d5 46 30 3d 45 78 64 bb 1a 53 12 3c 31 1e ab 3c
       0.0430363 -0.0034861725 0.008930946 0.02088842
000050 1b 94 f3 bb fc 6e cd bc db 33 8a bc 56 71 62 bd
       -0.007433427 -0.025077336 -0.01687043 -0.055283867
000060 98 0c a4 bb be 45 fb b9 59 eb 39 bd 87 89 f5 bc
       -0.005006384 -0.00047926413 -0.04539046 -0.029972805
000070 50 58 14 3d 65 ba 36 3d b1 00 e7 bc 63 be 33 bd
       0.036217034 0.044611353 -0.028198572 -0.04388274
000080 14 30 3a bc 0c 30 31 bd 33 89 ef 3c 81 85 fc 3c
       -0.011364002 -0.04325871 0.029240226 0.030825378
000090 fb 89 09 3d a7 65 06 bd 3e fd 31 bd 83 89 23 bd
       0.033578854 -0.032811787 -0.0434544 -0.039926063
0000a0 91 43 27 3d 6d 40 f5 3c 86 72 02 3d 65 e0 42 bd
       0.04083592 0.029937947 0.0318475 -0.04757728
0000b0 7a c8 df bb 0f 04 89 3c 41 d2 34 bd 69 9b 2d 3d
       -0.0068293186 0.016725568 -0.044145826 0.04238454
0000c0 ce 89 23 bd 26 07 ee 3c 4c 62 89 bd 6c 5a af 3c
       -0.039926343 0.029056143 -0.06708202 0.021405421
0000d0 fa b0 9c bc f7 f0 b4 b9 f6 d0 72 3d bd 82 4d bd
       -0.019127358 -0.00034511808 0.059281312 -0.05017351
0000e0 a6 6e 2e bd 71 d6 95 3c 42 06 61 bd 00 ee 6d bc
       -0.04258599 0.01829073 -0.05493761 -0.014522076
0000f0 09 5f a5 bc 38 91 cc 3c a9 ce d6 3c 7c 92 17 bd
       -0.020186918 0.02497159 0.02622159 -0.037004933
000100 c0 c2 43 bb 2a fb 1f bd df 0f 09 3c 48 a1 ff 3c
       -0.0029870719 -0.039057888 0.0083656 0.031204835
000110 77 dc 32 bd 45 77 07 bc 89 7c 12 3d bb b6 12 3b
       -0.043667283 -0.008268182 0.035763297 0.0022386748
000120 0b 21 46 bd d2 77 36 bd b4 77 38 3d 65 d3 91 bb
       -0.048371356 -0.044547863 0.045036033 -0.004450249
000130 16 98 41 3d 5d 7c 1a bd 58 ad 43 bd 19 83 39 bc
       0.04726418 -0.03771626 -0.047772735 -0.01132276
000140 b1 8b 1c 3d 35 0a a7 bc 7f d5 ad bc 2c c6 f9 bc
       0.038219158 -0.02039061 -0.021219967 -0.030490004
000150 01 5a 07 3d 1b 2e 45 3d 5d 54 21 3c 08 70 26 3d
       0.03304482 0.048139673 0.009846774 0.040634185
000160 93 80 84 bc 49 3e b2 3c cd 9c 2b 3d 6e 69 5c bd
       -0.01617459 0.021758216 0.041897584 -0.053811483
000170 19 d0 40 3d 52 0f 08 bd 82 41 49 bc dd 4b 07 bd
       0.047073457 -0.033217736 -0.012283685 -0.033031333
000180 bc 1c 13 bc b3 51 dd bb 36 12 5c bd bf 23 15 bd
       -0.008979019 -0.006754124 -0.053728305 -0.036411043
000190 89 c8 f0 bc f9 44 37 bd 64 b6 5b b9 db a6 36 bd
       -0.029392498 -0.04474351 -0.00020953413 -0.04459272
0001a0 61 2c 33 bc a7 cc 3e bd ca 77 26 bb f1 0d 1b bc
       -0.010935874 -0.04658189 -0.002540099 -0.009463773
0001b0 81 53 92 bc 38 6f 9d 3b 51 87 e4 3c ca 98 b1 bc
       -0.017862083 0.004804518 0.027896555 -0.0216793
0001c0 70 90 8c bc 6c ac 3b bc c8 cb 51 3b 4b a6 b1 bc
       -0.017158717 -0.011454683 0.0032012332 -0.02168574
0001d0 5b 79 04 3d e4 90 14 3d 73 b1 56 3c d0 a3 37 bc
       0.032342296 0.03627099 0.013103831 -0.01120849
0001e0 1f 7f e3 3c 05 b4 cd bc cc dc 00 bd ab 8e d9 bc
       0.027770577 -0.025110254 -0.03146057 -0.026557287
0001f0 90 3d 7e bc 76 32 0a 3b 15 a9 8f bc 57 2f ab ba
       -0.015517607 0.0021087206 -0.01753668 -0.0013060373

layer2.weight f4 [64, 128]
000000 0e 68 75 3d bf 20 08 bd b2 ec 17 bd 68 7f 39 bd
       0.059913687 -0.033234354 -0.037090965 -0.04528752
000010 8c d7 8d bc b7 e5 a7 3e 78 d2 71 bd a6 f8 9d 3e
       -0.017314695 0.32792446 -0.05903861 0.30853766
000020 26 99 af bd c1 0c a5 bd 01 e6 65 3e e7 13 24 bd
       -0.085741326 -0.08059073 0.22451021 -0.040058043
000030 7b 28 1e bc ff c1 65 bd ca bb ac bd 4f 58 30 bc
       -0.009653206 -0.056093212 -0.084342554 -0.010763242
000040 4a aa 4e 3d 17 17 40 bd b2 80 cb bc 19 23 2a 3d
       0.05045537 -0.04689702 -0.02484164 0.041537378
000050 47 3f 20 bd 30 7b 9c 3b ca 54 9b 3b 53 e6 85 bd
       -0.039122846 0.0047754273 0.0047403323 -0.065380715
000060 ec c5 8c 3c de 18 5c bd 27 a1 8f 3e 43 b1 10 3d
       0.01718422 -0.053734653 0.28052637 0.0353253
000070 29 ac 15 bd 52 95 b9 bd 90 33 be 3b cf 93 93 bc
       -0.036541138 -0.09061684 0.0058044866 -0.018014817
000080 6f 4d 27 bd 42 a1 1e bc 26 9a 7e 3d a3 69 71 bc
       -0.04084533 -0.009682002 0.062158726 -0.014734658
000090 d6 19 de bc 66 9f 1a 3d de 4f 8a bd 70 61 7c 3c
       -0.027111929 0.03774967 -0.06753515 0.01540409
0000a0 33 66 97 3d ad c3 81 ba 31 d3 56 be d0 a5 d0 3d
       0.0739254 -0.0009900235 -0.20979 0.10187876
0000b0 5b 1c 04 bd bd 70 d1 3c dd 6d 34 3e 3a 4a 12 bd
       -0.032253604 0.025566453 0.17620035 -0.03571532
0000c0 37 e7 c9 3d a8 79 e9 3c 27 fa 6a 3d 2c 38 ad 3d
       0.09858554 0.028500393 0.05736747 0.084579796
0000d0 ec 66 25 3d e7 41 2b be 53 cf 1e be a8 73 a0 3d
       0.040381357 -0.16724358 -0.15508775 0.0783456
0000e0 e8 08 aa bd d2 cc c1 3d e3 65 a4 3c f4 a5 86 3d
       -0.0830248 0.094628945 0.020068115 0.06574622
0000f0 98 d3 e8 3d 79 a4 54 3d 9b 52 47 3c 60 48 8e 3b
       0.11368483 0.051914666 0.012165691 0.004342124
000100 90 e4 8f 3b f2 38 07 3e 0e 1d 8b 3d 30 4e 4a 3e
       0.0043912604 0.13205317 0.06792651 0.19756389
000110 e8 f8 e5 3d 6b 59 0e 3d cc ba 0f 3d 6d ec 0e 3d
       0.11229116 0.034753244 0.035090253 0.034893442
000120 05 16 91 bd 3b 7a 1f be 60 a5 82 3c 14 05 06 3c
       -0.07084278 -0.15573971 0.015947998 0.008179922
000130 58 5d 4d 3d 40 17 53 3c 2b 48 dc bc fe 56 ab 3d
       0.050137848 0.012883961 -0.026889881 0.08366202
000140 a1 fb 20 bd e6 b3 6f bd 5e 55 53 bd 6b 2e 9c bc
       -0.039302472 -0.058521174 -0.051595084 -0.019065103
000150 43 f3 5b 3d eb 39 5c 3d 10 97 57 bb 94 aa 36 bb
       0.05369879 0.053766172 -0.0032896437 -0.0027872669
000160 ef 50 e7 bc 71 4f de 3d a0 e4 5d 3c 96 2c a9 3d
       -0.028236834 0.10854996 0.013543278 0.08260457
000170 47 54 a0 3d 70 e2 2a bd 01 17 98 3d 69 cc ef bd
       0.07828575 -0.041719854 0.07426263 -0.1170891
000180 e1 18 d8 3d e3 c2 8f 3c 3c d3 ba 3d 9c 68 6a bc
       0.1055162 0.017548984 0.09122321 -0.014307167
000190 68 5a b8 be 1a 91 a6 bd a4 2b 36 3d 6e 03 16 3e
       -0.36006474 -0.08133145 0.044475213 0.14649746
0001a0 a6 4a 1e 3d 34 aa aa bc 8b aa d0 bc 9b cb 96 ba
       0.03864541 -0.020833112 -0.025471946 -0.0011504771
0001b0 b9 a2 ad bd 13 f0 c2 3d 9b 2c a8 be 70 11 f6 bc
       -0.084783025 0.09518447 -0.3284653 -0.030037612
0001c0 e9 31 16 bd 90 e7 10 3d f2 73 a9 bd 36 38 ad 3c
       -0.03666869 0.035377085 -0.08274068 0.021144968
0001d0 30 2a 36 3d ef 2d bd 3c 82 73 4a be be 7f 85 bd
       0.044473827 0.023093192 -0.19770625 -0.065185055
0001e0 6e d3 9e 3d 7b 43 a6 bd 4b 47 92 bd 44 37 b4 bd
       0.07755171 -0.0811834 -0.07142504 -0.087996036
0001f0 42 60 da bc 55 e1 87 3d 7e 6b 83 3d 6e 20 04 3d
       -0.026657227 0.066347755 0.06416987 0.03225749
000200 2b 05 27 bd 2e c3 13 3c f3 a4 47 bd a6 40 89 3c
       -0.040776413 0.009018702 -0.048741292 0.01675446
000210 5d 00 8d 3d bb 9e 24 be 65 ec 37 bd 88 41 78 bd
       0.06884835 -0.16076176 -0.044903178 -0.06060937
000220 81 fe 2e bd ba 25 8a bc 00 fb ce 3c 9d 53 99 bd
       -0.042723183 -0.016863693 0.02526617 -0.07486651
000230 97 ca 90 bc 24 a7 37 3d 2b c9 d5 bc 90 51 87 bc
       -0.017674727 0.044837132 -0.0260969 -0.016518384
000240 68 54 e3 3c 17 42 9d 3d 20 75 b5 3d 95 b6 56 bb
       0.027750209 0.07678621 0.088602304 -0.0032762636
000250 5a e9 be 3a 28 44 9d bc a5 a8 13 3c e6 02 6d 3d
       0.0014565394 -0.019197538 0.009012376 0.057864092
000260 b7 d0 a4 3d cc b5 12 3d 60 99 8c bd d2 64 64 3d
       0.08047622 0.035817906 -0.068651915 0.055760212
000270 10 06 84 bd f3 53 ea bc 1c 47 be bc d7 09 c4 3c
       -0.06446469 -0.028604483 -0.023227267 0.023930473
000280 46 ad 23 3d 9a f7 a0 3d 3d ce 24 bd 40 b2 e6 3c
       0.03996017 0.07859726 -0.040235747 0.028161168
000290 6e 19 71 bd c1 42 37 3d f4 d4 03 3d c8 9b b5 3d
       -0.058862142 0.044741396 0.03218551 0.088676035
0002a0 4a cf e6 3c 96 53 a2 3d 14 87 10 bd c1 5e af bd
       0.028175015 0.07926099 -0.03528507 -0.08562995
0002b0 11 2a 85 3d 1e 06 9b 3d 1c 86 4e 3c 80 09 91 3d
       0.06502164 0.07569526 0.012605216 0.0708189
0002c0 fa 2f 99 3d c0 39 bc ba f3 a9 56 3d 2a e8 1c bd
       0.07479854 -0.0014360473 0.05240817 -0.038307346
0002d0 d5 9c a0 bc c4 86 68 3e 3a c7 76 bd a4 08 e4 bd
       -0.019606033 0.22707659 -0.06024859 -0.111344606
0002e0 b0 1c 1b bc 0e fe 38 bd 80 f0 6e 3c b0 2d 93 3d
       -0.009467289 -0.04516416 0.014583707 0.071864486
0002f0 33 45 c9 3d fa e1 11 bd af 16 40 bd 76 7a 8d bd
       0.09827652 -0.0356159 -0.046896633 -0.06908123
000300 f0 d3 8c bb 80 59 3b 3d 42 39 3b bd 94 26 92 bd
       -0.004297726 0.04573965 -0.045708902 -0.071362644
000310 a7 8e 38 3d 7a b0 ec 3c ee 7d f0 bc 36 e0 10 bd
       0.04505792 0.028892744 -0.029356923 -0.035370074
000320 00 0f 4c 3c d8 62 de bd 17 27 03 3d 6f ad a2 3b
       0.012454748 -0.10858697 0.0320197 0.0049645226
000330 22 e6 39 3d 3e 8b 86 bd 29 d3 11 bc 5f 20 da bd
       0.045385487 -0.06569527 -0.008900442 -0.106507055
000340 fe e1 a4 bd fa 23 f9 bd 1a 5f a5 bd b1 82 d8 bc
       -0.08050917 -0.12165065 -0.0807478 -0.026429506
000350 4a 91 e5 3b a7 62 1d 3d 5a 8c f7 bc 38 d8 15 bc
       0.007005845 0.03842416 -0.030218292 -0.009145789
000360 41 d3 ae bc 95 cc 8e 3d b0 2d b1 3b cb 5f 87 bd
       -0.021340968 0.06972615 0.0054070577 -0.06610068
000370 2c 9d 99 3c 43 85 ae bc b0 e9 d5 bc f0 a0 7e bd
       0.018751703 -0.021303779 -0.026112407 -0.0621652
000380 a8 60 9c 3d c9 3d 11 3e fc 87 23 bc 5b a8 74 3d
       0.07635623 0.14183725 -0.009981152 0.05973087
000390 c1 c6 d6 bd e8 48 3c 3c 3d eb a7 3d 5d 0a 56 bd
       -0.10487128 0.011491992 0.08199165 -0.052255977
0003a0 0d 65 f5 3b bd a6 82 3d 8e 77 a8 bc 51 bb 97 3c
       0.007488853 0.06379459 -0.02056482 0.018521937
0003b0 ba 6a 0d 3d 68 a5 52 3d a5 43 bc bd 24 3b 6f 3d
       0.03452561 0.051427275 -0.0919259 0.05840601
0003c0 8d 88 9e 3d 86 54 5b 3d 4c 74 ac bd 64 f6 c4 3d
       0.07740889 0.053547405 -0.08420619 0.09617308
0003d0 75 ca ae 3d 5f 9c a1 3d d4 60 b0 3b d6 ec 39 bd
       0.08534709 0.078911535 0.0053826366 -0.04539188
0003e0 1f a4 89 3b c8 4a 9f 3c 6d 63 32 3d 5b cc b1 3d
       0.004200473 0.019444838 0.04355185 0.08681556
0003f0 2e c7 46 3d 7a 00 40 3d c7 49 8e 3d 1f ae 0d 3d
       0.048529796 0.046875454 0.06947666 0.034589883

layer2.bias f4 [64]
000000 4f 11 82 bd e9 9a a1 3d a8 f9 3c bc 7f 6c 94 bd
       -0.063509576 0.07890875 -0.011534132 -0.072472565
000010 20 b8 20 bd 2d 4f 3b bd 55 20 48 3d b3 48 13 bc
       -0.039238095 -0.045729805 0.04885896 -0.008989501
000020 f1 e1 25 bd 9e 35 1c 3d 53 82 3e 3d b3 ae 3f 3d
       -0.040498678 0.03813707 0.046511006 0.046797466
000030 97 0f 85 3d 5d 62 c7 bd e9 70 27 3d ea a8 1a bd
       0.06497114 -0.09735558 0.040879164 -0.037758745
000040 48 23 99 bd f9 91 ef 3b cd 56 8d bd fa bb 96 bd
       -0.074774325 0.0073111025 -0.069013216 -0.073600724
000050 bf 9b 28 bd a7 8d cb bb 74 7f 1b bd dd 0d 13 3c
       -0.041164156 -0.0062119546 -0.037963346 0.008975473
000060 12 63 ca 3c 65 4c 81 3d bd be c8 3c 7a 9f 30 bd
       0.024705444 0.06313399 0.024505014 -0.04312084
000070 f0 6f a6 bc 5e b3 b3 bd 5a 9f 63 bd 31 7c 7d bc
       -0.020317048 -0.08774446 -0.05557189 -0.015471504
000080 78 40 a7 bc f7 30 a4 bd 08 c3 56 bd aa 67 be bd
       -0.020416483 -0.08017152 -0.05243209 -0.09297116
000090 5b 01 80 bd 81 0e b0 bc f0 da fc bc fc 9a 16 bd
       -0.062502585 -0.021491291 -0.030866116 -0.0367689
0000a0 8f 18 c8 bc 84 0c 6a 3d bf 2f 8a 3d 96 b4 05 3c
       -0.024425773 0.057140842 0.06747388 0.008160731
0000b0 a3 13 82 3d f5 5b 14 bd 7c 28 2e 3b 56 64 81 bc
       0.06351402 -0.03622051 0.0026574424 -0.015794914
0000c0 3b 59 16 bd 3b 28 0a bd c0 f1 6c 3d 2d c1 3c bd
       -0.03670619 -0.033729773 0.05784774 -0.046082664
0000d0 01 67 ae bb a1 37 5a 3c 8e 73 07 bd ad 52 a0 3d
       -0.0053223376 0.013318927 -0.033069186 0.07828269
0000e0 06 40 04 3b 7a fb 44 bd 5f 41 27 bc 09 a7 10 bd
       0.0020179763 -0.04809139 -0.010208457 -0.035315547
0000f0 0b 7c ce bb 76 95 a1 3d 67 b2 0d bd 88 01 cb 3d
       -0.006301408 0.078898355 -0.034593966 0.099124014

layer3.weight f4 [9, 64]
000000 9d 2d 4a 3e 49 f4 f3 3d 1f 36 ca 3e 1c fe a4 be
       0.19743963 0.11911828 0.39494416 -0.3222512
000010 8d ca 6e 3f 98 88 77 bd 98 45 27 3f 74 71 16 bd
       0.9327782 -0.060433 0.65340567 -0.03672929
000020 15 2d 42 be 3c 13 3d bd b3 0b 4a 3f f0 68 e2 3d
       -0.1896251 -0.04616092 0.789241 0.110551715
000030 ef 8a 07 bc 35 e2 d6 bd a4 55 6e bf c5 12 87 be
       -0.00827287 -0.10492364 -0.9309943 -0.26381508
000040 0f 28 07 be 1d 81 8b be 84 d1 c9 3d 89 31 b2 be
       -0.13198875 -0.27246943 0.09854415 -0.34803417
000050 b2 4b 26 3d 3f 84 f5 3e 95 a5 14 3e e9 93 01 3f
       0.040599532 0.47952458 0.1451629 0.5061632
000060 c0 d1 97 bd 19 8d 4b bf 4a 93 cc be b0 41 81 3d
       -0.074130535 -0.7951217 -0.39956123 0.06311357
000070 bf 9e 7c 3f 80 37 94 3d d3 7b 6c 3e 03 08 fc be
       0.9867973 0.07237148 0.2309411 -0.49224862
000080 81 45 8f bd bb 3e 74 bf a7 39 d0 be 06 7f e0 3c
       -0.06995679 -0.9540822 -0.40668985 0.02740432
000090 b9 de c3 3d 5a 45 cb bd b1 3c 4e bf 20 0d 21 3f
       0.09563965 -0.09925337 -0.8056136 0.6291065
0000a0 72 a4 98 be f4 db b3 bd 68 47 ce be ee da 84 3e
       -0.29812962 -0.08782187 -0.40288854 0.2594828
0000b0 a6 7c 76 3e c3 0e 03 3f ff 7c 49 be 80 f0 0c bf
       0.24070987 0.511944 -0.19676588 -0.55054474
0000c0 dc 52 0b be 8b 97 2d bf f3 04 dc 3e bc 6f 88 be
       -0.13605827 -0.6780936 0.42972526 -0.26647747
0000d0 c8 84 0f 3e dd da 10 bf 3d 27 d9 3e a1 90 84 3f
       0.14015496 -0.5658396 0.4241275 1.0356637
0000e0 b0 d3 2e bf 10 1b 25 bf 7e e5 21 3f bb 3e 55 bd
       -0.6829176 -0.6449442 0.632408 -0.052061778
0000f0 e0 8e 2c bf df 1c 06 3f 2d 52 1e bf 95 8e c7 3e
       -0.6740551 0.52387804 -0.6184414 0.3897597
000100 db 33 15 bd 13 67 70 bd 2d 0b 0f bc f4 9e 58 bd
       -0.036426406 -0.05869205 -0.008730692 -0.052885965
000110 ef e3 1a bd 79 74 60 3d 21 a9 47 bc 1a 9c 7d bc
       -0.03781503 0.054798577 -0.01218632 -0.015479112
000120 1c ce 7f bc 13 c6 e4 3c 80 b8 a6 3d d7 85 51 bd
       -0.015613105 0.02792648 0.08140659 -0.05115303
000130 77 47 aa bd 41 5a c7 3d 0e e5 14 3c 9f 57 b1 3d
       -0.08314412 0.097340114 0.009087814 0.086592905
000140 7b 6c 00 bd c7 33 b7 3b 37 a7 a2 3d ab 47 9b 3b
       -0.031353455 0.005590889 0.0794205 0.004738768
000150 ca ef 26 3d 9b 6a 0d bc e0 a8 25 3d e9 13 00 3c
       0.040756024 -0.008631374 0.040444255 0.007817247
000160 a5 b3 28 bd 1b 89 53 bc ff 11 9c bd 9e 8f 1e bd
       -0.041186947 -0.012911106 -0.0762062 -0.038711183
000170 b0 f3 ab bc 75 88 4d 3b 4c 5c c4 bd e0 01 26 bc
       -0.020990223 0.0031361852 -0.09587917 -0.010132283
000180 db 80 a3 bd 4a c0 71 bd 9c c9 0f bc b2 58 bc bc
       -0.079835616 -0.05902127 -0.008776095 -0.022991512
000190 90 48 70 bc ee ce c6 3c 4a 5a df bb c7 dc 48 bd
       -0.014665738 0.024268594 -0.006816183 -0.049038675
0001a0 37 32 82 bd 01 80 12 3d 03 93 80 3c 42 b2 80 bd
       -0.06357234 0.035766605 0.0156951 -0.06284
0001b0 ec 62 02 3d 08 17 1d ba 90 79 35 bc 4d 29 07 3d
       0.03183262 -0.00059925066 -0.011076346 0.032998372
0001c0 5d b6 07 bc 71 b3 ca 3c 53 4f f5 bc 29 58 b0 3d
       -0.008283225 0.024743767 -0.029945051 0.08610565
0001d0 13 37 f2 bc ba a2 9b 3c 8c f3 e8 bc c2 d4 de bc
       -0.029567277 0.018998493 -0.028436445 -0.02720106
0001e0 d3 19 02 bd 55 be 7b 3b 80 d5 36 3d dd 74 8c 3d
       -0.03176291 0.0038413007 0.044637203 0.068582274
0001f0 a5 6d 15 ba ed 0b 1b 3d 98 55 83 bd 1f dd 61 bd
       -0.0005700237 0.03785317 -0.0641281 -0.055142518
000200 05 b6 a2 bd cc 70 8d 3d c5 de 8b 3c a0 4f 3e bc
       -0.07944874 0.0690628 0.017073998 -0.011615664
000210 c3 61 33 bd a9 87 df bc af 85 15 bc 1d 28 1e be
       -0.043794405 -0.027286367 -0.009126111 -0.1544499
000220 3a 9b dc 3d 07 4e 7f ba 09 61 79 3d e2 59 40 bc
       0.107717946 -0.0009739105 0.060883556 -0.01174018
000230 0f b1 b8 3d ac e7 80 3c a9 7b af 3c 9a 8b d3 3d
       0.09018146 0.01573547 0.02142127 0.10329361
000240 ec 20 b5 bb 55 f6 22 3c bc b2 d2 3b 19 64 51 bc
       -0.0055276062 0.009946425 0.006429998 -0.012780213
000250 1a 33 07 bd 8a d5 4b 3c fb b4 26 bd 11 dc d8 3c
       -0.03300772 0.012441048 -0.04069994 0.026472123
000260 b4 88 0c 3e 48 2c 2c b9 8d 3c 3b bd d8 aa e5 bd
       0.13724023 -0.00016419694 -0.045712043 -0.112142265
000270 b6 64 c5 bc 7d d0 d8 3d 30 19 7f bd fb da dd bc
       -0.024095874 0.10586641 -0.06227988 -0.027081957
000280 01 3b 8b 3d f9 2a 84 bd 7c 51 b3 bb af 01 bd 3d
       0.067983635 -0.06453509 -0.00547236 0.09228837
000290 09 2e f4 bc 37 8e 35 bc 9c 69 f0 3b ac 93 fb bc
       -0.029807108 -0.01108127 0.0073368084 -0.030710064
0002a0 3f 4c 01 bd e9 5f 92 bc 87 98 04 bd 28 2a 98 bd
       -0.031566855 -0.017868 -0.032372024 -0.07429916
0002b0 8f 8e 2a 3d c5 c0 43 3c e6 75 83 3c e7 0b 16 3d
       0.04163986 0.011947815 0.01604743 0.036632445
0002c0 89 d0 51 3d 0f cf fe 3b 8e 61 0b bd 0e 1a 7a 3d
       0.051224265 0.007776148 -0.034028582 0.061060004
0002d0 59 b6 9a bd a3 8f 23 3b 15 53 3f bd 01 23 ab bb
       -0.07554311 0.002495744 -0.046710093 -0.0052226787
0002e0 f3 7e b4 bd 69 52 f0 3b 1e cc 45 3d 33 c7 41 3d
       -0.08813276 0.007334043 0.048290364 0.04730911
0002f0 9d ab 72 3c 51 27 f8 3c b9 1f 6c bd 48 3f 97 bd
       0.014811424 0.030292185 -0.05764744 -0.07385117
000300 bd 1a 0e bd 81 2e 0c bd ff ab 44 bc f8 8f b2 bc
       -0.03469347 -0.034224037 -0.012003898 -0.021797165
000310 76 8d 55 bd bf 0a 65 3c b6 ac b4 bc 62 46 92 bc
       -0.05213686 0.013979613 -0.022055011 -0.017855827
000320 f3 66 a6 3c 20 a9 84 3a 70 83 94 3d fa 0c e3 bc
       0.020312762 0.0010121204 0.07251632 -0.027716149
000330 71 bf e9 bd ba 50 c7 3d 5b 50 17 3c e5 83 c5 3d
       -0.11413468 0.09732194 0.009235467 0.096442975
000340 95 9f 3b b9 51 18 01 bb 36 dc 28 bc e1 b6 6e 3b
       -0.00017893159 -0.0019698332 -0.010306409 0.0036424922
000350 0a 1c 19 3d 19 7e e2 39 b3 63 6d 3d 0a 32 02 3c
       0.037380256 0.0004320003 0.05795641 0.007946501
000360 15 f2 fb bd 67 03 86 bc c7 57 8a bd ce 66 0e 3e
       -0.12302033 -0.016359044 -0.067550234 0.13906404
000370 92 39 2a bc 16 53 ac 3b 9b 65 cf bd 8b 1f a6 bc
       -0.010389702 0.005258928 -0.101268016 -0.020278713
000380 94 9f 81 3c 04 ae 34 bd 41 7e 0d 3b 49 08 ad bd
       0.015823163 -0.044111267 0.0021590146 -0.08448846
000390 b0 d9 b4 bc 45 9e 51 3d bf f8 f0 bb 03 81 73 bc
       -0.022076458 0.05117633 -0.0073538716 -0.014862302
0003a0 79 b9 3c bd b8 99 44 3d d5 49 13 3d 8a 00 a4 bd
       -0.046075318 0.04799816 0.035959084 -0.08007915
0003b0 27 f1 4f 3c ca 66 f4 ba f8 65 61 3c 63 b6 18 3d
       0.012691773 -0.0018646356 0.013757221 0.037283313
0003c0 32 7a 0a 3b ba 1a e1 3c fc 0a 0c bc 1a 19 82 3d
       0.0021129963 0.027478565 -0.008547541 0.06352444
0003d0 99 62 a3 bc 59 87 08 3b dc e1 d8 bc ae d7 10 bd
       -0.019944476 0.0020832627 -0.026474886 -0.03536194
0003e0 ea 9a 99 bd 40 57 0e 3c a5 08 89 3d 87 a9 b2 3c
       -0.07500251 0.008687794 0.06691102 0.021809353
0003f0 60 33 76 3b 02 9b a2 3c f2 5c 68 bd 81 97 4e bd
       0.0037567243 0.019849304 -0.056729265 -0.050437454

layer3.bias f4 [9]
000000 d7 58 02 3e 10 11 95 3c dd 4f 7f bd eb 17 9e 3d
       0.12729202 0.018196613 -0.062332023 0.07719406
000010 8b 19 2a 3b 7c 15 ab bd 27 8f 9a bd 97 7d d8 bc
       0.0025955166 -0.08353707 -0.075468354 -0.026427073
000020 49 d7 66 bd
       -0.056357656
