UCT/Networks/v_2_0.pt (torch, 261121 bytes, 12 tensors)

conv1.weight f4 [8, 4, 3, 3]
00000000: 5f3a fa3b 5830 58bd 7e5f 8c3d a669 c9bc
00000010: c03c 3bbd ab15 48bd 0798 58bd 35c3 f3bc
00000020: 2371 3d3d fbfe 043f 6487 a03e 3e42 9b3d
00000030: eb3a da3e 1ab1 25be d0c2 b73d 9732 003f
00000040: fa25 843e 9a63 b7bb 2716 e03e 643e b23e
00000050: 341f 743d 81a9 3abe df99 aebd ed03 07bd
00000060: b856 eebd 640c 13be 24db ae3e 39d4 683d
00000070: 0941 b83d 789f e73d 3865 6b3d 971a af3d
00000080: ea31 9f3d aaf4 b33c e695 1f3d 3aad 5a3d
00000090: c4bf c9bc e5fc 6a3d ad64 53bc 7f16 9c3c
000000a0: 1a18 cabd eaf4 4d3d c07e 25bc c33d 283c
000000b0: cf2e 76bd 22d5 cd3e 6f15 7f3e 39e9 de3e
000000c0: 3ec9 a63e 7b90 9b3e 1873 9a3e 68f9 a83e
000000d0: 0817 a53e 568d b23e c7fd fcbc 5391 e9bc
000000e0: 40ec 04bd e07b cdbc be81 1fbe 610f 113d
000000f0: 5202 77bd 83ef 12bd 2283 70bd 0446 f23d
00000100: aca4 2b3e c2bd 023e b68f af3d 9a05 af3c
00000110: f543 bd3d 1875 143e 7c0c c63d 711b 013e
00000120: d0e0 6dbd de83 8e3c 94a7 c03b 7ce9 1cbd
00000130: 6c84 423d d144 a33c 5520 913c fe2a 2b3c
00000140: a1bf 3bbd a20e e2bd 8c17 b63c cccd 8cbd
00000150: fc59 f63d 53fb 343c c059 be3d 568a f43d
00000160: d177 403d 8d5d 003e bed6 a93f 3cca c43e
00000170: 3b38 2e3f ff2d 563f 82a2 0a3d d748 133e
00000180: 4c15 33bd 549d 913d 3a22 b23f 7b42 27bd
00000190: b5eb 27bd 408a 85bd 9151 21bc e086 d4bb
000001a0: a1a7 b93b 0159 3d3c 27ab 023c 01fc ef3c
000001b0: e3e2 653c 1d80 44bd cca4 bebb c989 21bd
000001c0: 9365 933c df2a 54bd b464 c3bc 9f7e 43bd
000001d0: 269d 823a 7ed3 6dbd 1fec 093f 768f aebd
000001e0: 83c4 d73e 8bc7 0b3e f47a 093f 7333 dcbc
000001f0: d89f 3c3e c532 8fbd 7b9a 1ebf 3371 1fbe
00000200: a3d6 393f 8e08 013f 6d72 da3e e427 c33e
00000210: 60d0 3e3f f0f3 2a3f 7715 a1be ca89 12be
00000220: 1d42 15be 05ec 1cbe f9c4 5bbe 9a0f 3ebe
00000230: 352f 75be 5320 a6be 7f56 4fbe 403a 5fbe
00000240: d9e6 aebc e165 27bc fe8d 963c d3c6 6d3c
00000250: 7aa2 c5bd a61c 8a3d c40b d0bc ccae 11bc
00000260: 054c 9fbc c0f2 143f d699 0dbe eac6 cd3e
00000270: 4e81 83bd 72c8 0e3d 2829 22bd ce39 453f
00000280: 11eb bb3d 4454 1a3f dc58 2ebe 8df5 c2be
00000290: c709 a6bd ed57 d8be 0082 cd3e c13f db3d
000002a0: 333b eebe 745c aebe 14ab a1be 6546 0e3e
000002b0: c6da 003e 3e8b 823d 7b35 853d 1a1e 0e3e
000002c0: 75c6 bb3d de27 1b3c 632e ad3d e830 c03c
000002d0: f14e c3bc 162b 24ba 0505 9abd 292e 89bc
000002e0: cea3 28bd 6199 56bc 8000 debd 4d96 07bd
000002f0: 51d6 eabd 3420 08be 86e9 0dbe b86a a6bd
00000300: ca92 24be 9004 13be 9026 bdbd 1ea4 e7bd
00000310: 8ec9 febd 9b42 02be f119 94bd 6b54 583f
00000320: 7cb9 903f d824 0b3f 39d6 c33c c823 f03d
00000330: 26e3 9e3f f62a 023f 458d 593f 5a5a 763d
00000340: 65ac 293e e6a8 8d3d e348 203d 7e12 9f3a
00000350: 85c4 8b3c afcf 8b3d 294c 933d a846 993c
00000360: 0909 323b 3b99 323a e5fb 853b 11c1 6cbc
00000370: 463e 973d 4ed5 69bc 4134 003d 5932 acbd
00000380: 5c44 4e3d dcbe 0a3c 0ba9 46be 9c59 14bd
00000390: a7a8 49bd 7561 953d 5213 823e ba05 d23d
000003a0: c7f0 ff3d 0e84 253e 13b9 4cbd e153 22be
000003b0: 1529 5ebe e77f 8a3d 4985 cdbe 387b a83d
000003c0: 1dcc 9e3d 2f06 85bd 5cc5 81be b9b5 013e
000003d0: e8ca 393e 9e31 f83d fce4 043e 6e14 9c3e
000003e0: 0af1 373e be40 7b3e 8051 b53e ea69 7b3e
000003f0: ab82 9dbd f78a ebbd 89de 0ebe 5bc0 e2bd
0.007636353 -0.05278048 0.06854151 -0.02458651 -0.045712233 -0.04884879 -0.05287936 -0.029756168
0.046250474 0.5195157 0.31353295 0.07580994 0.42623076 -0.1618084 0.089727044 0.50077194
0.25810224 -0.00559659 0.437669 0.34813225 0.05960007 -0.18228723 -0.08525442 -0.03296273
-0.11637634 -0.14360195 0.34151566 0.056843016 0.089967795 0.11309713 0.057469577 0.085499935
0.07773192 0.02196725 0.038961314 0.053387858 -0.024627574 0.057370085 -0.012902421 0.019053696
-0.09867878 0.050282396 -0.01010102 0.010268631 -0.060103234 0.4020167 0.2491052 0.4353731
0.3257541 0.30383667 0.30165935 0.33002782 0.32244134 0.34873456 -0.03088273 -0.028511679
-0.032451868 -0.025083482 -0.15576836 0.035415057 -0.060304947 -0.035872947 -0.058718808 0.11829761
0.16762036 0.127677 0.085723326 0.021364976 0.092414774 0.14497793 0.0967035 0.12608124
-0.058075726 0.017396864 0.005879352 -0.038308606 0.04748957 0.019930275 0.017715612 0.010447262
-0.04583705 -0.11037947 0.022228025 -0.0687519 0.12028882 0.0110462485 0.09294462 0.11940448
0.046989266 0.12535687 1.3268659 0.38435543 0.6805455 0.83663934 0.033846386 0.14383255
-0.043721482 0.07110086 1.3916695 -0.040834885 -0.040996272 -0.0652051 -0.009846107 -0.006485805
0.005665735 0.011556865 0.007975376 0.02929497 0.014031145 -0.04797374 -0.005817985 -0.039438043
0.01799277 -0.051798698 -0.02385173 -0.047728177 0.0009965047 -0.058063023 0.5387592 -0.08523457
0.42142114 0.13650338 0.53703237 -0.026880002 0.1842035 -0.069921054 -0.6195447 -0.15570526
0.72593135 0.5040368 0.42665425 0.38116372 0.74536705 0.6677847 -0.3146169 -0.14310375
-0.14576001 -0.1532441 -0.21461858 -0.18560639 -0.2394379 -0.32446536 -0.2024784 -0.21799564
-0.021350311 -0.010217161 0.018378254 0.014512735 -0.096501306 0.067437455 -0.025396235 -0.0088917725
-0.019445429 0.5818291 -0.13828215 0.40190822 -0.06421147 0.03485913 -0.03959003 0.7704133
0.09175695 0.6028483 -0.17026085 -0.38077965 -0.08107334 -0.42254582 0.40138245 0.107055195
-0.4652954 -0.3405491 -0.31575835 0.13894041 0.12583455 0.063742146 0.06504341 0.1387867
0.09168712 0.009469954 0.08456113 0.02346082 -0.023841353 -0.0006262524 -0.07520489 -0.016745644
-0.04117184 -0.013098092 -0.10839939 -0.033102322 -0.11466659 -0.13293535 -0.13858613 -0.08125824
-0.1607162 -0.14357209 -0.09235871 -0.113106 -0.12440787 -0.1272072 -0.072315104 0.8450381
1.1306605 0.54353094 0.02390586 0.11725575 1.241307 0.50846803 0.84981185 0.06014476
0.1656967 0.069169804 0.03913201 0.0012136248 0.017061481 0.06826722 0.07192261 0.01871045
0.002716603 0.0006812994 0.004088866 -0.0144503275 0.073849246 -0.014272047 0.031299833 -0.084080406
0.05035816 0.008468356 -0.19400422 -0.03621827 -0.049233105 0.07293979 0.25405365 0.102549985
0.124970965 0.16163656 -0.049981188 -0.1585231 -0.21695359 0.06762677 -0.4014075 0.08226627
0.07753775 -0.0649532 -0.25345886 0.12666978 0.18143809 0.12118839 0.12977976 0.30484337
0.17963043 0.24536416 0.35413742 0.24552122 -0.076909386 -0.11501115 -0.13952078 -0.11071845

conv1.bias f4 [8]
00000000: 2d04 473d 1844 90be e34f 50bc 1f2d 713e
00000010: 2adb 163e 08a4 01be c954 693e b8c7 2d3c
0.048587967 -0.2817695 -0.012714359 0.23552369 0.14732042 -0.12660229 0.22786249 0.010606699

conv2.weight f4 [16, 8, 3, 3]
00000000: 5701 843e 36c0 943d 3e8c 643e 1357 903e
00000010: af08 cebe 2ff6 123d cb5d c23e a880 a03d
00000020: 4c7a 073e 177a e13e ce11 0c3f 9b13 373f
00000030: ee9a 5c3e 9e52 44be 884b 153f 9a0a 193f
00000040: 2f4c 863e 560b 103f 27de 8ebe c784 84bd
00000050: 247a 163e 7853 aabd 1c40 2abe 305d c1bd
00000060: b7be 853c 6583 b9bb eab2 34be 8ee0 e33b
00000070: d843 9cbe 6017 2b3e 966f a3be 967d 6abe
00000080: 3175 54be 9927 53bd 2895 86be a2ba 283e
00000090: ce71 333d a439 c53d f5ff 0fbd 47ba 253e
000000a0: 02e1 b7be 8fe4 7b3e 90dd 373e bd40 a23e
000000b0: 49b7 86bc 5439 5abe d4f8 d63d 5bdb dbbe
000000c0: 8db0 5b3e ba59 283e 18b6 31be 0828 69be
000000d0: 1996 c7bd 1970 f0bd 79bc 5dbe 26c1 12be
000000e0: b255 d9bd 408e 473c b87c 39be 49b3 df3d
000000f0: c8be 97bd 7e8b b8bd fc29 5f3e 5f7c b33e
00000100: 11c8 783d 157b 9a3e 300c 0abe 413c f4be
00000110: 91c6 bc3e 2f18 0c3e 217a 5d3e 160b a73e
00000120: 44ef 793d 99d9 0ebe 7eb4 c9bd 8577 e4bd
00000130: 93fd b33d f94e d63c 0e2d d5bc 4ef5 d2bc
00000140: a9bd f2bd 9ba6 08be 902f 06be 67b5 20be
00000150: 8bd5 60be 83ac 56be 7606 b8bc ef40 5bbe
00000160: 3e43 0e3d ffaa 29bd 3c36 66bc 212f dbbd
00000170: 2db2 0b3e 5ecd 90bd 03fd c2bd 91aa d23d
00000180: c579 2e3f b9c5 8cbd 2344 cfbe 3da2 273e
00000190: 3dbc 0b3d 8ea9 153d 1b6d 743e 2311 0c3e
000001a0: 76d3 023d 0849 0c3e af10 6c3e 5d79 e43d
000001b0: 7c7a 1cbe f725 11be 6df0 44bd 2b68 11bd
000001c0: 2040 333e 27fa a0bb 8f2e 8a3b b175 d2bd
000001d0: 913a f1bb ecbe b33e 0f80 2abe 3f25 823b
000001e0: f93f 873e b8e9 b13b cf20 b23d 5a86 2a3f
000001f0: 6f74 013e 3861 e33e 615c 34be 9607 35be
00000200: 81da 83be 98dd 3c3c fff7 a63b 1f21 26be
00000210: 4d8b 9bbe 039c ae3c 2d6f 63be d59b 553e
00000220: dc90 adbc b85f a13e 888d c23c c812 9d3d
00000230: ae5f 40bb e107 e63d b50a 033e 79d0 7d3e
00000240: 91bf c73d c05f 2d3e 3be0 223e 7290 3c3c
00000250: 3f63 113e 2b11 94bd 2501 bc3d 7681 9b3d
00000260: 579a c3bd ec26 833e 24d8 283e f350 973d
00000270: 5f6c d4bc 3bad 373e e938 e03b 54e7 10be
00000280: ce93 dd3d 79b6 f4bd 0e0d 053f bbb9 71bd
00000290: af28 f23e 16a5 bd3e 047f 9f3d cc9c 53bd
000002a0: e36f 2e3d a55c 463e 9119 b53e 476e bc3c
000002b0: a6e5 cb3c fa96 793e 35e3 70bc 743c f9bd
000002c0: d9a5 3d3e 4a28 933d c0e8 1a3e bf7c a93e
000002d0: f59e e23d ca97 9f3d 4dfb 99bd 8319 08bd
000002e0: 7443 2b3d e397 903d 778c ff3b 1cac 85bd
000002f0: 1282 cabd 9889 c0be ac0d adbe d376 58bc
00000300: e72c 89bd a3c6 e2bd 33b4 a7be 4ddb c2be
00000310: 4c02 6fbd 8c8f 1f3f 07e5 103e ffd3 2d3d
00000320: 0e0f f8bc b21e 913c 43d0 883d c5e5 1e3d
00000330: 4a6e 3e3e 16cd 253e 5b46 c8bd 7cee 133e
00000340: e5fc e1bd 642b da3d 86f0 853d 7f1f 2a3e
00000350: 032d 5cbd 6dde f3bc e933 653d f0d7 e73d
00000360: a4e5 773e 4202 403e 9fc1 933e 7366 6d3e
00000370: 5786 4fbd c7b2 5abd e180 923e cf94 783e
00000380: 73b4 0d3e 5373 2a3f 2722 223f c2ed 673e
00000390: e853 fe3e e2e2 5a3e dbf8 e53e 7ce4 b43e
000003a0: 69d7 803e bbf9 e13e dbef 6bbe 63ed 33be
000003b0: 4577 10be bea3 93bd 8f51 95be f3a9 c4be
000003c0: 7933 dabd 7f25 f03d 2238 debe c2ec 763e
000003d0: 3069 32be cf51 013e 591a b7bc 17d3 9abc
000003e0: fb72 b3bd f722 86bd 208e a2bd 8f92 03bc
000003f0: d88b 32be b7b2 993d 4e4c ffbc 581f 2f3e
0.25782272 0.07263224 0.22319123 0.28191432 -0.40241 0.03587931 0.37962183 0.07837039
0.13230246 0.4403846 0.5471467 0.7151429 0.21543476 -0.19172141 0.58318377 0.597818
0.26229998 0.562673 -0.27903864 -0.06470638 0.1469503 -0.08316702 -0.16626018 -0.09441602
0.016326291 -0.0056614154 -0.17646375 0.0069542592 -0.3052051 0.16708136 -0.3192107 -0.2289947
-0.2074783 -0.051551435 -0.26285672 0.16477445 0.043809704 0.09630135 -0.03515621 0.1618434
-0.35913855 0.24598907 0.17955613 0.31690016 -0.016444819 -0.21310931 0.10496679 -0.42940792
0.21454068 0.16440478 -0.1735462 -0.22769177 -0.09745426 -0.11740131 -0.21653928 -0.14331493
-0.10612048 0.012179911 -0.18113983 0.10922868 -0.074094355 -0.09010981 0.2179336 0.35055825
0.060737673 0.3017203 -0.13481212 -0.4770222 0.36870244 0.136811 0.2162862 0.32625645
0.061019197 -0.13950194 -0.09848879 -0.11155609 0.087886 0.026160704 -0.02602246 -0.025751736
-0.11852581 -0.13344805 -0.13104081 -0.156942 -0.2195646 -0.20964245 -0.022464018 -0.21411489
0.034732096 -0.04142284 -0.014051016 -0.107023485 0.13642187 -0.07070421 -0.095209144 0.10286439
0.68154556 -0.0687365 -0.40481672 0.16370483 0.034115065 0.036538653 0.23869745 0.13678412
0.031939946 0.13699734 0.2305324 0.11155961 -0.15281099 -0.14174639 -0.04808085 -0.035499733
0.1750493 -0.004912633 0.004216976 -0.10276354 -0.007361718 0.351066 -0.16650413 0.0039717252
0.26415995 0.005429473 0.08697664 0.66611254 0.12642072 0.4441011 -0.17613365 -0.17678675
-0.25752643 0.011527441 0.0050954814 -0.16223572 -0.30379716 0.021314627 -0.22210379 0.20860226
-0.021187238 0.3151834 0.023749128 0.07669598 -0.0029353905 0.112319715 0.12797053 0.24786557
0.09753335 0.16931057 0.1590585 0.011509048 0.14198016 -0.07229837 0.09179906 0.07593052
-0.09550922 0.25615633 0.16488701 0.07388487 -0.025930582 0.17937176 0.0068427217 -0.14150745
0.10819207 -0.119488664 0.51973045 -0.059015017 0.47296664 0.37040013 0.07787898 -0.051663205
0.042587172 0.19371279 0.35371068 0.023001803 0.024889778 0.24373999 -0.014702608 -0.12169734
0.18520297 0.07185419 0.1512785 0.33102986 0.11065475 0.07792623 -0.07518635 -0.033227455
0.041812375 0.0706022 0.007798727 -0.06526968 -0.0988809 -0.37604976 -0.33799493 -0.013211924
-0.066980176 -0.11073043 -0.3275467 -0.38057938 -0.0583518 0.6232841 0.14149867 0.042438503
-0.030280616 0.017714832 0.06680348 0.038793344 0.1859676 0.16191515 -0.09779044 0.14446443
-0.11034564 0.10652807 0.06540017 0.16613577 -0.053753864 -0.029769147 0.05595771 0.11320484
0.24208695 0.18750861 0.2885866 0.23183613 -0.050665226 -0.05339315 0.28613952 0.24275516
0.13838367 0.6658222 0.6333336 0.22649291 0.4967339 0.21375611 0.44916424 0.3533057
0.25164345 0.44135842 -0.23040716 -0.17571025 -0.14107998 -0.07208966 -0.29163787 -0.3841091
-0.10654349 0.11725902 -0.434022 0.24113753 -0.17422938 0.12628864 -0.02235143 -0.018899484
-0.08762165 -0.06549638 -0.079372644 -0.008030548 -0.17436159 0.0750479 -0.031164315 0.171018

conv2.bias f4 [16]
00000000: 27ee 06be 7966 e03d 00d8 323e d28f ddbd
00000010: aadd 453e 253b 123e 294e 0d3e 6583 07be
00000020: 7710 35bd 5821 ae3d c245 723d 0c45 32bd
00000030: 6cac aa3a 362a 693e adcd b03d 81a2 b03e
-0.13176785 0.10957045 0.1746521 -0.10818447 0.1932284 0.14280374 0.13799347 -0.13233717
-0.044205155 0.085024536 0.059148557 -0.04352288 0.0013021356 0.22770008 0.086329795 0.3449898

conv3.weight f4 [16, 16, 3, 3]
00000000: 26f8 63bd 575b cbbd 3ff6 00be 0ddd 2fbe
00000010: 012f 0c3e b124 60bd 2b4f 5a3d aac1 58bd
00000020: a28c 9d3d 7d29 5a3d d080 823d 7dcc 1fbc
00000030: cf3f d43d db40 883d f7a1 973d 24c1 71bd
00000040: ff66 4fbd c3b6 22be 7a96 833b 9170 833d
00000050: 16a5 5d3e af0c 1cbd a990 473c 4985 14be
00000060: 3dd7 03be 60f2 03be c4b4 f23d 9449 2b3d
00000070: 42fd abbd cac1 ddbe 93d3 1bbe 951c f23d
00000080: 67bc d8bd 1bbd d8bd 3d07 73be 981b 98bc
00000090: 769b 1c3d 1043 2f3e 96be debd 17d1 df3d
000000a0: 8239 993e ed73 c03a 209f a23e c5c2 943d
000000b0: 2fb2 b2bd 3519 773d 7bfa 323d 9fa9 69be
000000c0: 3777 46be 7d75 6dbb 0472 d63d 11a9 ae3b
000000d0: 6e69 60bd ee7f 80be 3ac9 9dbd 0dc8 a43d
000000e0: c71c 2f3d a62b 94bc fa9c 9fbc 1624 833b
000000f0: 356f cc3d 4a7c fb3d 53f0 3e3e 00b7 b23d
00000100: 148e 3abd 15c5 2fbe 6cca 1c3b bc8b a0bd
00000110: b2f5 ea3c 2ddf 91bd b7bc 143e dc36 a33d
00000120: 4324 39be 121d c3bd 5f57 c43b 0265 e73c
00000130: 7626 2dbe 6fff f1bd 76dd 45be f4cc 35bd
00000140: 79d1 d6bd c308 9a3d 229a 90bd abf2 1dbd
00000150: f37e 9b3d 25db 49bd a88e 213b b595 48bd
00000160: 9ddb 863d 8d67 07bd b5d6 3e3d 0822 0bbe
00000170: d2fd 7d3e d9b0 573c b56e f1bd 690b debd
00000180: 6627 8cbe fb42 10bd 51d7 2f3b 8904 c9bc
00000190: 193d acbc d917 f8bd 1cdb a53c 6fb2 0b3d
000001a0: e518 10be 2b37 213d 7d29 59bd 2666 27be
000001b0: 5a06 4b3e bd5e 593d 1275 2fbe 06be ef3d
000001c0: 80e8 543e c570 5c3e 7c0c 07bd e2ac 3c3e
000001d0: 64b7 b73d f6aa 9dbd 83c2 d9bd 895f 47be
000001e0: 3a2e d7bd b132 053e f3c0 69bd b494 883d
000001f0: 4fd1 013e 8f88 62bd 39f0 d83a 91b5 333d
00000200: f86d 86bc d3da 863c aefc 18be c529 133e
00000210: e58d 133e 6c60 303e daf5 ebbc ce4e b9bb
00000220: c331 983d 536d 593e 6248 60bd 2195 893d
00000230: 355a 393e 2a34 42be 762e 293b 9db8 0e3d
00000240: 22fd 123d cc2c fb3d bc9e b4bd 7b94 c8bc
00000250: 56da 44be 7a8a 1cbe 9775 833e ecb1 fd3d
00000260: 1ec4 5ebc ed52 143e c6a6 8bbd 39bc 7d3d
00000270: dead a5bc afa2 373c 1c47 0b3e a8b6 08bd
00000280: 56f3 02bd 6293 e2bd 2761 0fbd e503 b5bd
00000290: 829e 203d 6880 e13b dd71 4bbd d2c8 093e
000002a0: d8c5 87be 6e23 293b da92 e43c 1711 9c3e
000002b0: ae33 5abd bc63 2ebe 0499 2d3e 7f7c dcbd
000002c0: acf6 06be 637e b83d 9fe1 c3bd 615d 2bbd
000002d0: 7aef 323b 9655 44be 82ae 6bbd d8f5 6abe
000002e0: baa2 b53d a05f f0bc a351 9dbe a8bb 0e3e
000002f0: ca9d 9cbd 11e1 243e 6e92 083e b16d d03d
00000300: 469b 68bd 1fbf 0fbe 14fe 27be 9a0b c23d
00000310: 9871 e7bd 3d50 c1bd 3203 28bc b793 8e3d
00000320: 687d 103d 61c0 71bd f634 973c 35c8 733a
00000330: 562f 1d3e 240e 023e a379 fe3d d81b a53d
00000340: 680a 4d3e 98eb 20bd fb84 75be cf7c c33d
00000350: 05c5 1f3e 7e77 353d c374 12bd f418 2bbe
00000360: 7ccd f5bd 943d 53bd 109c 4cbe d0ec 3dbe
00000370: 775f 623d e088 7ebd 54de 663d 8fb6 c43d
00000380: 2138 533d 8254 7a3e 8ce0 8fbe 12ea 59bd
00000390: 356e 043e 5664 6bbe 3936 8d3e 4b96 2c3e
000003a0: 54f1 18be 672a 34bd a1af e33e aa64 1bbe
000003b0: 0543 08be 6835 4f3e dad3 28bd ff9b 49be
000003c0: 99dc 2b3d 996d 733c bf8b be3d bf56 4b3e
000003d0: e810 523c d5d7 b6bc d377 0abe 3337 c5bb
000003e0: 8dd9 bd3d 8d10 013e f834 4c3e c65b 7abd
000003f0: e165 8d3e 005a 4a3e 0a60 823d 8b55 2b3c
-0.055656575 -0.09929531 -0.12593935 -0.17174168 0.13689806 -0.05472249 0.053298157 -0.052919067
0.07692839 0.053262223 0.06372225 -0.009753344 0.10363733 0.06652995 0.07403939 -0.059022084
-0.050635334 -0.1589003 0.004015741 0.06417955 0.21645007 -0.038098034 0.012180486 -0.14503969
-0.12875076 -0.12885427 0.118508846 0.041818216 -0.083979145 -0.43311912 -0.15217428 0.11821858
-0.1058281 -0.10582944 -0.2373323 -0.018567845 0.038234197 0.17115426 -0.10876195 0.109285526
0.29926687 0.0014682986 0.31762028 0.07263712 -0.08725392 0.060326774 0.043695908 -0.22818612
-0.19381414 -0.0036233359 0.104709655 0.005330213 -0.054788046 -0.25097603 -0.077043965 0.08045969
0.042752054 -0.01808722 -0.019484032 0.0040021045 0.099821486 0.12279566 0.18646364 0.08726311
-0.045545653 -0.17165025 0.0023924364 -0.07839152 0.02868161 -0.071226455 0.14525114 0.07969448
-0.18080239 -0.09527029 0.0059918608 0.028246406 -0.16909203 -0.11816298 -0.19322762 -0.04438491
-0.104891725 0.075212024 -0.070606485 -0.038561504 0.07592573 -0.049281258 0.002465168 -0.048970897
0.06584857 -0.033057738 0.04659148 -0.135872 0.24803856 0.013164722 -0.11788694 -0.1084202
-0.2737381 -0.035220128 0.002683122 -0.024538295 -0.021025227 -0.121139236 0.020246081 0.034105714
-0.14071997 0.039359253 -0.053018082 -0.1634756 0.19826642 0.053068865 -0.17134503 0.11706166
0.20791817 0.21527393 -0.03297089 0.18425325 0.08970526 -0.07698624 -0.10632803 -0.19470038
-0.10506864 0.13007618 -0.057068776 0.06668988 0.12677501 -0.055306014 0.0016551084 0.043874327
-0.016409859 0.016461765 -0.1494014 0.14371403 0.14409597 0.17224282 -0.028803755 -0.005655146
0.07431366 0.2123311 -0.05475653 0.06717897 0.18100818 -0.18965212 0.0025815046 0.03484403
0.035885938 0.12264404 -0.08819339 -0.024484864 -0.19223914 -0.152872 0.2567565 0.123874515
-0.013596563 0.14484759 -0.06818919 0.06194708 -0.020224508 0.01120822 0.13601345 -0.03337732
-0.031970344 -0.11063267 -0.03500476 -0.088386334 0.039213665 0.0068817623 -0.049669135 0.13455513
-0.2651813 0.0025808471 0.027902056 0.3048179 -0.05327194 -0.17030233 0.16952902 -0.10765933
-0.13180035 0.09008481 -0.09564518 -0.0418371 0.0027303384 -0.19173273 -0.05753947 -0.22945344
0.08868928 -0.029342473 -0.30726346 0.13938773 -0.076472834 0.16101481 0.13337108 0.10177172
-0.056788705 -0.1403775 -0.16405517 0.09474869 -0.11300963 -0.09439132 -0.010254668 0.06961768
0.035275847 -0.059021357 0.01845787 0.00092995475 0.15350088 0.12700707 0.12425544 0.080619514
0.20023501 -0.03928718 -0.2397651 0.0954529 0.156025 0.04430341 -0.035755884 -0.16708738
-0.12002084 -0.051572397 -0.19981408 -0.18547368 0.055266824 -0.062142253 0.056364372 0.09605133
0.0515672 0.244463 -0.28101003 -0.053201742 0.12932666 -0.22987494 0.2758043 0.16854207
-0.1493581 -0.04398575 0.44469932 -0.15175119 -0.13306816 0.20235217 -0.041217662 -0.19688414
0.041958425 0.014857673 0.09303998 0.1985731 0.012821414 -0.022319714 -0.13522272 -0.006018543
0.0927001 0.1260397 0.19942081 -0.06112268 0.2761679 0.19760895 0.06365974 0.010457407

conv3.bias f4 [16]
00000000: f83f b23d 66c6 61bd b0fe 02be 5dd0 2e3d
00000010: fcfc 00bc 557e 4e3d b700 f0bc b094 62be
00000020: 5142 15bd cba8 acbc 37bf 8a3c 37f0 91bd
00000030: c97d 993d 5ebd f63a e39e 583d 90a9 463e
0.08703607 -0.055120848 -0.12792468 0.04267918 -0.007872816 0.05041345 -0.029297216 -0.22127032
-0.036440197 -0.02107658 0.016936881 -0.071258955 0.07494695 0.0018824746 0.0528859 0.1940062

layer1.weight f4 [128, 404]
00000000: c0d2 59bd 0e99 08bd 3c1a d2bd ade7 2e3d
00000010: 8e78 05bd f9eb d0bc 60e5 a5bc 26f6 49bd
00000020: 26fc b2bc c904 11bd 8d18 59bd 013e 9dbd
00000030: a820 1bbd d83b ff3c 0f9a 4d3d 9faf 95bd
00000040: 1158 babd 9dab 87bc 4ec6 583c dd0f 5bbd
00000050: a20e 90bd 6273 4b3d f42e 12bd 8a7e d03b
00000060: 7c65 0bbe 0791 0ebe 41ec 6ebc 5f3d 443d
00000070: d2f9 9fbc 7302 80bd 2888 303d c184 bd3d
00000080: 525f ffbc 2765 80bc 0ae8 3e3d ca72 80bd
00000090: 5c0f 53bd 21d5 1dbe 565f d5bc b3ef c53b
000000a0: 5799 083d 4e3b c43d b80d 90bd d46e 83ba
000000b0: 1353 01bd f664 debc c3a3 613d 5a28 9fbc
000000c0: b20a 04bc 022c 34bc 3cd9 bc3d 94bb dc3d
000000d0: 3188 fc3b 2d50 923d 45f0 32bd 4f02 af3d
000000e0: 8146 843d 4dd9 2dbc 3ecd eabd 3c07 833c
000000f0: b434 233c b190 b83b 7356 c3bd 78ff f4bd
00000100: 13e7 f4bc 22e8 45bd 33f5 343d 10b6 a1bd
00000110: f4b4 de3c c296 49bc 2103 e33c 3608 81bc
00000120: c2a7 bb3d 8ce7 79bd 004d 4c3d b0c5 6c3d
00000130: 97b2 54bc c908 14bd 985b 46be e2d1 093e
00000140: 7931 dfbd 51c5 0fbd b05c 493d a424 e8bd
00000150: e534 873d e2c6 debd d3e0 093d d5b9 7b3d
00000160: 866b 4ebd 92ea 8fbb 7f04 253e e725 a43d
00000170: e8c6 8d3d 42fd ddbd 19d4 adbd b6cf c7bd
00000180: e69d 1dbd 98ba 8dbb e08a 07bd 783c 1e3d
00000190: 62d8 b6bb f6ba 38bc 6beb a63c cd7e 6a3d
000001a0: 7d18 783d 8443 3cbe 1705 f6bd 3e5f 973d
000001b0: af31 d0bd 23a4 923d 522d 4ebd 2346 623d
000001c0: 3dfb 023d f8f9 c1bd 7e82 cc3d 0d00 11be
000001d0: 50cd ae3c c21c 923d 51bb 6cbd 9906 243d
000001e0: d6d0 1a3c 4bd0 103e 17aa babd 7bc3 8bbd
000001f0: 5b20 b1bc 83f1 a3bd 8362 a4bc 42d6 fd3c
00000200: a93a 3f3c 37d5 9abc 3680 7a3d fa42 b4bd
00000210: 3e0b db3d 7681 febc 256d 6dbd 8d67 b7bc
00000220: 4e47 2fbb bc22 9fbc f0c9 c0bd e95b 02bd
00000230: 1202 abbd 7c85 1fbc 60ac 29bd ee17 263d
00000240: 4b49 f4bc eea4 9bbd 7798 4cbd eeeb 42bb
00000250: e96e 9ebd ac77 01be 9acd 43be 8fdd 3ebe
00000260: d3b5 b43d 6426 c8bd 01b6 e4bd 1121 5cbe
00000270: 8bc9 29bc 5353 52bc b196 86bd 204f 84be
00000280: 683e 11bc 03a0 333c f802 c7bd 932e 693d
00000290: bb08 34be 7960 cfbc 0e0e e4bc c09b e4bd
000002a0: 4565 59bd ceb5 22be e8c9 dc3d 2d99 0c3e
000002b0: 3e44 973d 7ab4 33bd 4572 ccbd abd5 64bd
000002c0: 8209 d8bc 4c6b 073e 529a 2b3e a322 9b3d
000002d0: 0618 ca3d 1ec1 a0bd 33bc 34bb 1379 e0bb
000002e0: bb2d e93d 17aa 6c3d 9f98 643d f097 81bc
000002f0: c5dd adbc 0e58 813d c3e3 0f3e 718a 043a
00000300: 47d6 e0bc 66dd 5abb fdb4 f73c b046 0fbd
00000310: c83d 33bd 5e8a a53d 0982 893c 8f62 f8bb
00000320: fcca 943c daa3 4a3c d1f6 f9bc 20b5 ef3b
00000330: eea7 ab3d fcf0 6dbd f009 05be 9c7a 8cbd
00000340: 5c42 093c 4af4 44bb a121 c63d fee2 a6bd
00000350: 5492 95bd 8bbe 9b3d 79ee f23c a54b 373e
00000360: 8f6b 513c 29b0 743c 717d 233d f95c 18bb
00000370: d11b 07bd 1be6 613c 3c04 46be 6a41 433d
00000380: a42a 7a3d b653 22bd 62c1 773d a498 21bd
00000390: 1d6f d63d 6153 d43c 2238 53bd 94d2 85bd
000003a0: a8ef 44be 0f50 453c 476b f1bb b38b 6fbc
000003b0: 7c50 24bd c932 66bc 74c2 483c 7ccf 9e3d
000003c0: 1a93 d63c 9bfb 523d 6807 a53d 6844 2fbc
000003d0: 6569 57bd 211f 00bc 18ef e23c 5893 42bd
000003e0: f8ba b23a ca68 73bd e53f a93c 387b 33bd
000003f0: 2361 f2bc 2847 b33c 3db2 0a3e e8f0 42bd
-0.053179502 -0.03334909 -0.1025891 0.042701412 -0.032585673 -0.025503146 -0.020250976 -0.04930701
-0.02184875 -0.035404954 -0.05300193 -0.07677842 -0.03787294 0.031156465 0.05019575 -0.07308888
-0.090988286 -0.016561324 0.013230873 -0.053481925 -0.07034041 0.049670584 -0.03568931 0.006362741
-0.13612932 -0.13922511 -0.0145826945 0.04791009 -0.019528303 -0.06250467 0.0430986 0.092538364
-0.031173382 -0.015673233 0.04660801 -0.06271894 -0.05152832 -0.15413333 -0.026046436 0.0060405373
0.03334936 0.09581624 -0.07033867 -0.0010027536 -0.031573366 -0.027147751 0.055087816 -0.01942842
-0.008059191 -0.01099682 0.09221122 0.10777965 0.007706665 0.071441986 -0.04368617 0.08545362
0.0645876 -0.010610891 -0.11464928 0.01599466 0.009961296 0.005632483 -0.09537973 -0.11962789
-0.029895341 -0.048317082 0.044179153 -0.07896054 0.027185895 -0.01230401 0.027711453 -0.015750986
0.09162857 -0.061011836 0.04987812 0.057805717 -0.012982032 -0.03614119 -0.19370878 0.1345897
-0.10898108 -0.035100285 0.04916066 -0.11335114 0.06601886 -0.10877778 0.033661675 0.06145652
-0.05039551 -0.0043919766 0.16114996 0.08015042 0.06922704 -0.10839321 -0.0848772 -0.097564146
-0.03848066 -0.004325222 -0.033091426 0.038631886 -0.005579994 -0.011275044 0.020375928 0.057249833
0.06057023 -0.1838513 -0.120126896 0.07391213 -0.101657264 0.07160213 -0.05033619 0.05524267
0.03197788 -0.09471506 0.09985827 -0.14160176 0.021338135 0.07134391 -0.057795826 0.040045355
0.009449204 0.14141957 -0.09114473 -0.06824394 -0.021621874 -0.08005049 -0.020066505 0.030985955
0.0116717005 -0.018900497 0.061157428 -0.08801837 0.10695504 -0.031067591 -0.057965416 -0.022388244
-0.0026745382 -0.019425742 -0.094135165 -0.031825934 -0.08350004 -0.009736415 -0.041424155 0.040550165
-0.029820105 -0.07599817 -0.04995009 -0.0029742676 -0.07735998 -0.12643307 -0.191214 -0.18639205
0.08823743 -0.097729474 -0.11167527 -0.21496989 -0.010362993 -0.012837249 -0.06571711 -0.25841618
-0.0088649765 0.010963443 -0.09717363 0.056929182 -0.17581455 -0.025314556 -0.027838733 -0.111625195
-0.053075094 -0.15889665 0.10780698 0.13730307 0.07386063 -0.043873288 -0.09982733 -0.055867832
-0.026371721 0.13224524 0.16758087 0.07574966 0.09867863 -0.07849334 -0.0027577996 -0.0068503707
0.113856755 0.057779398 0.055809613 -0.01581952 -0.021223912 0.06315623 0.14051728 0.000505603
-0.027445925 -0.0033396124 0.03023767 -0.034979522 -0.04376009 0.08083032 0.016785638 -0.0075801085
0.018163197 0.012368167 -0.030513199 0.007315293 0.083816394 -0.05809115 -0.12992072 -0.068593234
0.008377638 -0.0030052834 0.09674383 -0.08148764 -0.073033005 0.076047026 0.029654728 0.1789995
0.012781992 0.014934578 0.039914552 -0.0023248775 -0.032985512 0.013787772 -0.19337553 0.047669806
0.06107582 -0.039630614 0.06048716 -0.03945221 0.10470412 0.025918664 -0.051567204 -0.06534305
-0.19232047 0.012043013 -0.007367525 -0.014620709 -0.04011582 -0.014050194 0.0122533925 0.07754418
0.02619319 0.05150948 0.08058053 -0.010697462 -0.052590746 -0.007819922 0.0277019 -0.0475038
0.0013636043 -0.059426107 0.02066035 -0.043818682 -0.029587334 0.021884516 0.13544555 -0.047593027

layer1.bias f4 [128]
00000000: 4f2e ce3c f2ec ecbc f558 413d 95de 2d38
00000010: 12ad 66bd d131 e43c a573 0c3d b40c 473d
00000020: ddbf 29bd a701 ad3a 4a33 093d c730 223d
00000030: 558e b0bb 6cde 8abc 343f bd3b 1520 2e3d
00000040: 80f8 5a3b 53a9 05bd 8e04 a5bc ef33 203d
00000050: 706a 2a3c c7ca 22bd dc9c 06bd be52 a4bd
00000060: 031d af3c ac9f 743c d923 bd3b a9dd 4bbc
00000070: 760f 33bd 8209 1c3d cca7 f3bc be5f 803d
00000080: b2ee bdbc 9c92 153d 9ae8 84bd 6444 733c
00000090: ecdd b3ba ed20 153c d370 093d 5174 31bd
000000a0: 1a1a 143d 704c d9bb a080 ddbb f0fe 6abc
000000b0: c6b0 88bd 6fce fbba 1ef0 d43c 8f1f bbbc
000000c0: ebb3 9cbc 4e65 8cbd 62ce d3bc 5aa0 0c3d
000000d0: 5561 133d badb 823c ce1d 0cbd 4f2b 52bd
000000e0: bf94 be3c df79 e33c a616 ecbc f2f5 403c
000000f0: 9f01 0c3d 62f7 ea3a f698 41bd 154d 11bd
00000100: 1ed0 1f3d 2a36 133c 3348 ebbc ea1f 0bbd
00000110: 36ee 1d3b 9368 283d 42dd a03c 789c 163c
00000120: 50dc 97bd e8c2 8ebb 4cf9 bfbc b476 183c
00000130: 5190 443d 1099 58bb 5180 36bd c619 88bc
00000140: 73b1 1cbd b7c9 8abd 4012 6c3d c11a 0e3a
00000150: 94c6 5d3c 54f8 18bd 168c 84b9 ab43 dcbc
00000160: 64d8 2c3c be44 f23c 7d2d 383d ca9e dabc
00000170: 5021 02bc ec2f 3dbb 32be e3bc 28d8 df3b
00000180: fa75 73bc 193a 293d 34d0 3a3c 5ef8 d73c
00000190: de61 0ebd a654 3dbd 9cb6 5cbc 9409 0a3c
000001a0: 0b5f a0bc 8e53 ce3b 7c71 023c f25d 803a
000001b0: c1e6 a03c a613 5dbd 262e e03c a714 3fbd
000001c0: 73c2 01bd d293 243d d4c4 8d3c 559d 1a3d
000001d0: 155e 1e3d 48c4 05bc 1822 d9bb 42d0 d53c
000001e0: bca8 273d 66e5 2ebc f4a5 59bc 6b2f 4bbd
000001f0: 0f40 993c 83bf 6bbd 5245 c3bc b968 8fbd
0.025168566 -0.028921578 0.047203977 4.145371e-05 -0.056317396 0.027855786 0.034289975 0.0485961
-0.04144274 0.0013199345 0.03349618 0.0395973 -0.005388061 -0.016951762 0.0057753567 0.042511065
0.0033412278 -0.032632183 -0.020143773 0.039112028 0.010401353 -0.039744165 -0.032864437 -0.08023594
0.021376139 0.014930647 0.0057720956 -0.012442985 -0.043715917 0.038095005 -0.029743098 0.062682614
-0.023185108 0.03651677 -0.06489678 0.014847849 -0.0013722754 0.009102088 0.033554863 -0.04332382
0.036157705 -0.0066314265 -0.006759718 -0.014343008 -0.06674342 -0.0019211302 0.025993403 -0.022842197
-0.01912876 -0.0685526 -0.025855247 0.03433261 0.035981495 0.015973914 -0.03420811 -0.051310834
0.023264287 0.027768074 -0.028819393 0.011777388 0.034181233 0.0017926509 -0.047265016 -0.0354739
0.039016835 0.008985082 -0.02872095 -0.033965982 0.0024098284 0.041115355 0.019636754 0.0091925785
-0.07415068 -0.0043567307 -0.023434304 0.009305645 0.047989193 -0.0033050217 -0.044555966 -0.016613852
-0.038255166 -0.06776755 0.057634592 0.0005420857 0.013536114 -0.0373462 -0.00025281374 -0.026887735
0.010549638 0.029573794 0.044965256 -0.026687045 -0.007942513 -0.0028867675 -0.027800653 0.0068311878
-0.014859671 0.041315172 0.011402179 0.026363548 -0.034761302 -0.046223305 -0.013471272 0.008425135
-0.01957657 0.0062965816 0.007961627 0.0009793623 0.019641282 -0.053973816 0.027365755 -0.046650555
-0.03167958 0.040180035 0.017305769 0.0377477 0.038663942 -0.008164473 -0.0066263787 0.026100282
0.040932402 -0.01067481 -0.013284195 -0.04960577 0.018707303 -0.057555687 -0.023836765 -0.07002396

layer2.weight f4 [64, 128]
00000000: 6805 d4be c618 4a3e eaf5 06bd d7b6 943d
00000010: b444 ad3d 200b 2ebb be4b 0dbf 2cbe b53d
00000020: ff37 0a3e b53c 1cbe 7ece 9f3d aeee 303d
00000030: 0dfe a4bd f35d 5abd 1e52 d33c cdf3 9b3d
00000040: 4054 94bc 1c51 6ebe bfa6 003e ec8f d2bc
00000050: b4a3 bc3c 74d3 f0bc 9ccc 40be 5938 363e
00000060: 4a7c af3d 7a27 443d 904a 143c f423 b5be
00000070: 94e2 4bbe 60b6 f0bc 63d8 ad3d 357a abbe
00000080: 5f97 163e 6084 27bd e006 33be ef8f adbd
00000090: 1e67 96be 9464 1ebe c5d1 45bd 3ef5 403d
000000a0: 01b5 a53d e518 45bd 1dfe f5bb be7d 5f3e
000000b0: 4e94 8c3d de82 ccbd 0033 82bd cde7 773e
000000c0: 707c 86bd 099e ccbd 78d0 363d d2c1 7bbd
000000d0: 30f4 703c a30d 3fbd fff9 863d 39f7 57bd
000000e0: 87ec b33d 327c 1f3d 1e9a 47be 8778 81bd
000000f0: 7b4d 81bd 2cb2 3c3e 4145 a73d b76b 463a
00000100: 7704 2abd 402c 7ebe 2818 cebc c7ef aebd
00000110: 31a9 793d 40e2 6dbe cee0 c5bd ed32 9abd
00000120: 61c5 79bd faca b1bd 2832 3d3c dddb 5a3e
00000130: 614d 53be 1e37 90bd bd65 8c3d 041e 0d3d
00000140: 25a3 45bd e19d d3bd 15f7 023e 5a4d 2ebd
00000150: bfda d5be 58e2 653c df25 c0bd af23 253d
00000160: b24d b1be 097e c2be ed42 70bd 09d3 6abd
00000170: e795 1fbe de88 38be 039d 383d 5676 a1bd
00000180: 2d6f ab3d 2b77 203e 51da dc3a 0a58 2b3d
00000190: cfc7 64bd ec81 b23c 9eb5 8dbd 17de 26be
000001a0: 4ed2 813e 5264 053e 8c6e 0b3e 2409 823c
000001b0: b583 4c3e d530 eebd 2cde fb3c ad8a 323e
000001c0: 4113 4c3e 95d3 3fbd 3544 4e3d 0f16 8cbd
000001d0: bc78 6fbd 807f b13a 78f7 9bbd 98a6 813d
000001e0: f5c7 e8bd 01e4 363b e1b0 b0bd daff 7abd
000001f0: b89b 9c3c 0cd4 023e 10db d6bd cb06 5dbd
00000200: 4e8b 8abe 8149 efbd 1d75 3cbd 3ec8 37bd
00000210: 6bcd 183e 4512 593d 0cc1 f43d 94c6 d23e
00000220: 77c9 7f3c f4ac 51bd c1d4 aa3d ea82 173d
00000230: 08ed 0cbc 7e21 633d f62f 293e 5070 6bbd
00000240: d649 37bd 0fb3 8c3d 2c63 de3a d0f3 89bd
00000250: 54a0 1dbd d248 05bd 379e 1cbd dd37 1ebd
00000260: f1e9 63bd 9e9b 433d 7f4c 5ebd f30e 7b3e
00000270: db9a 44be 3401 c43c 5868 efbc 5a99 14be
00000280: bf2a b13d e6d0 9fbb 9842 cb3c c83d b23c
00000290: 8ccb 90be f602 6abc 4871 0c3c 7d5d a7bd
000002a0: 029f 903d ce9f 323d bbfd f33d c681 023e
000002b0: 63d4 fbbd 6ef7 3d3e d7c3 65bd 2e9b 85bd
000002c0: 311d b03d fa64 2fbe 06a8 233d 2979 02bd
000002d0: 31f7 1dbd 26bf 35bd 02f5 6e3d 1367 c03d
000002e0: a6e5 38bd 0d2f b1bd ee79 bd3d adf6 37bd
000002f0: d027 053c 2fd5 b93e 2aa9 aabe c7d0 293e
00000300: 8d5e 43bc 3f95 85bc b630 493d a208 6a3d
00000310: 9740 9f3e d1e4 3a3d 203f 9fbd e3b0 35bd
00000320: 1a89 a33e aa8a e2bc b138 9b3d 62cb d93d
00000330: 2c89 693d 97bf 9ebd a09c dabc ef0f 15bd
00000340: c2c5 273d 7eb7 f7bb 9590 833d 3882 fcbd
00000350: 4b9d 17be 023a 17bd 04b1 d83c 1a68 80bd
00000360: 0a13 8d3d 11fb 63be e6ea 403d 0b11 94bd
00000370: a532 9ebd aabf 16be c867 d43c b1f5 4bbd
00000380: 1f41 853d 4c7d ef3c 6ea1 a0bd 3268 93bd
00000390: 915b 0ebd 92b0 123d 51ac 65bd 1f38 5e3e
000003a0: 9db0 3f3d 01bb 2c3c 0797 da3d 3e4c 5f3d
000003b0: a06d 95be 529a 813b 8537 833d 1e70 dd3b
000003c0: eaf0 9a3d 006c 4f3d 3171 3abc a6bc 7b3d
000003d0: 0cf1 093d cfbb 94bc e7eb a83d 0bc7 98bd
000003e0: 2f98 8ebe 7f9d 20be 78bd 443e 8308 5abd
000003f0: f94c 11be 466b a7bc 6d63 50be d86c 38be
-0.41410375 0.19736013 -0.032949366 0.072614364 0.0846037 -0.0026556924 -0.551937 0.08874163
0.13497923 -0.15257533 0.07803057 0.043196373 -0.08056269 -0.053312253 0.025795992 0.07614861
-0.01810658 -0.23273128 0.12563609 -0.025703393 0.023027278 -0.029397704 -0.18828052 0.17794932
0.08568628 0.04788921 0.00905098 -0.35378993 -0.19910651 -0.029383838 0.08488538 -0.33491674
0.14706181 -0.040897727 -0.17483091 -0.08474719 -0.29375547 -0.15468055 -0.048295755 0.04710888
0.080911644 -0.048119444 -0.0075070993 0.2182531 0.068642244 -0.099858984 -0.06357384 0.24209519
-0.06566703 -0.0999108 0.044632405 -0.06146414 0.014706656 -0.046643864 0.06590652 -0.052726004
0.087853484 0.0389368 -0.19492385 -0.06321817 -0.06313606 0.18427342 0.08167506 0.00075691513
-0.041508164 -0.24821568 -0.025158003 -0.08541828 0.06095237 -0.23230839 -0.09662019 -0.075292446
-0.06097925 -0.08681293 0.011547603 0.21372934 -0.20634986 -0.07041763 0.068553425 0.034452453
-0.04825129 -0.103328474 0.12789567 -0.042554237 -0.41768453 0.014031015 -0.09382223 0.040317234
-0.3462959 -0.37986782 -0.058657575 -0.057330165 -0.15584527 -0.1802096 0.045071613 -0.07883899
0.083708145 0.15670459 0.0016849731 0.041832007 -0.055854615 0.021790467 -0.06919406 -0.16295658
0.25355762 0.1302655 0.13616389 0.0158735 0.19972117 -0.11630408 0.030745588 0.17435713
0.1992922 -0.04683264 0.050358016 -0.06840145 -0.05846475 0.0013542026 -0.0761556 0.06330603
-0.11366264 0.0027906897 -0.08627487 -0.061279155 0.019117221 0.12776202 -0.104910016 -0.053961556
-0.27059406 -0.11683942 -0.046010125 -0.0448687 0.1492211 0.05299594 0.11950883 0.41167128
0.015611998 -0.05119033 0.08341361 0.036990084 -0.0086014345 0.055451863 0.16522202 -0.057480156
-0.04474815 0.0687009 0.0016966811 -0.06735957 -0.03848298 -0.03254015 -0.038236823 -0.038627494
-0.055643026 0.04775583 -0.05427217 0.24517421 -0.19199698 0.023926355 -0.02922456 -0.14511624
0.08650731 -0.0048771976 0.024812028 0.021757975 -0.28280294 -0.0142829325 0.00857193 -0.08172128
0.07061578 0.043609433 0.119136296 0.12744817 -0.12296369 0.18551418 -0.05609497 -0.06523739
0.08599318 -0.17128363 0.03995516 -0.03185383 -0.03856582 -0.044371746 0.058339126 0.0939466
-0.045140885 -0.08651552 0.09251772 -0.044912983 0.008127168 0.3629546 -0.33332187 0.16583548
-0.011924398 -0.016306518 0.04911872 0.05713714 0.31103966 0.045628373 -0.07775712 -0.044358145
0.31940538 -0.02765401 0.075791724 0.10634495 0.057015583 -0.077513866 -0.026686013 -0.03639215
0.04096008 -0.007559716 0.06424061 -0.12329525 -0.14806096 -0.036920555 0.026451595 -0.06269856
0.06888397 -0.22263743 0.047099017 -0.07229813 -0.077245034 -0.14721552 0.025928393 -0.049794856
0.065065615 0.02923455 -0.0784329 -0.07197608 -0.034755293 0.03581292 -0.056072537 0.21701096
0.04679929 0.010542632 0.106733374 0.05451607 -0.291852 0.003955164 0.06407074 0.00675775
0.07565482 0.050640106 -0.011379526 0.061459206 0.033677146 -0.01815596 0.0824812 -0.074598394
-0.27850482 -0.1568508 0.19212902 -0.053230774 -0.14189519 -0.020436894 -0.20350428 -0.1801027

layer2.bias f4 [64]
00000000: de6c 913d 524c a43d df63 463c ade7 8fbd
00000010: de31 c3bb cf48 cc3d 8b96 e2bc 146c 97bd
00000020: dd2b 8b3d 7a1d debb 17d0 26bc 8092 803d
00000030: 4561 1d3c a501 343d 047e 803c 4459 b83d
00000040: a292 aa3d 066e 04bc a92d e63d ff3f 0cbd
00000050: 2013 593c 6e14 443c 9319 0c3e 7923 35bd
00000060: 6e50 193d 1a6a d43b 9e07 3a3d a2c7 d4bc
00000070: 6fbb 613c 8bc8 443d 9188 f43c bac9 1bbd
00000080: 8d32 ecbc 6f59 09bd 07bc d13c 4dcb 9fbc
00000090: b51b 893c 602a ffbd f0c8 eabc a79d 313d
000000a0: dd69 47bd dd5b 2d3d 3176 10bc e702 8b3d
000000b0: 2e49 4dbd 7114 7bbd adc0 cebc b21f 07bd
000000c0: d0e8 6d3b 1de6 9f3d 3e43 e1bc c133 a63d
000000d0: f574 aa3d 28a3 d7bc 0aca 75bd 24d6 02bd
000000e0: 3e9b 933d f22a 343d da93 dc3b 7025 55bd
000000f0: e086 97bd cdf2 2b3d 7437 bb3d 06cc ba3d
0.07100843 0.080223694 0.012108772 -0.070266105 -0.0059568724 0.09974825 -0.027659675 -0.07393661
0.06795476 -0.006778416 -0.010181448 0.06277943 0.00960571 0.04394688 0.015685089 0.09001401
0.08328749 -0.008082872 0.11239178 -0.03424072 0.013249189 0.011967761 0.13681631 -0.044223282
0.03743022 0.006482375 0.04541742 -0.025974099 0.013777598 0.048042815 0.029850276 -0.03803418
-0.028832698 -0.033532556 0.025602354 -0.019506121 0.016736845 -0.12459254 -0.028660268 0.04336324
-0.048684943 0.042323936 -0.0088172415 0.06787663 -0.050118618 -0.06129879 -0.02523836 -0.03298921
0.0036302097 0.078075625 -0.027497884 0.0811534 0.08323089 -0.026322916 -0.060007133 -0.0319425
0.072073445 0.04398627 0.0067314925 -0.052037656 -0.07398772 0.0419796 0.09141436 0.09120946

layer3.weight f4 [9, 64]
00000000: a909 773f 790f 033f 1b5b 943f 3911 d63e
00000010: 7cd3 1c3f a437 88be 6eba 21bf f4ab 053f
00000020: 9ba1 73bf d81a 88bf e335 6abf 19ea 58bf
00000030: 31db 183f 7695 8ebf 98c9 90bf 1a1c 52be
00000040: e6fc 9abf 87ec 543f b6bc 743f 8c53 1f3e
00000050: 7e78 193f 1d7f 453f 5d2c 573f 6c53 343f
00000060: 150c c03f 3046 83bc 336b acbe cc95 193f
00000070: 07dc 4bbf 57f4 b23f 6948 c5be b289 9abe
00000080: 1966 b73f 08c6 4b3f 255a 27bf 0eb7 763f
00000090: 7371 1d3f 0f71 963f fe36 313f fe98 af3f
000000a0: d44a cf3f 743a 65bf 8ff5 993f 9d78 8dbe
000000b0: 6f05 883f 2e99 37be 23c8 313f 6cdd 99bf
000000c0: 7ca1 a6bf 9b58 36bf 6c5b f43e 0130 aa3f
000000d0: 65be cabf f4f9 a53e 129b 0e3f a814 d9be
000000e0: 616d d43e 9f13 623f fdf7 61bf 4d41 853f
000000f0: 7484 a03f 0bbe 92bd c9de 48bf f8f3 bd3f
00000100: c27f 223d da28 7bbc b8e0 b6bc 370f 8bbb
00000110: 6a02 5bbc 705e 283d 2160 233b d7d3 d0bc
00000120: f6b4 783c 0e55 b23d 6c50 e83c 9157 9d3b
00000130: 3705 86bd bf7a 32bd 875f d9bc c5aa 5a3c
00000140: 9a46 7abc 52a3 fe3c 0f75 0f3d 08c7 30bc
00000150: 6416 2dbd 0a7d 933d e304 2f3a 5703 ed3b
00000160: 0401 90bc 0ecd e23d 6f4a 503d c7a4 23bd
00000170: ed9f a8bc 0ed3 f33c d2be d53c c3c8 bcbb
00000180: 1703 97bd 46b7 c53c f58b 553d e5bc bdbd
00000190: bd84 353d 5f23 ea3c c0af 87bb 6b45 de3c
000001a0: 5540 443c 52f9 e2bd 8078 52bc ea9b 5ebc
000001b0: 94fd 303d 828c 533c 757f 3fbd 2778 0f3d
000001c0: d33b 6e3d b814 ae3d 1aa8 8bbc eeeb 98bc
000001d0: 244e 943c 073d bbba 2b54 093d e947 4e3d
000001e0: 8970 55bd c27f d53a 5072 dbbb df15 c43b
000001f0: a5c0 c13c fdc5 79bb 6005 96bc 13bf 5fbd
00000200: 4056 633c 7541 a5bc dbba d7bc 4ec0 b5bb
00000210: b872 99bc 57f4 383d 9fae 03bc 0692 bebc
00000220: e2d9 b33b 7064 a43d a200 103d df99 4ebb
00000230: 9419 2b3c f8ee 18bd 8190 0bbd e887 693c
00000240: 4fce 64bc 4d1d eb3c a999 0c3d 7785 26bc
00000250: a392 8dbd 61b6 a03d 16b2 ebbb caec 973c
00000260: fb20 bdbc 1645 cfbd 6a1e 833d ee09 fabd
00000270: fe6d 8fbc c5fa ec3c 009c dbbc 90a0 93bc
00000280: de48 95bd b944 b23c e3eb 553d c031 a1bc
00000290: de99 303d 1f95 ea3c 924f 0d3c c0c0 423d
000002a0: d487 3a3c d37a dbbd 7e7b 80bb d91d 72bb
000002b0: e6d8 0f3d b400 753c dc96 23bd 832d 0f3d
000002c0: 31bc 843d 54d9 a53d d711 98bc 4287 27bc
000002d0: a6d1 723c 6dd4 0bbd 0428 1e3d 69d2 333d
000002e0: 3be8 71bd bd83 da3a df8f bab9 460e e83b
000002f0: d51f 5d3d df4f e6bb 3805 69bc 2339 62bd
00000300: 98c6 943c e4b3 60bc 75fc dcbc ae01 64bc
00000310: 13c4 21bc c5c6 243d c26c b53a 9c17 04bc
00000320: d384 443c 01cd bb3d d0d5 d73c f2df 093a
00000330: d00b 2dbd ea4c 1dbd 9c08 00bd 22e5 763c
00000340: 9a5a 91bc 8259 f63c 9621 073d 40de 93bc
00000350: 0f6d c23d dc8c 983d 119c ffba a5bd 0f3d
00000360: deeb 80bc 654e 6a3d 4779 6c3d f4e5 83bc
00000370: c199 b5bc a633 f33c 27ca 81bb caaa 33bc
00000380: 2244 9abd 7b50 da3c 15f4 483d 1526 5d3c
00000390: 7753 3f3d f7ac 31ba 8161 97bb 3b6c 28bd
000003a0: e9ae d9bb 012b d7bd 1a94 5abb d9ee 0cbc
000003b0: 4ec6 0a3d 8334 923c 8a91 3abd def3 0d3d
000003c0: c450 8f3d 451d a53d 4474 9abc 80c1 7ebc
000003d0: 26f5 9e3c f43a 78bd dc78 3a3d 1566 3c3d
000003e0: d4bd 44bd 485e 15bb 16a5 18bb a5e7 27bc
000003f0: 1172 163d 48ba ccbb 8f41 87bc 4f9e 55bd
0.96499115 0.51195484 1.1590303 0.41810015 0.612602 -0.2660495 -0.63175094 0.52215505
-0.95168465 -1.0633192 -0.91488475 -0.84732205 0.5970946 -1.1139362 -1.1311522 -0.20518532
-1.2108428 0.8317341 0.9560045 0.15559214 0.5994948 0.77147084 0.8405207 0.7043979
1.5003687 -0.016024679 -0.33675537 0.59994197 -0.7963261 1.3980817 -0.38531807 -0.30183178
1.4328033 0.79599047 -0.65371925 0.9637307 0.61501235 1.1753253 0.69224536 1.3718565
1.6194711 -0.8954232 1.2028064 -0.27631083 1.0626658 -0.17929527 0.6944601 -1.2020698
-1.3018031 -0.7122895 0.47726 1.32959 -1.5839354 0.32417262 0.5570537 -0.42398572
0.414897 0.8831119 -0.88269025 1.0410553 1.2540421 -0.07165154 -0.78464943 1.4840078
0.03967262 -0.015329564 -0.022323951 -0.004243757 -0.013367275 0.041105688 0.0024929123 -0.025491638
0.015179863 0.08707629 0.02835866 0.0048016985 -0.065439634 -0.04357409 -0.026534809 0.013346379
-0.015275622 0.031083737 0.035023745 -0.01078964 -0.04225768 0.07201584 0.00066764484 0.007233064
-0.01757861 0.11074267 0.050852235 -0.039952066 -0.020584071 0.029763725 0.026091967 -0.0057612373
-0.07373636 0.024135243 0.052135427 -0.092645444 0.044316042 0.02858132 -0.004140824 0.02713271
0.011978229 -0.1108271 -0.012846112 -0.0135869775 0.04321058 0.012911918 -0.046752412 0.035026696
0.05816252 0.085000455 -0.01704793 -0.018667188 0.018103667 -0.0014285155 0.033527534 0.050361548
-0.052109275 0.0016288685 -0.0066969767 0.0059840526 0.02365143 -0.0038112395 -0.01831311 -0.054625582
0.013875544 -0.020172814 -0.026334217 -0.005546606 -0.01873146 0.045154896 -0.008037238 -0.023262989
0.00548862 0.080269694 0.035156853 -0.003152482 0.01044311 -0.037337273 -0.034073357 0.014253594
-0.013965203 0.028700495 0.03432623 -0.010163656 -0.06912734 0.07847286 -0.0071928604 0.018545527
-0.023087015 -0.10120599 0.064022854 -0.12208925 -0.017508503 0.02892817 -0.026807785 -0.018020898
-0.07289289 0.021761285 0.052226912 -0.019677043 0.04311549 0.02863556 0.008624928 0.047547102
0.011384923 -0.10716786 -0.0039209714 -0.003694406 0.03511896 0.014953781 -0.039938793 0.034955513
0.06481207 0.08098093 -0.018563194 -0.010225119 0.014820492 -0.034138132 0.03861238 0.043901835
-0.059059363 0.0016671341 -0.00035583877 0.0070817797 0.053985436 -0.0070285643 -0.014222436 -0.05523027
0.018161103 -0.013714764 -0.02697585 -0.013916416 -0.009873408 0.040228624 0.0013841616 -0.00806227
0.011994558 0.09169961 0.026347071 0.00052595057 -0.042247593 -0.03840343 -0.03125821 0.015069278
-0.017743398 0.030071978 0.032991014 -0.018050313 0.094934575 0.07448742 -0.0019501467 0.03509297
-0.01573747 0.05720367 0.057732847 -0.016100861 -0.022168042 0.029687714 -0.003960866 -0.010966012
-0.075325266 0.026649704 0.0490609 0.013497849 0.046710458 -0.0006777788 -0.0046197777 -0.04111884
-0.0066431654 -0.10506249 -0.0033352436 -0.008601868 0.033880524 0.017847305 -0.045548953 0.034656398
0.06997827 0.08062223 -0.018854268 -0.015549064 0.019404005 -0.060603097 0.045525417 0.04599579
-0.048032597 -0.0022791792 -0.0023291758 -0.010248099 0.036729876 -0.0062477924 -0.016510753 -0.052152928

layer3.bias f4 [9]
00000000: 4ca6 4ebd aca0 aebc 073e 57bc 69e8 e8bc
00000010: 34ef b8bc 8080 f73c a9d8 9c3c ad1d e93c
00000020: 4a94 073d
-0.05045156 -0.021316849 -0.013137347 -0.028431134 -0.022574998 0.03021264 0.01914628 0.028456533
0.033100404
