RL/Networks/WithoutGuide/policy1.pt (torch, 508289 bytes, 12 tensors)

conv1.weight f4 [8, 5, 3, 3]
0	0x3e817b15	0.25289217
1	0xbd0d4c01	-0.03449631
2	0x3ee76f48	0.45202088
3	0x3e3a85c3	0.18215089
4	0x3e01ed43	0.12688164
5	0x3d97de37	0.07415431
6	0x3ea2ce82	0.31798178
7	0xbd65d414	-0.056110457
8	0x3b3bacb1	0.0028636868
9	0x3eb8fa97	0.36128685
10	0xbeb57211	-0.35438588
11	0xbe0a7a80	-0.13523293
12	0x3e1eb0ad	0.15497084
13	0xbd65d9fc	-0.05611609
14	0xbdafcfa8	-0.08584529
15	0x3e9228e7	0.2854683
16	0xbd7de24e	-0.0619834
17	0xbdd202d8	-0.10254449
18	0x3d6846a8	0.056708008
19	0x3d9c83c0	0.07642317
20	0xbcf11100	-0.029427052
21	0x3e022759	0.12710322
22	0xbc1e19da	-0.009649718
23	0xbdaa41e1	-0.08313347
24	0xbc73618a	-0.014854798
25	0x3d60c3aa	0.0548741
26	0x3da1fa2a	0.07909043
27	0x3d2678c9	0.040642533
28	0xbe77ca3b	-0.24198239
29	0xbd681a1f	-0.056665536
30	0x3cc4df79	0.024032341
31	0xbd030682	-0.03198863
32	0x3e4bcb24	0.19901711
33	0xbe99bc96	-0.30026692
34	0x3d11cf7f	0.035598274
35	0xbd3e6f9b	-0.046493154
36	0xbd312d56	-0.043256126
37	0x3d91caa2	0.07118727
38	0xbd9a17cb	-0.075240694
39	0x3cd54729	0.026034908
40	0xbba1cd67	-0.004937816
41	0xbd159b6e	-0.036525182
42	0xbd50db59	-0.050990436
43	0x3dd556cc	0.10416946
44	0xbd947315	-0.07248513
45	0x3e983ebd	0.29735366
46	0x3e3cf483	0.18452649
47	0x3e6e87e2	0.23294023
48	0x3e493d17	0.1965221
49	0xbd0f0f0d	-0.034926463
50	0x3d901ba4	0.07036522
51	0x3e944e40	0.2896595
52	0x3e3d2d9f	0.18474434
53	0x3ed5d728	0.41765714
54	0x3e927fc8	0.28613114
55	0xbd0cc683	-0.034369003
56	0x3e8dc298	0.27687526
57	0x3bc4e7a4	0.006009059
58	0xbea6d5a8	-0.32584882
59	0xbeafe5f0	-0.34355116
60	0x3f0c58c6	0.5482296
61	0xbd17583f	-0.036949392
62	0x3eb31099	0.349736
63	0xbc84cc75	-0.016210774
64	0xbc585be4	-0.013205502
65	0x3a1a1227	0.00058773387
66	0x3d33e26c	0.043917105
67	0x3ad9d977	0.0016620596
68	0x3db8e128	0.0902732
69	0x3da60bef	0.08107745
70	0x3c3a1064	0.011356447
71	0x3dc1fa82	0.09471609
72	0x3c85e7b9	0.016345846
73	0xbdb65e00	-0.08904648
74	0xbdc3fd82	-0.09569837
75	0x3d931ed2	0.07183613
76	0x3dc42535	0.09577409
77	0xbc8c389d	-0.017116839
78	0x3b147a11	0.0022655765
79	0xbe1393c1	-0.14411832
80	0xbabcc505	-0.0014401978
81	0xb7e6001a	-2.7418184e-05
82	0x3ba8aa8c	0.005147284
83	0xbb3ee771	-0.002912965
84	0xbdb0526e	-0.08609472
85	0x3d908c4f	0.07058012
86	0xbd70d049	-0.058792386
87	0x3c8a91b1	0.016915174
88	0x3df653cf	0.12027704
89	0x3da68e3b	0.08132597
90	0x3d0d9097	0.03456172
91	0x3e0f28d0	0.13980412
92	0xbd9306e8	-0.07179052
93	0x3eca88bc	0.39557445
94	0x3dd25edc	0.10271999
95	0x3ed2e102	0.41187292
96	0x3e6e1ef6	0.23253998
97	0xbd8f1a4d	-0.06987438
98	0x3e0ddfd5	0.13854916
99	0xbe08ab09	-0.13346495
100	0xbe13f33c	-0.14448255
101	0x3d0a1d59	0.033719394
102	0x3e1729d8	0.14762056
103	0xbe5e172a	-0.21688524
104	0xbd296975	-0.041360337
105	0xbe5b89f9	-0.21439351
106	0xbe90e912	-0.2830282
107	0xbf21c515	-0.6319135
108	0x3e686686	0.2269536
109	0xbd81a768	-0.06330758
110	0x3e4463e3	0.19178729
111	0xbe8a5c93	-0.27023754
112	0x3ba040a1	0.004890517
113	0xbda475b5	-0.08030263
114	0x3e1d006b	0.1533219
115	0xbd0725a9	-0.0329949
116	0x3df64d29	0.12026436
117	0x3e47b569	0.19502796
118	0x3e1a3f2c	0.1506316
119	0x3d9df515	0.07712761
120	0xbdf8c2de	-0.12146543
121	0x3d3c490f	0.04596811
122	0xbd346223	-0.044038903
123	0x3da020bc	0.078187436
124	0x3db1f4fd	0.08689306
125	0x3dca2973	0.09871187
126	0x3bc68c68	0.006059218
127	0xbcf20d1a	-0.029547263
128	0x3d7045a3	0.05866016
129	0xbc51c366	-0.012802934
130	0xbdbd066b	-0.0922974
131	0x3bcddb7b	0.0062822676
132	0x3dabba81	0.08385182
133	0xbcd2c12d	-0.025726879
134	0xbd1edf4b	-0.038787168
135	0x3e0f1d11	0.13975932
136	0x3c4cd4c9	0.012501904
137	0x3ea08f28	0.3135922
138	0x3e8fdd50	0.28098536
139	0x3eb7dda9	0.359113
140	0x3e436b2e	0.19083855
141	0x3eacc4a7	0.33743784
142	0x3e84c04e	0.25927967
143	0x3e796a8f	0.24357055
144	0xbd57c508	-0.052678138
145	0xbde52011	-0.11187757
146	0x3e747025	0.23870905
147	0xbda35599	-0.07975311
148	0xbe13cd1c	-0.14433712
149	0x3ea469aa	0.32111865
150	0xbe1dd69f	-0.15413903
151	0xbe9457fe	-0.28973383
152	0x3f083e3d	0.5321997
153	0x3dcbafdd	0.09945653
154	0xbd830341	-0.06397105
155	0xbc540696	-0.012941023
156	0xbd85c19a	-0.06531067
157	0x3dab0545	0.083506145
158	0xbdd9e816	-0.1063997
159	0x3bff07e9	0.0077829254
160	0x3d143e6c	0.036192343
161	0x3d9a9086	0.07547097
162	0x3b3caa8a	0.0028788173
163	0x3c6138df	0.013746469
164	0x3df819b0	0.121142745
165	0x3dba5127	0.0909751
166	0x3bd43b3b	0.0064767874
167	0x3d4eea06	0.05051615
168	0xbe83de20	-0.25755405
169	0xbd53001f	-0.051513787
170	0x3e0f6113	0.14001875
171	0xbd171d4d	-0.036893178
172	0x3cc475ff	0.023982046
173	0xbe12c8f5	-0.14334472
174	0x3d93ec74	0.07222834
175	0x3db79b8f	0.08965217
176	0xbae0a03e	-0.00171376
177	0xbd22e40b	-0.03976826
178	0x3e03e51f	0.12880372
179	0x3dbad706	0.09123044
180	0x3e90b1b3	0.28260574
181	0x3e4df0f3	0.20111446
182	0x3e9093d8	0.28237796
183	0x3e0438cd	0.12912293
184	0x3e1938db	0.14963095
185	0x3ead1f01	0.33812717
186	0x3d386be0	0.045024753
187	0x3d409878	0.047020406
188	0xbe37308c	-0.17889613
189	0x3ea5e586	0.32401675
190	0xbdda4d25	-0.106592454
191	0x3ea09e62	0.31370836
192	0x3e0be043	0.13659768
193	0xbe17141e	-0.14753768
194	0x3dfadd24	0.122492105
195	0x3f0d3484	0.5515826
196	0xbd480886	-0.048836254
197	0x3e9eb470	0.30997038
198	0xbdcb6ebe	-0.09933232
199	0xbd1f912a	-0.0389568
200	0x3d4d557a	0.050130345
201	0xbcbef78d	-0.0233114
202	0xbe1cfc07	-0.15330516
203	0x3cb3aa7d	0.021931881
204	0xbc5fa02c	-0.013649028
205	0xbe17bddc	-0.1481852
206	0x3cfc6776	0.030811053
207	0x3d87b9fa	0.06627269
208	0x3e389719	0.18026389
209	0xbda47aa0	-0.08031201
210	0x3dbbcf70	0.09170425
211	0xbe4198c9	-0.18905939
212	0x3d8640f3	0.06555357
213	0x3e135b3e	0.14390275
214	0x3e0c2386	0.13685426
215	0xbe1ac39a	-0.15113679
216	0xbc3ce47a	-0.011529082
217	0xbe1b62c0	-0.15174389
218	0x3d8f7fdc	0.07006809
219	0x3df7c2cb	0.12097701
220	0x3c6530bc	0.01398867
221	0x3ceccbfd	0.028905863
222	0xbd445c11	-0.047939364
223	0x3db265af	0.08710801
224	0x3d780ecc	0.060560986
225	0xbe07d0f9	-0.1326331
226	0xbf100d6a	-0.5627047
227	0x3e597c44	0.2123881
228	0xbe1cfe70	-0.15331435
229	0xbd9d4fad	-0.076812126
230	0x3e166254	0.14685947
231	0x3dc7d938	0.09758228
232	0x3d009904	0.031395927
233	0x3eee13fd	0.46499625
234	0x3e2e275c	0.17007202
235	0xbe8a3ea4	-0.27000916
236	0x3f138ce3	0.5763685
237	0xbd3fee02	-0.04685784
238	0xbe1fb26e	-0.1559541
239	0x3dbaad8f	0.09115135
240	0xbe4d404d	-0.2004406
241	0xbe8ef7f3	-0.27923545
242	0x3f069877	0.5257639
243	0x3da44e2c	0.080227226
244	0xbc87194f	-0.01649156
245	0x3da692ff	0.08133506
246	0x3d2d87b4	0.042365745
247	0xbd700a1b	-0.058603387
248	0x3e1340ae	0.14380142
249	0x3d966953	0.07344308
250	0x3d0aa79b	0.033851247
251	0xbe2d8dd9	-0.16948642
252	0xbec019ee	-0.37519783
253	0xbcb29b4f	-0.021802573
254	0x3d595ee4	0.05306901
255	0x3e319327	0.1734129

conv1.bias f4 [8]
0	0x3e5fe7cf	0.21865772
1	0xbdbf2241	-0.09332705
2	0x3d1719ac	0.036889717
3	0xbdbffea0	-0.09374738
4	0xbd3dfd9e	-0.046384446
5	0xbc9c7c6c	-0.019102298
6	0x3de3bbcc	0.11119804
7	0xbd945bfe	-0.072441086

conv2.weight f4 [16, 8, 3, 3]
0	0xbd28e737	-0.04123613
1	0xbdff60cd	-0.12469635
2	0xbe297362	-0.16547921
3	0x3d7c797f	0.061639305
4	0xbd5b635c	-0.053561553
5	0xbe1ce57f	-0.15321921
6	0xbd3e6a3b	-0.046488028
7	0x3b9ea52c	0.0048414674
8	0x3dddac5b	0.1082389
9	0x3d9fb1ae	0.077975616
10	0x3e2a4916	0.16629443
11	0x3d8debfb	0.06929775
12	0xbd8827e4	-0.066482335
13	0x3dea93f0	0.11453998
14	0xbd9e9915	-0.07744042
15	0xbea384cb	-0.3193725
16	0xbd895517	-0.06705683
17	0x3e7db8b0	0.24777484
18	0x3c9eeb07	0.01939918
19	0x3d66d93b	0.05635951
20	0xbcddb044	-0.027061589
21	0x3b9f288d	0.004857129
22	0x3cd05b63	0.025434202
23	0x3e652b6f	0.2237985
24	0x3d9d541b	0.076820575
25	0x3e3f2739	0.18667306
26	0x3e77fb17	0.24216877
27	0x3e164493	0.14674596
28	0xbd82d3aa	-0.06388028
29	0x3cc81005	0.024421701
30	0xbe0ca4ae	-0.13734695
31	0xbe8c3498	-0.27383876
32	0x3c61c9dc	0.013781037
33	0xbe81cae5	-0.2535011
34	0xbe96f0e2	-0.29480654
35	0x3e90d930	0.282907
36	0x3e4373cf	0.19087146
37	0x3d19f356	0.03758558
38	0xbea48771	-0.32134584
39	0x3dbab63d	0.091167904
40	0x3d576e9f	0.05259573
41	0x3d139458	0.036030143
42	0xbe1b203f	-0.1514902
43	0xbe8556c1	-0.2604275
44	0x3e1b19e5	0.15146597
45	0x3d303936	0.04302331
46	0xbd0ec9a9	-0.034860287
47	0x3e9a4b74	0.3013569
48	0xbe26d38a	-0.16291633
49	0xbc8a3caa	-0.01687463
50	0x3e72606d	0.23669596
51	0xbe9e174e	-0.30877155
52	0x3d161005	0.03663637
53	0x3e7b63bf	0.24549769
54	0xbccd853f	-0.02508795
55	0xbd95b1e9	-0.07309324
56	0x3d9321a5	0.071841516
57	0xbdcd6682	-0.100293174
58	0xbc0f89b9	-0.008760863
59	0xbc95922d	-0.018258179
60	0x3d5602af	0.052248653
61	0xbd537a12	-0.051630087
62	0x3d3d099f	0.046151754
63	0x3e4d32d1	0.20038916
64	0x3e615b86	0.2200757
65	0x3d70ac8a	0.058758296
66	0x3e509cbd	0.20372291
67	0x3e6c946f	0.23103498
68	0x3ea225b0	0.31669378
69	0x3d7747e4	0.060371295
70	0x3e5a3bf7	0.21311937
71	0x3ea09f10	0.31371355
72	0x3e0dba85	0.13840683
73	0xbc780b1d	-0.015139368
74	0x3cac46ac	0.021029793
75	0x3c5cae9b	0.013469364
76	0x3cd46e3d	0.025931472
77	0x3df00e08	0.11721426
78	0x3d896bea	0.06710036
79	0xbcfd3f1b	-0.03091388
80	0x3e069793	0.13143758
81	0x3e8a2f6d	0.26989308
82	0x3d3363e8	0.04379645
83	0xbe453717	-0.19259296
84	0x3e91eeca	0.28502494
85	0x3dcf2bd8	0.101157844
86	0xbd47c3e9	-0.04877082
87	0x3ec452dc	0.38344467
88	0xbd1a632a	-0.037692226
89	0xbe33e6fa	-0.1756858
90	0x3e45129e	0.19245383
91	0xbd8a501f	-0.06753563
92	0x3df601ae	0.12012039
93	0x3e3730e6	0.17889747
94	0x3de6cf00	0.11269951
95	0x3de9efb2	0.114226714
96	0x3e0899c1	0.13339902
97	0xbd86bcdc	-0.06578991
98	0x3e44d323	0.19221167
99	0x3d8b02ec	0.06787667
100	0xbd94e4ba	-0.07270189
101	0x3de2e5f6	0.11079018
102	0x3e0836d1	0.13302161
103	0x3c7381a3	0.014862451
104	0xbd21a568	-0.039464384
105	0x3cf66857	0.03007905
106	0x3d2428b1	0.04007787
107	0x3e25719b	0.16156618
108	0x3e11b6db	0.1422991
109	0xbc7a1762	-0.015264364
110	0xbe0ec9a0	-0.13944101
111	0x3e5af092	0.21380833
112	0xbe6e81cb	-0.232917
113	0xbe163cb4	-0.14671594
114	0x3ea2aeb9	0.31773928
115	0xbe32a65d	-0.17446275
116	0xbce0bd7a	-0.0274341
117	0xbd2f0da8	-0.042737633
118	0xbd570a30	-0.05249995
119	0x3d4290b0	0.047501266
120	0xbcf4d817	-0.029888196
121	0x3d4e737a	0.050403096
122	0x3d974dab	0.07387861
123	0xbcfc41e7	-0.030793143
124	0x3d840284	0.06445792
125	0xbd8f89fb	-0.070087396
126	0xbdef8232	-0.11694755
127	0x3ccbc2a4	0.024873085
128	0x3ce14393	0.027498042
129	0xbd5cbdac	-0.053891823
130	0xbcff5ad5	-0.031171242
131	0x3c97b00b	0.018516561
132	0xbceaf3c1	-0.028680684
133	0x3d966517	0.073435
134	0x3dd795f7	0.105266504
135	0xbe0d2f6c	-0.13787621
136	0x3c474b42	0.012163939
137	0xbe1f6943	-0.15567498
138	0xbd58dea8	-0.052946717
139	0x3d98d0d0	0.07461703
140	0x3dff94da	0.12479563
141	0xbe1655e0	-0.14681196
142	0x3db51562	0.08841969
143	0xbcbc13f5	-0.022958735
144	0x3b3909a8	0.0028234515
145	0x3e14aea3	0.14519744
146	0xbddff9f8	-0.1093635
147	0x3b91d81e	0.004450812
148	0xbc314e15	-0.010821839
149	0x3e1b2f5b	0.15154783
150	0x3dde25b7	0.10847037
151	0x3d57487a	0.052559353
152	0xbc0c7065	-0.008571719
153	0x3d8cdd00	0.0687809
154	0x3e5ad5ce	0.21370623
155	0x3e8607b6	0.26177758
156	0x3e84e750	0.25957727
157	0x3e24dab6	0.16099057
158	0x3e91395a	0.28364068
159	0x3b9d21c0	0.004795283
160	0xbe996b29	-0.2996457
161	0xbbd1bb54	-0.006400505
162	0x3cea8881	0.028629543
163	0x3e479cd9	0.19493426
164	0x3c9b5e3f	0.018965838
165	0x3e232a9f	0.15934227
166	0x3e5739c9	0.21018137
167	0x3d95392c	0.07286295
168	0x3de49025	0.11160306
169	0x3dd7b577	0.105326585
170	0x3e2aa8cc	0.16665953
171	0x3e2850d7	0.16437088
172	0x3e48d9b0	0.19614291
173	0xbe105644	-0.14095408
174	0xbc507107	-0.01272226
175	0x3e9177f6	0.28411835
176	0x3e941835	0.28924718
177	0x3d500eb5	0.050795276
178	0x3d04b446	0.032398485
179	0x3df4b49d	0.11948512
180	0x3d22d1cf	0.03975087
181	0x3e3af782	0.18258479
182	0xbdd527cf	-0.104079835
183	0x3d5239db	0.051324707
184	0xbbbf4b9d	-0.005837871
185	0xbccbccda	-0.024877954
186	0xbe544682	-0.20730022
187	0xbc71909a	-0.014743948
188	0x3e5246d8	0.20534837
189	0xbe3a05d8	-0.18166292
190	0x3d2dd4c7	0.04243925
191	0xbdf6f2cd	-0.12058029
192	0xbea6f195	-0.32606187
193	0xbdca9c5e	-0.09893106
194	0x3e7959cd	0.24350663
195	0xbe9f843c	-0.31155574
196	0xbedf9263	-0.43666372
197	0xbe8bdbc0	-0.27316093
198	0x3e0101e0	0.12598372
199	0x3d2f100f	0.042739924
200	0x3e858834	0.26080477
201	0x3d862c87	0.06551462
202	0x3d2317bb	0.039817553
203	0x3c5d7153	0.013515788
204	0xbdf6cab9	-0.12050385
205	0x3c0d2a10	0.0086159855
206	0xbe596c69	-0.21232761
207	0x3e1e4d2d	0.15459128
208	0x3eb6d52d	0.35709515
209	0x3e4b34f6	0.19844422
210	0x3dc92b90	0.09822762
211	0xbbe40636	-0.006958748
212	0xbe9318c2	-0.28729826
213	0x3d2bd743	0.041953336
214	0x3e012ea0	0.12615442
215	0x3e7266fa	0.23672095
216	0x3dfb712a	0.12277444
217	0xbd90dc30	-0.070732474
218	0x3e151336	0.1455811
219	0x3dbcb7f0	0.09214771
220	0xbd8c6633	-0.068554305
221	0x3d965c33	0.07341804
222	0x3c7307d1	0.014833407
223	0x3ddfa73f	0.109205715
224	0xbd4206fe	-0.04736995
225	0x3e660fb5	0.2246693
226	0x3e2eb942	0.17062858
227	0x3ddf8c79	0.10915465
228	0x3e61b6cd	0.22042389
229	0x3e21a26c	0.15784615
230	0x3dfba77f	0.12287807
231	0x3ea86fe0	0.32897854
232	0x3dfd84b1	0.123788245
233	0xbb42b92f	-0.0029712429
234	0xbd963fc5	-0.07336382
235	0xbe12bf1d	-0.14330716
236	0x3b58dd21	0.0033090787
237	0x3d8c00fa	0.06836124
238	0xbc6b7260	-0.014370531
239	0xbe0517ed	-0.12997408
240	0x3d7d7ca8	0.06188646
241	0xbd3a0577	-0.045415368
242	0x3d2e0120	0.04248154
243	0xbdbf9801	-0.09355164
244	0x3dcd26cb	0.10017165
245	0xbe0242ae	-0.12720749
246	0x3dedebda	0.11617251
247	0x3e12b635	0.14327319
248	0xbd57438b	-0.05255465
249	0x3e23586e	0.15951702
250	0x3d69e83d	0.057106245
251	0x3c0321a6	0.008003628
252	0x3e02629c	0.12732929
253	0x3dc20c59	0.094750114
254	0x3d3b274b	0.04569177
255	0xbc80879c	-0.015689664

conv2.bias f4 [16]
0	0xbd8db6e5	-0.0691965
1	0x3c174500	0.0092327595
2	0x3da996e4	0.08280733
3	0xbd424873	-0.047432374
4	0xbdce0366	-0.10059242
5	0x3c915d48	0.017744675
6	0x3d9a6993	0.07539668
7	0x3d891ab9	0.0669455
8	0xbde007e7	-0.10939007
9	0x3d838a20	0.0642283
10	0x3ddc07cd	0.107436754
11	0x3b6f066f	0.003647234
12	0x3c882625	0.016619751
13	0xbc1e14fe	-0.00964856
14	0x3de53c38	0.111931264
15	0x3d4414f7	0.047871556

conv3.weight f4 [32, 16, 3, 3]
0	0x3d532783	0.051551353
1	0xbcfe1e6a	-0.031020362
2	0x3e92fcf1	0.28708604
3	0x3e150eee	0.14556476
4	0x3e639deb	0.2222821
5	0xbe9f70ad	-0.31140652
6	0x3eb419cb	0.35175928
7	0x3ecaa8f3	0.39582023
8	0xbeaba951	-0.33527616
9	0xbd663295	-0.056200583
10	0xbd4d8e2e	-0.05018442
11	0x3d12e172	0.035859533
12	0x3c0b7c20	0.00851348
13	0x3d8f956c	0.07010922
14	0x3d4d6ca0	0.05015242
15	0x3d1d1a27	0.03835502
16	0xbd19a71d	-0.037512887
17	0x3b020c61	0.0019843804
18	0x3dc7e68a	0.09760769
19	0xbd2ba05f	-0.04190099
20	0x3d5b3539	0.053517554
21	0x3d862c28	0.06551391
22	0xbcaaf8ac	-0.02087053
23	0x3d81661a	0.063183025
24	0x3ca15de1	0.019698085
25	0xbda8d3b0	-0.08243501
26	0xbde17d1c	-0.11010191
27	0xbd468087	-0.048462417
28	0x3da0a973	0.0784482
29	0xbd0ea34e	-0.03482371
30	0xbd4960df	-0.04916465
31	0x3d61c12a	0.055115856
32	0xbd8b6be2	-0.068076864
33	0x3d8c4b8a	0.068503454
34	0xbd2e4e9e	-0.042555444
35	0xbda33a89	-0.07970149
36	0x3e6509dd	0.22367044
37	0xbcc51d40	-0.024061799
38	0xbd2ac4c9	-0.041691575
39	0xbdc802bb	-0.09766146
40	0xbd921693	-0.07133212
41	0xbe0b0737	-0.13576971
42	0x3d1f0958	0.03882727
43	0xbb0da76b	-0.0021614681
44	0xbd244140	-0.04010129
45	0x3da2b4a2	0.07944609
46	0xbca61fc3	-0.020278817
47	0x3d6bdc88	0.057583362
48	0x3cbccfb7	0.023048265
49	0xbd6bdfee	-0.057586603
50	0xbadd996a	-0.0016906683
51	0x3da0e9b3	0.078570746
52	0xbd997b85	-0.074942626
53	0x3c9140df	0.017731128
54	0x3c58b89c	0.013227608
55	0x3d000816	0.03125771
56	0x3d80141c	0.062538356
57	0x3d14d8d3	0.036339592
58	0xbd6d3e5a	-0.05792079
59	0xbd2a0431	-0.041507903
60	0xbbeee3b7	-0.0072903293
61	0x3d1c4f99	0.038161848
62	0xba04c84d	-0.00050652475
63	0x3d537159	0.05162177
64	0xbbde9fb2	-0.0067939395
65	0x3d9097ff	0.07060241
66	0x3d659207	0.056047466
67	0xbd6b62e3	-0.057467353
68	0x3d6df4ae	0.058094673
69	0xbd0a07ca	-0.033698834
70	0xbd9c0e23	-0.07619884
71	0xbb824bca	-0.00397632
72	0x3db8bbc6	0.0902019
73	0x3dad48b7	0.08461135
74	0x3bca6f2f	0.006177805
75	0xbd6a41a9	-0.057191525
76	0xbb74f006	-0.003737451
77	0x3d4e6c79	0.050396416
78	0xbbd6a24a	-0.006550108
79	0xba7f5fbc	-0.00097417436
80	0xbdbb5ff3	-0.0914916
81	0xbbbdc4fc	-0.0057913046
82	0xbdb0c66e	-0.086315975
83	0x3cf7a16f	0.030228345
84	0x3db308ee	0.087419376
85	0xbb8d2873	-0.0043078004
86	0x3cac8d8b	0.021063587
87	0xbd26ae53	-0.040693592
88	0x3d37a1c3	0.044832002
89	0x3db11c8d	0.08648024
90	0xbdabadb1	-0.083827384
91	0xbd97b535	-0.074076094
92	0x3d9e7eb0	0.077390075
93	0x3cae3109	0.021263616
94	0x3d994d03	0.07485392
95	0xbca76c46	-0.020437371
96	0x3db63e88	0.08898646
97	0x3c61e525	0.0137875425
98	0xbd3a94d9	-0.04555211
99	0x3cd96420	0.026537001
100	0xbd226d16	-0.039654814
101	0xbe05edc2	-0.13078979
102	0xbdaf7814	-0.08567825
103	0xbd8ed3ea	-0.06974013
104	0xbd955673	-0.072918795
105	0xbc9eb2a0	-0.019372284
106	0xbda67894	-0.08128467
107	0xbba8bee1	-0.0051497077
108	0x39055652	0.00012716025
109	0xbd413dc1	-0.047178034
110	0x3c54546e	0.012959583
111	0x3d1614ea	0.03664104
112	0xbd1f64a2	-0.03891433
113	0xbc8de2f3	-0.017320132
114	0x3ddc831f	0.10767197
115	0x3d31c4d4	0.0434006
116	0xbd2d3e66	-0.042295836
117	0x3d7a8782	0.061164387
118	0xbda251d6	-0.07925765
119	0xbd0bd05d	-0.034134258
120	0x3cfaa62b	0.030596813
121	0x3bee9356	0.0072807474
122	0xbd4a9e48	-0.049467355
123	0xbd8eeb27	-0.069784455
124	0xbd25b200	-0.040452957
125	0xbe226ac4	-0.1586104
126	0x3d588f94	0.0528713
127	0xbced507b	-0.02896904
128	0xbd06f15e	-0.03294503
129	0xbd8a6e43	-0.06759312
130	0xbd6a80ec	-0.057251856
131	0xbceb8db8	-0.0287541
132	0x3d3c886a	0.046028532
133	0x3c20c5f1	0.009812818
134	0x3dad347b	0.084572755
135	0xbdba22e8	-0.09088689
136	0xbd1b1fc4	-0.03787209
137	0x3d78e34e	0.06076365
138	0xbba256d5	-0.004954199
139	0x3d8738d9	0.0660264
140	0x3db21f86	0.08697419
141	0x3cb42f7d	0.0219953
142	0x3c63452e	0.013871474
143	0xbc9e4401	-0.019319536
144	0x3eb74af6	0.35799378
145	0x3e99e05e	0.3005399
146	0x3e087535	0.13325961
147	0x3be9e3f1	0.0071377684
148	0xbce5aa3e	-0.02803528
149	0x3da142e1	0.07874084
150	0x3c09e160	0.00841555
151	0x3df6b2e0	0.120458364
152	0x3e638166	0.2221733
153	0x3e14af2d	0.1451995
154	0xbc8e3e7c	-0.01736378
155	0x3d5b14ad	0.053486515
156	0xbd426229	-0.047456894
157	0x3c869930	0.016430467
158	0x3bdc8a4b	0.006730353
159	0xbc973a43	-0.018460399
160	0x3b5ee154	0.0034008818
161	0xbd9617e7	-0.07328778
162	0xbb30ff47	-0.0027007626
163	0xbc6acdd2	-0.014331298
164	0x3e3c7e7a	0.18407622
165	0xbd6716cf	-0.056418236
166	0x3c9841cd	0.018586064
167	0x3d1b15a9	0.037862454
168	0x3d93a4ad	0.07209144
169	0x3dcad2d2	0.09903492
170	0x3dcb5077	0.09927457
171	0x3bb2d2e3	0.0054572686
172	0x3d5a6cd0	0.053326428
173	0xbd868469	-0.06568224
174	0x3d1df5da	0.03856454
175	0x3d7e3713	0.06206424
176	0x3d125eaa	0.03573481
177	0x3cff2e43	0.031149989
178	0xbd211f10	-0.039336264
179	0x3b390824	0.0028233612
180	0x3dd7047d	0.10498903
181	0xbc9281a4	-0.017884083
182	0xbe7beade	-0.24601313
183	0x3d106763	0.035254847
184	0xbdaf624b	-0.0856367
185	0x3d77b651	0.060476605
186	0x3e0f45fe	0.13991544
187	0x3d7e3fad	0.062072445
188	0xbe658f69	-0.22417988
189	0x3dc3305a	0.09530707
190	0x3e07779a	0.13229218
191	0x3daf51b2	0.08560504
192	0xbc6501dd	-0.013977495
193	0x3d937c8d	0.072014906
194	0xbd266d83	-0.040631782
195	0x3cf24b8e	0.029577043
196	0xbd4c7b92	-0.049922533
197	0xbd9d79b3	-0.07689228
198	0xbd626174	-0.05526872
199	0x3da032e8	0.078222096
200	0x3d15b954	0.036553696
201	0x3cd2a1a1	0.025711836
202	0xbd2ff06d	-0.042953897
203	0x3d98208e	0.07428084
204	0x3d17c4d3	0.03705294
205	0x3dd5303f	0.10409593
206	0xbc48156a	-0.012212137
207	0x3c7154f6	0.014729729
208	0xbb3eb02f	-0.0029096713
209	0x3dc6b361	0.097021826
210	0xbd71f009	-0.059066806
211	0x3ca197d4	0.019725718
212	0x3dcf71f8	0.1012916
213	0xbc8b5697	-0.017009063
214	0x3db8325b	0.089939795
215	0xbd1bfd16	-0.03808316
216	0x3bff7228	0.007795591
217	0x3d19f562	0.03758753
218	0x3dc47057	0.095917396
219	0x3dde2d79	0.10848517
220	0x3dda10b6	0.106477186
221	0xbce3ab09	-0.027791517
222	0x3db1e2bf	0.086858265
223	0xbd5b3150	-0.053513825
224	0xbd8066b9	-0.06269593
225	0x3b2cf419	0.002639061
226	0x3ce97c61	0.028501691
227	0xbcc8db18	-0.024518535
228	0x3db5f9b8	0.08885521
229	0xbcfb0dfc	-0.030646317
230	0xbdcf6687	-0.101269774
231	0xbd6d64de	-0.057957523
232	0xbd835084	-0.064118415
233	0xbdd6506b	-0.10464557
234	0x3dcc435e	0.09973787
235	0x3ddf6491	0.109078534
236	0xbcb25bcf	-0.021772293
237	0xbc1328c9	-0.008981892
238	0x3db0584d	0.08610592
239	0x3c866656	0.01640622
240	0xbb0582d6	-0.0020372174
241	0xba715d9c	-0.00092073693
242	0x3c4b201f	0.012397795
243	0x3d8cac6c	0.06868824
244	0x3e2bcf92	0.167784
245	0xbdf19a60	-0.11797023
246	0x3db84faa	0.0899957
247	0xbbba4e0f	-0.005685575
248	0x3e1a6a7e	0.15079686
249	0xbccbd91c	-0.0248838
250	0x3e377cab	0.17918651
251	0x3e0c5930	0.13705897
252	0x3d812ec8	0.06307751
253	0xbd909351	-0.070593484
254	0xbc1bdd3a	-0.009513194
255	0x3dd8387e	0.1055765

conv3.bias f4 [32]
0	0x3d88ecf1	0.06685818
1	0x3d25dd28	0.040494114
2	0x3d96cc46	0.07363181
3	0x3d87821b	0.066166125
4	0xbd6db8a1	-0.058037404
5	0x3d7e4291	0.0620752
6	0x3cf23a65	0.02956886
7	0xba1cd161	-0.00059821276
8	0xbd39bb9a	-0.045344926
9	0xbd0f25dc	-0.034948215
10	0x3d9337e1	0.071883924
11	0x3d5f5f8a	0.054534473
12	0x3d3eadcf	0.046552476
13	0xbd10c0fa	-0.035340287
14	0x3c6ab360	0.014324993
15	0x3d5a5987	0.053308036
16	0xbd4508a4	-0.048103943
17	0xbd53b6ae	-0.05168789
18	0x3c81fa70	0.015866488
19	0xbd3f3c19	-0.046688173
20	0x3ca8a3f0	0.020585984
21	0x3d1734f2	0.036915727
22	0x3c8bc9ab	0.017063936
23	0x3d01a3c0	0.031650305
24	0xbd6eba6b	-0.05828325
25	0xbd64a57a	-0.055821873
26	0xbc687472	-0.014187919
27	0xbd1a0683	-0.037603866
28	0x3dad3fb5	0.08459417
29	0xbd15d990	-0.036584437
30	0xbd9a55a2	-0.075358644
31	0x3d0508ad	0.032478977

layer1.weight f4 [128, 804]
0	0xbcf8fafd	-0.030393118
1	0x3b7809fc	0.0037847748
2	0xb9f65f67	-0.00046991857
3	0xbd07e8f2	-0.03318114
4	0x3cdc39ca	0.026883025
5	0xbc792517	-0.015206597
6	0xbc8c3315	-0.017114202
7	0xbc11866e	-0.008882148
8	0xbb49a3d4	-0.0030767815
9	0xbca4d1bc	-0.02011954
10	0x3cb4040f	0.021974592
11	0xbb4d5e83	-0.003133685
12	0x3ca5dec6	0.020247828
13	0x3ca2d5af	0.019877283
14	0xbc862e94	-0.016379632
15	0x3ae272dd	0.0017276664
16	0x3ca1c9ba	0.019749511
17	0xbd0fbf17	-0.035094347
18	0x3caf1581	0.021372559
19	0x3cb225f1	0.021746607
20	0x3cd404bc	0.025881164
21	0x3be54938	0.0069972537
22	0xbce03c63	-0.027372545
23	0xbb9f2118	-0.00485624
24	0x3bbeb5f9	0.0058200327
25	0xbcf98970	-0.030461043
26	0xbca812a6	-0.020516705
27	0xbc68df8a	-0.014213452
28	0x3bac43db	0.0052571124
29	0xbd0df5ea	-0.03465835
30	0x3ca2b707	0.019862665
31	0xbd018130	-0.031617343
32	0xbcf82418	-0.030290648
33	0x3cb83a3c	0.022488706
34	0x3c8666a6	0.016406368
35	0xbcb01491	-0.021494182
36	0x3b9cd734	0.0047863964
37	0x3cbcb8db	0.023037365
38	0xbb5c6f4b	-0.0033635672
39	0xbcf2648e	-0.029588964
40	0x3c9d8264	0.019227214
41	0x3c809333	0.01569519
42	0x3c8c0965	0.017094323
43	0xbcaf8bfd	-0.021429056
44	0xbc4c9791	-0.012487308
45	0x3cf9da69	0.030499654
46	0xbcac6713	-0.021045243
47	0x3ce32b83	0.027730709
48	0xbc82ba28	-0.015957907
49	0x3c381ba2	0.011237057
50	0xbcde9edb	-0.027175358
51	0x3cf26a43	0.029591685
52	0x3cb57a38	0.022153005
53	0xbcde7607	-0.02715589
54	0xba5667ba	-0.00081789086
55	0xbc77ddf3	-0.0151286
56	0x3ce627b3	0.028095102
57	0xbc943649	-0.018092291
58	0xbcfeaef0	-0.031089276
59	0x3b56e70f	0.003279153
60	0xbcc8bea7	-0.024504973
61	0xbcc99014	-0.024604835
62	0xbc7d6f35	-0.015468408
63	0x3b5cae5b	0.003367326
64	0xba416f06	-0.00073789095
65	0xba7eba86	-0.0009717125
66	0xbcd67e09	-0.026183145
67	0x3c716aae	0.014734907
68	0xbc9f71e2	-0.019463483
69	0x3cdd7c83	0.02703691
70	0x3c43680a	0.01192666
71	0x3cd6b144	0.026207574
72	0xbd03030c	-0.031985328
73	0x3b0821a0	0.0020771995
74	0x3c899c9c	0.01679831
75	0xbc11ca0f	-0.008898272
76	0x3cb4caab	0.022069296
77	0x3ca25cfc	0.019819729
78	0xbca058e5	-0.019573638
79	0x3b2f7947	0.0026775168
80	0x3c38d34c	0.011280846
81	0x3bd1f4e3	0.0064073666
82	0x3c464d54	0.012103397
83	0xbcf16fd9	-0.029472278
84	0xbc8a7506	-0.016901504
85	0x3cd66ff1	0.026176425
86	0xbc9ddffc	-0.019271843
87	0x3ca74ab4	0.020421363
88	0xbc5d905b	-0.013523187
89	0xbbdb7fa0	-0.0066985637
90	0x3cfb4bfd	0.030675882
91	0xbcab33af	-0.020898668
92	0xbc3ec3ec	-0.011643391
93	0xbbe5013e	-0.0069886735
94	0x3ce3fe34	0.027831174
95	0xbc0cf8a0	-0.008604199
96	0xbcba2b63	-0.022725767
97	0xbd0bd058	-0.03413424
98	0xbb55053c	-0.003250434
99	0xbc06c814	-0.008226413
100	0xbcb8cf23	-0.022559708
101	0xb92294e9	-0.00015504997
102	0x3c8c6f86	0.017143022
103	0x3a4d45f4	0.0007830553
104	0xbc5444f8	-0.012955897
105	0xbc343823	-0.010999712
106	0xbb708c3b	-0.0036704678
107	0x3c7a1321	0.01526335
108	0x3b8a9e09	0.004230265
109	0xbbdb8289	-0.0066989106
110	0xbcadd574	-0.021219946
111	0x3ceef168	0.029167846
112	0x3be7c468	0.007072974
113	0xbc73003c	-0.014831599
114	0x3ce202b9	0.027589189
115	0x3cde276e	0.02711841
116	0x3c904d32	0.017614935
117	0x3c45651c	0.012048032
118	0x3be1176a	0.0068692463
119	0xbc013e35	-0.0078883665
120	0xbc653890	-0.013990536
121	0x3cbccae5	0.023045966
122	0x3ba2796e	0.004958323
123	0x3c86736c	0.01641246
124	0x3c93c013	0.018035924
125	0xbca85adf	-0.020551143
126	0xbbef20b0	-0.007297598
127	0xbd0b52c9	-0.034014497
128	0x3aa5834e	0.0012627633
129	0x3ca7dd7d	0.020491356
130	0x3ca550b1	0.020180078
131	0x3c8ae370	0.016954154
132	0x3ca6bf0e	0.020354774
133	0x3cd75b86	0.026288759
134	0x3c946a6d	0.018117154
135	0x3c9979d6	0.018734854
136	0x3c0f47f4	0.008745182
137	0x3cce1841	0.02515805
138	0xbc4fdec8	-0.0126873925
139	0xbc64baa4	-0.013960514
140	0xbcee4c73	-0.029089188
141	0xbcf64233	-0.030060863
142	0x3c5f2c30	0.013621375
143	0xbcfed00c	-0.031105064
144	0x3cbdd4a9	0.023172693
145	0x3c6d08a4	0.014467392
146	0xbcdb34e7	-0.026758624
147	0xbc9798cc	-0.018505476
148	0xbc010ca8	-0.007876553
149	0x3be2d685	0.0069225454
150	0xbc2e08ef	-0.010622247
151	0x3c880faf	0.016609041
152	0xbc9b8412	-0.018983874
153	0xbc913f07	-0.01773025
154	0xbccd79fc	-0.02508258
155	0xbc956559	-0.018236803
156	0x3ce3b2f1	0.027795287
157	0xbacacc96	-0.0015472348
158	0xbc3466df	-0.0110108545
159	0xbccaa136	-0.024735074
160	0x3cbea86c	0.02327367
161	0x3c98bc8a	0.01864459
162	0xbc35e84c	-0.011102747
163	0x3c65733f	0.014004528
164	0xbca0c047	-0.019622935
165	0x3d028532	0.031865306
166	0x3b8db336	0.004324342
167	0xbc843b3b	-0.016141525
168	0x3c4425ca	0.0119719
169	0x3c8ed5f5	0.017436007
170	0x3c916257	0.017747087
171	0x3ca30d18	0.019903705
172	0xbcab0e16	-0.02088074
173	0x3c697be7	0.014250732
174	0xbc0cc786	-0.008592492
175	0xbc9c8965	-0.019108484
176	0xbce7d9ab	-0.028302034
177	0xbc10907a	-0.008823508
178	0xbc4f3b7f	-0.012648462
179	0xba8ef823	-0.0010907691
180	0xbcc7ce26	-0.024390291
181	0x3cc04a61	0.023472967
182	0xbce18b7e	-0.027532335
183	0x3c76ec77	0.015071026
184	0x3c0eabff	0.008707999
185	0xbcd94e8b	-0.02652671
186	0xbca351c6	-0.019936454
187	0x3c44b18f	0.012005224
188	0x3ca9a505	0.02070857
189	0xbd01c217	-0.03167924
190	0xbc995c20	-0.018720686
191	0xbb7eacd6	-0.0038860342
192	0xbcab07b2	-0.020877693
193	0x3ca86052	0.020553742
194	0xbca9f67c	-0.020747416
195	0xbcf6d007	-0.030128492
196	0x3ce815d5	0.028330723
197	0x3cb7dbb0	0.022443622
198	0xbd0096a1	-0.03139365
199	0xbbb3dd0b	-0.005488997
200	0xbc44949a	-0.01199832
201	0xbc358539	-0.011079126
202	0x3c9666db	0.018359592
203	0xbb285558	-0.0025685634
204	0xbb8deccf	-0.0043312083
205	0xbd05e8a1	-0.032692555
206	0x3c91f253	0.017815745
207	0x3bfa3515	0.0076357224
208	0xbcb70f29	-0.022346096
209	0x3c4928a2	0.012277754
210	0xba9a7abf	-0.0011785849
211	0xba682199	-0.0008855104
212	0xbd06da0b	-0.032922786
213	0x3ccc0dab	0.024908861
214	0x3cdd7b3b	0.0270363
215	0xbcc05f56	-0.02348296
216	0xbcafa107	-0.021439089
217	0xbc05e50f	-0.008172288
218	0xbc40d2fc	-0.011769053
219	0xbd12f60a	-0.035879172
220	0x3c2e718f	0.010647192
221	0xbc86d94b	-0.016461035
222	0xbca8c8b5	-0.020603517
223	0x3cbdc580	0.023165464
224	0xbbfec2cb	-0.007774686
225	0xbc47b875	-0.012189974
226	0x3c989f97	0.018630786
227	0x3cce9f86	0.025222551
228	0x3c6f0d6f	0.014590605
229	0xbb6ea33e	-0.0036413218
230	0xbcc8f535	-0.024530986
231	0x3cb0558b	0.021525165
232	0xbd0f91a0	-0.03505099
233	0x3cd5dfe0	0.026107728
234	0xbc864faa	-0.016395409
235	0xbc6fd18d	-0.014637363
236	0x3c659d5f	0.014014571
237	0x3c4506b4	0.012025524
238	0xbcb4af1d	-0.022056157
239	0x3cb6ea04	0.022328384
240	0xbca5549c	-0.020181946
241	0x3cf5a518	0.02998595
242	0x3cce5be5	0.025190303
243	0xbc689055	-0.014194568
244	0x3c352ebe	0.0110585075
245	0xbcdd180e	-0.02698901
246	0x3c420371	0.011841641
247	0x3ca413fa	0.020029057
248	0x3cc94eb2	0.024573658
249	0xbb9bb58c	-0.0047518667
250	0x3c8cb371	0.017175408
251	0xba81d23c	-0.0009904574
252	0xbcd236f6	-0.025660973
253	0x3b231c50	0.0024888702
254	0xbc864bf1	-0.016393634
255	0xbb5fa541	-0.0034125599

layer1.bias f4 [128]
0	0xbd0cc210	-0.03436476
1	0xbcafaeee	-0.021445718
2	0x3caf4930	0.021397203
3	0xbbbc0bed	-0.0057387264
4	0x3bb7e6c0	0.0056122243
5	0xbaab658c	-0.0013076528
6	0xbbfcd8f8	-0.0077162944
7	0x3c99b71a	0.018764067
8	0x3c501c95	0.012702127
9	0xbd0265d9	-0.03183541
10	0x3c43e290	0.011955872
11	0x3ca438f4	0.020046689
12	0xbbe5af4b	-0.007009422
13	0xbc9c47c3	-0.019077187
14	0xbc80023c	-0.015626065
15	0xbc1fc8e5	-0.009752487
16	0xbc042945	-0.00806648
17	0xbc72a119	-0.0148089165
18	0x3c44c737	0.012010387
19	0x39c06e44	0.00036703248
20	0x3b6b93a6	0.003594616
21	0x3d152cd6	0.036419712
22	0x3ca6db22	0.020368163
23	0xbc59041f	-0.013245611
24	0x3cd82253	0.026383555
25	0x3bd962f6	0.0066341115
26	0x3c258e18	0.010104679
27	0x3c4e16ca	0.0125786755
28	0xbcc01fe5	-0.023452708
29	0x3d25a3da	0.040439464
30	0x3ae56e99	0.0017504274
31	0x3d392d52	0.045209236
32	0xbce9c594	-0.028536595
33	0xbcc289c0	-0.023747325
34	0x3c883dd1	0.016631039
35	0x3cbc247f	0.022966621
36	0x3cbb9d55	0.02290217
37	0x3cc71392	0.024301324
38	0xbb9c5089	-0.0047703427
39	0x3d1005d9	0.035161827
40	0x3ca8b461	0.020593824
41	0x3cc22198	0.02369766
42	0x3c9ac9b4	0.018895008
43	0x3b3f1d9e	0.002916194
44	0x3cbf4ea5	0.02335293
45	0xbca6eb7d	-0.020375961
46	0xbb4aa27b	-0.00309196
47	0xbc243ad5	-0.010023792
48	0x3c306203	0.010765555
49	0xbc84426e	-0.016144957
50	0x3c401196	0.011722943
51	0x3cb3996d	0.021923745
52	0xbd58cfcf	-0.052932557
53	0x3d0d4484	0.03448917
54	0x3cfc0911	0.030766042
55	0xbc8d5309	-0.017251508
56	0x3d1c2cbf	0.03812861
57	0x3c9354a5	0.017984698
58	0x3c81d8d9	0.015850471
59	0x3c33eda8	0.010981955
60	0x3ca721ca	0.020401854
61	0xb8591f17	-5.1765786e-05
62	0x3c23638b	0.009972463
63	0x3be06a72	0.006848627
64	0x3b04807e	0.002021819
65	0xbcbf4cd0	-0.023352057
66	0x3d091edb	0.03347669
67	0xbc07412d	-0.008255285
68	0xbc893a9d	-0.016751582
69	0xbb91cbbf	-0.0044493373
70	0x3c5efe8e	0.013610495
71	0x3c301c28	0.0107489005
72	0x3cdb129b	0.02674227
73	0x3c59655e	0.013268797
74	0xbbd704ee	-0.006561867
75	0xbc42b19c	-0.011883166
76	0xbbcabe75	-0.006187255
77	0xbc57ea24	-0.013178382
78	0x3d282498	0.041050524
79	0xbd10c346	-0.035342477
80	0x3c295ca6	0.0103370305
81	0xbd00cb62	-0.03144396
82	0xbcd1eae5	-0.025624702
83	0xbd0186fc	-0.03162287
84	0xbb1c8531	-0.00238831
85	0xbcd0b57a	-0.02547716
86	0x3ce4a265	0.027909467
87	0x3cc65e4d	0.024214888
88	0xbc9ded81	-0.01927829
89	0xbcb34e6b	-0.021887979
90	0x3bd61d6a	0.006534268
91	0x3bea4032	0.007148766
92	0x3c2b1eda	0.010444367
93	0x3cc8e667	0.024523927
94	0xbcad4c34	-0.0211545
95	0xbcc3f577	-0.023920758
96	0xbaa5e9bb	-0.0012658158
97	0xbc27afb1	-0.010234759
98	0x3cb71f24	0.022353716
99	0xbb9d6b9e	-0.0048040887
100	0x3b864f18	0.004098784
101	0x3c3651fc	0.011127945
102	0xbcafd859	-0.021465467
103	0xbcabee64	-0.020987697
104	0x3d2370aa	0.039902367
105	0xbb994d45	-0.0046784007
106	0x3ca26b24	0.01982648
107	0x3d0b7a37	0.0340521
108	0x3c1883d4	0.009308774
109	0xbd163660	-0.03667295
110	0x3c949477	0.0181372
111	0xbb1e3999	-0.0024143218
112	0x3d0125ee	0.031530313
113	0xbcccddfa	-0.02500819
114	0xb975bd9b	-0.00023435654
115	0x3cccc43c	0.024995916
116	0x3ca50072	0.020141814
117	0x3c8338fc	0.016018383
118	0x3aa64ba9	0.0012687343
119	0xbd3fc988	-0.046823055
120	0x3d013f90	0.03155476
121	0x3c47256c	0.012154918
122	0xbcf91ebd	-0.030410165
123	0xbbc5d684	-0.006037535
124	0x3cc29dd7	0.023756905
125	0x3c74878a	0.014924893
126	0x3cc2a283	0.023759132
127	0x3ceaafa1	0.0286482

layer2.weight f4 [128, 128]
0	0x3b1fcbed	0.0024383024
1	0x3d1ccdbb	0.038282137
2	0x3d9bf41f	0.07614922
3	0x3d6dd424	0.05806364
4	0x3c3eaa68	0.011637308
5	0x3c83195b	0.016003301
6	0xbcda1f67	-0.026626302
7	0xbc9a8d4c	-0.018866204
8	0x3ddd3299	0.10800666
9	0xbd4444f0	-0.047917306
10	0x3ce5ccdd	0.028051788
11	0x3d38a6a3	0.045080792
12	0xbe0675b2	-0.13130835
13	0x3cfa905f	0.03058642
14	0xbe248258	-0.16065347
15	0xbbc85758	-0.006113928
16	0x39d40187	0.0004043693
17	0x3acb6451	0.0015517568
18	0x3de53058	0.111908615
19	0xbde2cc5f	-0.11074137
20	0xbda1eedc	-0.07906887
21	0xbdb264cc	-0.08710632
22	0xbd956994	-0.07295528
23	0x3cd26e1f	0.025687275
24	0x3e042c37	0.12907492
25	0x3d837b04	0.06419948
26	0x3b983dcc	0.0046460386
27	0x3d4bd299	0.04976139
28	0x3c153724	0.009107385
29	0xbda6db3b	-0.08147284
30	0x3c23d3c0	0.009999216
31	0xbde72ec0	-0.11288214
32	0x3df3f02d	0.11911044
33	0xbdac0955	-0.084002174
34	0xbd87d84a	-0.06633051
35	0x3d8e6be0	0.06954169
36	0x3d50b260	0.05095136
37	0xbd92ca03	-0.07167437
38	0xb4420642	-1.8069935e-07
39	0xbcd90045	-0.026489386
40	0xbdbe3246	-0.09286933
41	0xbe4dac0a	-0.20085159
42	0x3cad9e9c	0.021193795
43	0x3e99cafd	0.3003768
44	0xbd7aed97	-0.06126174
45	0x3d7b7481	0.061390404
46	0xbdd08f07	-0.1018353
47	0xbda6d120	-0.08145356
48	0xbb40fd9a	-0.0029448033
49	0x3ca27924	0.019833155
50	0x3dc951f3	0.09830084
51	0x3d876833	0.06611671
52	0x3e467ee4	0.19384342
53	0x3dc1585c	0.09440681
54	0x3cce8728	0.025210932
55	0x3e929a26	0.2863323
56	0xbd94f9e8	-0.07274228
57	0xbcf38165	-0.029724786
58	0xbe3acea8	-0.18242896
59	0xbdd0c14c	-0.101931185
60	0xbc490484	-0.012269143
61	0xbeac4c17	-0.33651802
62	0x3cf8d988	0.030377164
63	0x3d04db0c	0.032435462
64	0xbe83194e	-0.25605243
65	0xbd7c81c3	-0.061647188
66	0xbcb51749	-0.02210583
67	0x3dde774a	0.10862596
68	0xbcaee8de	-0.021351274
69	0x3e01edc9	0.12688364
70	0x3d273022	0.040817387
71	0xbd30a270	-0.043123662
72	0xbd6a1f83	-0.05715896
73	0x3d0d9be7	0.03457251
74	0x3d3248c4	0.043526426
75	0xbe9171fd	-0.2840728
76	0x3d65a510	0.05606562
77	0xbdc8aa17	-0.09798067
78	0x3bd62735	0.0065354356
79	0xbd57be60	-0.05267179
80	0x3c91cf6b	0.0177991
81	0x3d3d3281	0.046190742
82	0xbd7faaee	-0.06241887
83	0x3cbc268c	0.0229676
84	0xbcee34b8	-0.029077873
85	0x3d5f86f1	0.05457205
86	0xbc55ce59	-0.013049685
87	0x3de47a55	0.111561455
88	0xbd0401e1	-0.032228354
89	0x3d2c52d4	0.04207118
90	0xbdf7c6a5	-0.12098435
91	0xbd3fab1b	-0.04679404
92	0x3d6e1dbf	0.058133837
93	0x3cc697e0	0.024242342
94	0xbdf9a1a7	-0.12189036
95	0x3d25dd6d	0.04049437
96	0x3cf87e25	0.030333588
97	0xbdc85138	-0.09781116
98	0xbe0ec16d	-0.13940974
99	0x3d898e0a	0.06716545
100	0x3e1697a6	0.14706287
101	0x3d102cdf	0.035199042
102	0xbdd5f603	-0.10447314
103	0xbd12df0d	-0.03585725
104	0x3c7405d3	0.014893967
105	0xbd5e45cd	-0.054265786
106	0xbe42cb84	-0.19022948
107	0xbe36f9f0	-0.17868781
108	0xbb5256d4	-0.003209521
109	0xbe52a699	-0.20571364
110	0xbe2556b4	-0.16146356
111	0xbd1dabde	-0.038493983
112	0xbebb6ff4	-0.3660885
113	0xbd8f1311	-0.069860585
114	0xbd8d7cab	-0.06908544
115	0x3d889816	0.06669633
116	0x3d39b8e0	0.045342326
117	0x3def05ea	0.1167105
118	0x3e5d9080	0.21637154
119	0xbe1e08a5	-0.15432985
120	0xbd04da6e	-0.032434873
121	0x3b942db7	0.004522051
122	0xbc9996a7	-0.018748594
123	0x3d198bf5	0.03748699
124	0x3e095da2	0.13414624
125	0xbc44af23	-0.0120046465
126	0x3d388bee	0.045055322
127	0xbdd434b5	-0.103616156
128	0xbce610c4	-0.028084166
129	0x3d25a940	0.040444613
130	0x3bf1dc77	0.007381018
131	0x3c8ae816	0.01695637
132	0x3d1d7fcb	0.03845195
133	0x3d8700df	0.06591963
134	0xbe79cb36	-0.24393925
135	0xbe224abd	-0.15848823
136	0x3c99aee0	0.018760145
137	0x3cb9c366	0.022676181
138	0x3d9e2bce	0.07723199
139	0x3ddd873f	0.10816812
140	0xbd7ad07b	-0.06123398
141	0xbc379be6	-0.011206603
142	0x3e262903	0.16226582
143	0xbd4134ac	-0.047169372
144	0xbb5f1de8	-0.0034044925
145	0xbda20440	-0.07910967
146	0x3db464fe	0.08808325
147	0x3e010f0a	0.12603393
148	0x3c45f864	0.012083147
149	0xbde3079d	-0.110854365
150	0xbd87d6ba	-0.06632753
151	0x3d4ca310	0.049960196
152	0xbc848ea3	-0.016181296
153	0xbb9208c9	-0.0044566137
154	0xbc69477c	-0.014238235
155	0x3dd423f6	0.103584215
156	0xbc0b7c6c	-0.008513551
157	0x3dd73cfc	0.10509679
158	0xbd97c1df	-0.07410025
159	0xbd05d6c0	-0.032675505
160	0x3e07d0b4	0.13263208
161	0xbe19855e	-0.14992282
162	0x3b58dee3	0.0033091835
163	0x3db48524	0.08814457
164	0xbc141e85	-0.00904048
165	0x3d3b01fc	0.04565619
166	0x3e07b9bb	0.13254444
167	0x3def9fd6	0.11700408
168	0xbda5607c	-0.080750436
169	0x3d9149e9	0.07094175
170	0xbcc82539	-0.024431812
171	0x3e1302e9	0.14356579
172	0xbc3c120f	-0.011478915
173	0x3d4f420f	0.050600108
174	0xbdc50e0e	-0.09621821
175	0x3bf32079	0.0074196425
176	0xbdc26749	-0.09492356
177	0x3d92b205	0.07162861
178	0x3db2189e	0.086961016
179	0x3c321f5c	0.0108717345
180	0xbdd9c4aa	-0.10633214
181	0x3dc9c11a	0.09851284
182	0xbe0537d7	-0.13009582
183	0xbd8aa9b1	-0.06770647
184	0xbcdbdcb8	-0.026838645
185	0xbbf34e51	-0.0074251075
186	0xbd78a498	-0.060703844
187	0xbd924d1c	-0.07143614
188	0xbdb95761	-0.09049869
189	0xbe66956f	-0.22517942
190	0x3bfec22d	0.0077746124
191	0xbcd8e6eb	-0.026477298
192	0xbbe3d563	-0.006952928
193	0xbd36a9f0	-0.04459566
194	0xb78d089a	-1.6812515e-05
195	0x3d4696f9	0.048483822
196	0x3db8adcf	0.09017526
197	0x3e15552f	0.14583276
198	0xbd56c60c	-0.052434966
199	0x3dba7e1b	0.09106084
200	0x3d873cbf	0.06603383
201	0x3cf84d37	0.030310256
202	0xbd5e1c51	-0.054226223
203	0xbe2f14ec	-0.17097825
204	0x3d1204e5	0.0356492
205	0xbe595313	-0.21223097
206	0xbc0b43c4	-0.008500043
207	0x3ca0652d	0.019579494
208	0x3e21bfd6	0.15795836
209	0xbdd70d5a	-0.105005935
210	0x3ad8b286	0.0016532696
211	0x3c846d7b	0.016165486
212	0x3ceb7539	0.02874242
213	0x3dd72886	0.10505776
214	0x3cf13347	0.029443396
215	0x3d51b885	0.051201362
216	0xbd2db734	-0.042411044
217	0xbdee2525	-0.116281785
218	0x3e46b7da	0.19406071
219	0x3cd468d0	0.025928885
220	0x3d906a55	0.07051531
221	0xbc91a4ef	-0.017778842
222	0xbe4e4292	-0.20142582
223	0x3b961e2b	0.004581233
224	0xbd7346b1	-0.05939359
225	0xbcf4e673	-0.029895043
226	0x3e072406	0.13197336
227	0xbdcabb8a	-0.098990515
228	0x3d49487d	0.049141396
229	0xb901c86c	-0.00012377062
230	0x3da229fa	0.07918163
231	0x3d6f274d	0.05838709
232	0x3cfae9f2	0.030629132
233	0xbd3369c7	-0.04380205
234	0xbe468b8b	-0.19389169
235	0xbe081564	-0.1328941
236	0xbd830b10	-0.063985944
237	0xbea586a8	-0.32329297
238	0x3c51d582	0.012807252
239	0x3cb4d1ff	0.02207279
240	0x3bc81877	0.006106432
241	0xbd557fb5	-0.052123744
242	0x3e11a978	0.14224803
243	0x3d2b49c9	0.041818414
244	0xbd9ecf34	-0.077543646
245	0x3d26159f	0.040547963
246	0xbdd2d4ac	-0.1029447
247	0x3d9f34a2	0.07773711
248	0x3d3641bd	0.044496287
249	0xba7ff25a	-0.0009763591
250	0x3d6bdfcb	0.057586472
251	0xbd3e6c29	-0.04648987
252	0x3d5cf860	0.053947806
253	0x3da792ad	0.08182273
254	0x3c8c2242	0.01710618
255	0x3c1e8bf8	0.009676926

layer2.bias f4 [128]
0	0xbc7d835b	-0.015473212
1	0x3d48784a	0.04894284
2	0xbd6898dc	-0.056786403
3	0x3daebf21	0.08532549
4	0x3cc50d97	0.024054332
5	0x3d6cf1a8	0.05784765
6	0xbc990e4d	-0.018683577
7	0x3cc2033e	0.023683187
8	0x3daf7d63	0.085688375
9	0xbcf80086	-0.030273687
10	0x3d901f84	0.07037261
11	0x3cdc923c	0.026925199
12	0xbd9c41a9	-0.07629711
13	0xbcd4ae7c	-0.025962107
14	0x3d62f822	0.05541242
15	0xbceac166	-0.028656673
16	0x3d57c273	0.052675676
17	0x3c1c3181	0.009533287
18	0xb685c46f	-3.9865768e-06
19	0x3c05c048	0.008163519
20	0xbdad54bf	-0.0846343
21	0xbd92aae7	-0.07161503
22	0xbd897e1c	-0.067135066
23	0xbd5c9995	-0.053857405
24	0xbd5f9cd2	-0.054592915
25	0x3d862edf	0.06551909
26	0xbd475858	-0.048668236
27	0x3d3596b9	0.044333193
28	0xbce6eac9	-0.028188126
29	0xbbd1452c	-0.0063864198
30	0x3cac8dd7	0.021063728
31	0xbc702201	-0.014656545
32	0xbda93ccb	-0.082635485
33	0x3d0c6b74	0.034282163
34	0xbd592594	-0.053014353
35	0x3d914cac	0.07094702
36	0x3c7abdf2	0.015304076
37	0x3cc82072	0.024429534
38	0x3dc72527	0.09723883
39	0x3ccefbad	0.025266493
40	0xbd40b550	-0.047047913
41	0xbd26b501	-0.040699963
42	0xbd5eceec	-0.054396555
43	0x3d9303f5	0.07178489
44	0xbd032103	-0.032013904
45	0xbcce172f	-0.02515754
46	0xbbe45875	-0.0069685527
47	0xbce253e7	-0.027627898
48	0x3d4ce8f2	0.05002684
49	0x3cb9be78	0.02267383
50	0xbd95dcae	-0.07317482
51	0x3cc54486	0.024080526
52	0x3d712abd	0.05887865
53	0x3c64bfac	0.013961714
54	0x3d6c9ab5	0.057764728
55	0x3d9524e1	0.07282425
56	0x3c8216b7	0.015879972
57	0x3d8b586c	0.068039745
58	0xbd181d8e	-0.03713756
59	0x3c844be5	0.01614947
60	0xb88ad77d	-6.6204906e-05
61	0xbd8de1d7	-0.06927841
62	0xbc6ae1d3	-0.014336067
63	0x3d5f9171	0.054582063
64	0xbd691f68	-0.056914717
65	0xbd6e2b3f	-0.05814671
66	0x3c8fb794	0.017543592
67	0xbd20d4b7	-0.03926536
68	0x3d2a0a4f	0.041513737
69	0x3d63d112	0.055619307
70	0xbccc4a02	-0.024937633
71	0x3d35a51c	0.044346914
72	0xbd06a9a3	-0.032876622
73	0x3d2d70f8	0.042344064
74	0x3d23b6d8	0.039969295
75	0x3d4bc590	0.049748957
76	0xbc53314d	-0.012890172
77	0xbd002f1d	-0.03129493
78	0xbd952d76	-0.072840616
79	0xbcbbedc1	-0.022940518
80	0xbc57f0f6	-0.013180008
81	0x3d8205b9	0.06348748
82	0x3d5addd1	0.053434197
83	0x3dcacb20	0.09902024
84	0x3b777397	0.0037758106
85	0xbbd8612a	-0.0066033797
86	0xbc013d59	-0.007888162
87	0xbd817e37	-0.06322902
88	0xbcd85592	-0.02640799
89	0x3d956051	0.072937615
90	0xbcb736f9	-0.02236508
91	0x3c53400f	0.012893691
92	0x3d9fed17	0.07808893
93	0xbc5f187f	-0.01361668
94	0xbda98d2c	-0.082788795
95	0x3cf2e1c3	0.029648667
96	0xbcaf0061	-0.021362485
97	0xbd4dfc4c	-0.050289437
98	0xbc81833b	-0.015809646
99	0xbcfccfbb	-0.030860772
100	0xbd00c239	-0.031435225
101	0x3ce9b476	0.028528433
102	0xbd0f390f	-0.034966525
103	0xbd19e6dc	-0.03757368
104	0x3c2c9c56	0.01053532
105	0xbc6efc02	-0.0145864505
106	0x3cd4c84a	0.025974412
107	0x3ce65e82	0.028121237
108	0xbd2c11c4	-0.04200913
109	0xbd9ea6d3	-0.07746663
110	0xbcce9f27	-0.025222374
111	0x3d20d074	0.039261296
112	0x3d3a9040	0.045547724
113	0xbc4034dd	-0.011731354
114	0xbbf81161	-0.007570431
115	0xbd478e6c	-0.04871981
116	0x3c67cd42	0.014148058
117	0xbd1fcc66	-0.03901329
118	0xbc1067ca	-0.008813808
119	0x3cef2e14	0.029196776
120	0x3b069513	0.0020535633
121	0xbc93a307	-0.018022073
122	0xbd172393	-0.03689916
123	0x3d4a87dd	0.049445976
124	0xbde415e6	-0.11136989
125	0x3af52fa8	0.0018706219
126	0xbcc8cbbf	-0.024511216
127	0xbc4b8651	-0.01242216

layer3.weight f4 [4, 128]
0	0xbdc4279e	-0.09577869
1	0xbe2aada5	-0.16667803
2	0x3d9595d8	0.07303971
3	0xbe4e5433	-0.20149307
4	0x3e815e08	0.25267053
5	0xbdc546c4	-0.09632638
6	0xbd35f6a5	-0.04442467
7	0xbc6a3b6b	-0.014296393
8	0xbe38c6ab	-0.18044536
9	0x3e6287f8	0.2212218
10	0x3e0dabd1	0.13835074
11	0x3dc4803b	0.095947705
12	0xbde2b4fd	-0.11069677
13	0xbe8add93	-0.27122173
14	0xbd823083	-0.06356909
15	0x3d84c41d	0.06482718
16	0xbbce196e	-0.0062896525
17	0xbda1f969	-0.07908899
18	0xbd6846a4	-0.056707993
19	0xbe7707b9	-0.2412404
20	0x3eb340da	0.35010415
21	0x3c4ec9bd	0.01262134
22	0xbda2a087	-0.079407744
23	0x3ebff2f5	0.3749005
24	0x3e7a2283	0.24427228
25	0x3d58e59a	0.05295334
26	0x3d4d6214	0.050142363
27	0x3dd9d082	0.10635473
28	0xbe4e2ce5	-0.20134313
29	0x3c39d408	0.011342056
30	0x3e2572df	0.16157101
31	0x3ea92600	0.33036804
32	0xbc00a919	-0.007852816
33	0xbe7270cd	-0.23675843
34	0x3cb8c2be	0.022553798
35	0x3d76356a	0.060109533
36	0xbe6853e3	-0.2268825
37	0x3e74e7f7	0.23916613
38	0xbdcba019	-0.099426456
39	0xbe493f55	-0.19653066
40	0x3e10f1e6	0.14154777
41	0x3dc3638a	0.0954047
42	0xbbb0fd8c	-0.005401319
43	0xbe0cbcec	-0.13743943
44	0xbd23dd08	-0.040005714
45	0xbd843ebd	-0.06457279
46	0x3e749cb7	0.23887907
47	0xbe5582e3	-0.2085071
48	0x3e874bd3	0.26425037
49	0x3d8654c3	0.06559136
50	0xbd621a44	-0.05520083
51	0x3d8962a6	0.06708269
52	0x3c64fe7e	0.013976691
53	0x3d9e9a7e	0.07744311
54	0xbdd0c551	-0.10193885
55	0xbd6fba29	-0.058527146
56	0x3d4c97cc	0.049949452
57	0xbe8857c7	-0.2662947
58	0x3e2aaaff	0.16666792
59	0xbd6b2db1	-0.05741662
60	0xbe6bb8eb	-0.2301976
61	0x3d88a56a	0.06672175
62	0xbe88c4d4	-0.26712668
63	0x3ca6c06f	0.020355431
64	0xbc1fdc21	-0.009757073
65	0xbd25248b	-0.040318053
66	0xbceca849	-0.028888838
67	0x3e6540f0	0.22388053
68	0xbd066615	-0.032812197
69	0x3d9f02f7	0.077642374
70	0xbda78b4e	-0.08180867
71	0x3b8b4328	0.004249949
72	0xbe5135bc	-0.20430654
73	0x3e500375	0.20313819
74	0x3e35cc91	0.17753817
75	0xbe0c60e4	-0.13708836
76	0x3e3989f6	0.18119034
77	0x3e4fb577	0.20284067
78	0xbe407bf6	-0.18797287
79	0xbcb2da28	-0.02183254
80	0x3c31f26b	0.01086102
81	0x3e6fbb8b	0.23411386
82	0xbdb9d139	-0.09073109
83	0xbdd4ee12	-0.10396971
84	0x3e3c0db6	0.18364605
85	0x3d74c867	0.05976143
86	0xbc5e4235	-0.01356559
87	0x3e399289	0.18122305
88	0xbc35aa2b	-0.0110879345
89	0x3d8f9ecc	0.0701271
90	0x3e3d0e6d	0.18462534
91	0x3e8fb401	0.2806702
92	0xbe0daf9b	-0.1383652
93	0x3d882525	0.0664771
94	0x3d331def	0.04372972
95	0x3e3d7029	0.18499817
96	0x3e4395e6	0.1910015
97	0x3dd5078f	0.10401832
98	0xbd112a04	-0.03544046
99	0x3e4b80e1	0.19873382
100	0x3e850cb6	0.2598626
101	0x3deb488c	0.114884466
102	0xbda22873	-0.07917871
103	0xbc0b9e84	-0.00852168
104	0xbd9a5fb3	-0.075377844
105	0x3ccfc11a	0.025360633
106	0xbd49cc5a	-0.04926715
107	0xbdcced72	-0.100062266
108	0xbe866237	-0.26246807
109	0x3d2820d6	0.04104694
110	0xbd6f0e9f	-0.058363553
111	0x3b832587	0.0040022763
112	0x3c1be2f2	0.009514557
113	0xbde6eb72	-0.112753764
114	0x3bb353cc	0.005472636
115	0xbd83081d	-0.06398032
116	0x3c732d3f	0.0148423305
117	0xbd4f9eda	-0.050688602
118	0x3daca197	0.08429258
119	0xbe54b647	-0.20772658
120	0xbd81aab2	-0.06331386
121	0xbdec5d9a	-0.115412906
122	0x3de63cf0	0.11242092
123	0xbe0f307c	-0.13983339
124	0xbf16b196	-0.58864725
125	0xbe373629	-0.17891754
126	0xbe80a716	-0.25127476
127	0x3e4447c2	0.19167998
128	0xbe1f7d58	-0.15575159
129	0x3d769700	0.0602026
130	0xbe97438e	-0.29543728
131	0xba8ef014	-0.0010905289
132	0xbe038f65	-0.1284767
133	0x3e07e2dc	0.13270134
134	0xbd28d770	-0.041221082
135	0x3c5bf41b	0.0134248985
136	0xbdd1324b	-0.10214671
137	0xbe41ea82	-0.18937114
138	0x3df26061	0.11834789
139	0xbeb61d38	-0.35569167
140	0xbe8f0dd9	-0.27940252
141	0xb99de0a7	-0.00030112753
142	0x3d28aaa8	0.041178375
143	0x3c402d13	0.0117294965
144	0xbe3bb06e	-0.18329021
145	0x3f100da5	0.5627082
146	0x3d838ecb	0.0642372
147	0xbe905d8e	-0.28196377
148	0x3c820bce	0.01587477
149	0x3d4fc468	0.050724417
150	0xbec7c734	-0.39019167
151	0xbe0cd9a1	-0.13754894
152	0xbe8bdd36	-0.27317208
153	0xbe8741b2	-0.2641731
154	0xbd614194	-0.05499418
155	0x3cb885a2	0.022524659
156	0xbea0e632	-0.31425625
157	0x3df63bd8	0.12023133
158	0x3dd75408	0.105140746
159	0x3ec9e98e	0.39436
160	0xbcda2147	-0.026627196
161	0xbec3a8ac	-0.38214624
162	0x3f23fa65	0.64053947
163	0xbd049a7e	-0.032373898
164	0x3d828acd	0.063741304
165	0x3e803f29	0.25048187
166	0x3c0c73db	0.008572544
167	0x3dcc5ef1	0.09979046
168	0xbddc239b	-0.10748979
169	0xbe67cdac	-0.22637051
170	0x3da50323	0.08057239
171	0x3e0e3c25	0.13890131
172	0x3da95eac	0.0827001
173	0x3e47b4a8	0.19502509
174	0xbf14c965	-0.58119804
175	0x3cc8b8c4	0.024502166
176	0x3e83dfa6	0.25756568
177	0xbe9372a1	-0.28798392
178	0xbd8ab54f	-0.06772863
179	0xbd971928	-0.07377845
180	0xbcf229bc	-0.029560916
181	0xbccc56a6	-0.024943661
182	0x3e202b21	0.15641452
183	0x3d51fc43	0.051265966
184	0x3d8a3b7a	0.067496255
185	0xbcdfda74	-0.027325846
186	0x3e75518d	0.2395689
187	0xbd6792ca	-0.056536473
188	0x3e5cd582	0.21565822
189	0xbdc279f4	-0.09495917
190	0xbeb501d7	-0.35352966
191	0x3cd60c68	0.026128963
192	0xbc9096e6	-0.017650079
193	0x3d9d7539	0.07688374
194	0x3ce79ddb	0.028273514
195	0x3e8e5876	0.27801865
196	0xbd95610c	-0.07293901
197	0xbd533bb8	-0.051570624
198	0x3d4bcce4	0.049755946
199	0xbcbf03a4	-0.023317166
200	0xbe555b52	-0.20835617
201	0xbd8e7bf8	-0.06957239
202	0x3dba8070	0.09106529
203	0xbc465313	-0.012104767
204	0xbd9a5231	-0.07535208
205	0x3e25cedd	0.16192193
206	0xbd592294	-0.053011492
207	0xbebc9d00	-0.36838531
208	0x3bc03cf2	0.0058666402
209	0xbe0eb66b	-0.13936774
210	0xbe86064a	-0.26176673
211	0x3ea5408d	0.3227581
212	0x3e6b20fd	0.22961803
213	0x3ec1defd	0.3786544
214	0x3d764873	0.060127687
215	0xbeb9cc1b	-0.36288533
216	0x3cf19e3f	0.029494403
217	0xbe107986	-0.14108858
218	0x3e1b0d56	0.15141806
219	0x3e3754ca	0.17903438
220	0x3e920a1f	0.28523347
221	0x3d488572	0.04895539
222	0x3eb11ee9	0.34593895
223	0xbcd35935	-0.025799373
224	0x3e3d80a8	0.1850611
225	0x3e781ce6	0.24229774
226	0xbc32fe5e	-0.010924904
227	0x3e713c30	0.23558116
228	0xbe0f0386	-0.13966188
229	0xbe9089f3	-0.28230247
230	0x3bd6e1d1	0.006557681
231	0x3df9fc3c	0.12206313
232	0xbc6262b2	-0.013817476
233	0xbb18dc96	-0.002332484
234	0xbca9a96e	-0.020710673
235	0x3d5f59af	0.05452889
236	0xbdf132f9	-0.117773004
237	0xbd92de27	-0.071712784
238	0xbe920d4b	-0.28525767
239	0x3ce16fff	0.027519224
240	0xbe98fc4a	-0.2987998
241	0x3e13a9ca	0.14420238
242	0x3e634ebb	0.22198002
243	0xbda19a83	-0.07890799
244	0xbd0b012e	-0.033936672
245	0xbe9ca76e	-0.3059649
246	0x3dafe0fd	0.08587835
247	0xbe02f63d	-0.12789245
248	0x3dec01e9	0.11523802
249	0xbde84918	-0.113420665
250	0x3dfd5674	0.12370005
251	0x3e7befa0	0.24603128
252	0x3eff6670	0.4988284
253	0x3e8b2446	0.27176112
254	0xbe28fa16	-0.1650165
255	0x3dad8715	0.084730305

layer3.bias f4 [4]
0	0x3cd4dc4d	0.025983954
1	0xbcea1312	-0.028573547
2	0xbd163f38	-0.036681384
3	0x3d938d07	0.07204633
