RL/Networks/WithoutGuide/policy2.pt (torch, 508289 bytes, 12 tensors)

conv1.weight f4 [8, 5, 3, 3]
0	0x3e788a61	0.24271537
1	0xbb0d5f74	-0.0021571787
2	0xbe01ae32	-0.12664106
3	0x3e9a247f	0.3010597
4	0x3e87811f	0.264657
5	0xbd1bdf57	-0.03805479
6	0x3e8b0f98	0.27160335
7	0x3ecbac06	0.3977968
8	0x3e4de221	0.20105793
9	0xbf45735c	-0.7712915
10	0xbf446c0e	-0.7672738
11	0xbe967d29	-0.29392365
12	0x3eaf930d	0.34291878
13	0xbf482369	-0.7817903
14	0xbf3be049	-0.73389107
15	0x3eb760b5	0.3581597
16	0x3e620b0a	0.22074524
17	0xbf8421da	-1.0322831
18	0x3e536d74	0.20647222
19	0xbd718d92	-0.058972903
20	0x3d8bfa42	0.06834842
21	0xbd10ecce	-0.035382085
22	0x3d9d747b	0.076882325
23	0xbd3db8c5	-0.046318788
24	0x3c465b5c	0.012106743
25	0x3e36332c	0.17792958
26	0xbd5673bb	-0.052356463
27	0xbe17ecfb	-0.14836495
28	0xbd98c09a	-0.07458611
29	0xbd55d117	-0.052201357
30	0x3da2e10a	0.07953079
31	0x3d3bac25	0.045818467
32	0x3ce4c82a	0.027927477
33	0x3e76cc84	0.24101454
34	0x3ce5404c	0.02798476
35	0x3dd3a44d	0.10334072
36	0x3d7a90e0	0.06117332
37	0x3d41dc63	0.047329318
38	0x3d173653	0.036917042
39	0xbdbc01af	-0.091800086
40	0xbdf1044b	-0.11768397
41	0xbd084c5f	-0.03327596
42	0x3d91c08b	0.07116803
43	0xbd5d0603	-0.05396081
44	0xbd0bb809	-0.034111056
45	0x3ec23bfd	0.37936392
46	0x3ed657b4	0.41863787
47	0x3f0d4e19	0.5519729
48	0x3ea0b1cd	0.3138565
49	0x3dc3d0ab	0.09561285
50	0x3e69c995	0.22830804
51	0x3ec117fb	0.37713608
52	0x3e144b2a	0.14481798
53	0x3e9defa9	0.3084691
54	0xbe85b3d3	-0.26113757
55	0xbee8cd97	-0.45469353
56	0xbec049aa	-0.375562
57	0xbe79f986	-0.24411592
58	0xbeebce8b	-0.46056017
59	0xbf330e5f	-0.69943804
60	0xbf11140f	-0.5667123
61	0xbeb1cafb	-0.34725174
62	0xbe278d70	-0.16362548
63	0x3d2cb8a0	0.04216826
64	0x3daa4f9b	0.08315965
65	0xbc5da896	-0.013528964
66	0xbd8c5ece	-0.0685402
67	0xbd805170	-0.06265533
68	0x3b0874da	0.0020821602
69	0x3d97ff30	0.0742172
70	0x3e64da6e	0.2234895
71	0x3d8cf5be	0.06882809
72	0xbcc638b8	-0.024196967
73	0x3da3c95d	0.079973914
74	0x3db8ab1a	0.0901701
75	0xbd3dac38	-0.04630682
76	0x3e368a9d	0.17826314
77	0x3d738af4	0.059458688
78	0x3c0bc0f4	0.00852989
79	0x3da0df8b	0.078551374
80	0x3a58e0eb	0.00082732615
81	0x3b4e828d	0.003151092
82	0x3bc4040b	0.0059819273
83	0xbc990079	-0.018676983
84	0xbcaa3e06	-0.020781528
85	0xbddcb630	-0.10776937
86	0x3d4d2348	0.050082475
87	0xbd9ac964	-0.075579435
88	0xbd4994b6	-0.049214087
89	0x3d96e4c7	0.073678546
90	0xbf4e655a	-0.806234
91	0x3ecfbc64	0.40573418
92	0x3af785f7	0.0018884529
93	0xbd98ab50	-0.0745455
94	0x3e8d6983	0.27619562
95	0xbeba501d	-0.36389247
96	0x3e4d3db8	0.20043075
97	0x3eac43e8	0.33645558
98	0x3e5807ca	0.21096721
99	0xbe9060e3	-0.2819892
100	0x3ed8ddb8	0.42356658
101	0xbf54707a	-0.82984126
102	0xbf1e8d8f	-0.6193475
103	0xbe028360	-0.12745428
104	0xbef2f67a	-0.47453672
105	0xbe4b07d3	-0.19827203
106	0x3e790c25	0.24321039
107	0xbf5d165b	-0.86362237
108	0xbca9db9b	-0.020734599
109	0x3b3dc5ec	0.0028957082
110	0xbd2c6290	-0.042086184
111	0xbd56afd3	-0.052413773
112	0xbe212c31	-0.15739514
113	0xbd7b469f	-0.061346646
114	0x3e076978	0.13223827
115	0xbd343a97	-0.044001188
116	0xbcc4edb4	-0.024039127
117	0xbe3081de	-0.1723704
118	0xbdb1d441	-0.08683062
119	0xbd99f2fc	-0.07517049
120	0x3e2ea7c2	0.17056182
121	0x3e88a258	0.26686358
122	0x3e4e9184	0.20172697
123	0xbe86355d	-0.26212588
124	0x3db0d5a3	0.08634498
125	0x3d9ff7d0	0.07810938
126	0xbd2b10c0	-0.04176402
127	0xbd9df048	-0.07711846
128	0x3d029710	0.031882346
129	0xbc340a5b	-0.010988797
130	0xbd2724e9	-0.040806685
131	0xbb64ca52	-0.0034910631
132	0x3d150654	0.036382988
133	0x3c93f0d4	0.018059172
134	0xbc6c98c6	-0.014440721
135	0xbefbf34c	-0.49209058
136	0x3ec22447	0.37918302
137	0xbe99c799	-0.30035093
138	0xbd9d6188	-0.07684618
139	0x3c540c01	0.012942315
140	0xbe9016e1	-0.28142455
141	0x3e1aa486	0.15101823
142	0x3ef847ca	0.4849227
143	0x3e3be064	0.18347317
144	0xbe8c5a62	-0.27412707
145	0xbe0b75b6	-0.13619122
146	0xbdaa421d	-0.08313391
147	0xbdfccc7c	-0.1234369
148	0x3dbb0ab2	0.09132899
149	0x3dbcda77	0.09221356
150	0xbe32c36b	-0.17457359
151	0xbee87475	-0.4540135
152	0x3e7231d8	0.23651826
153	0xbd4b14e3	-0.049580466
154	0x3e0cd1cf	0.1375191
155	0xbcf849c9	-0.030308621
156	0xbd4ab604	-0.04948999
157	0x3c1bfd45	0.009520833
158	0x3e1cf7b6	0.15328869
159	0x3e7cf253	0.24701814
160	0x3d5406c0	0.05176425
161	0xbdbba133	-0.09161606
162	0x3ca2be9e	0.019866284
163	0x3cf6a75a	0.030109096
164	0x3dd896f8	0.1057567
165	0xbe0f3641	-0.1398554
166	0x3d120a7a	0.035654522
167	0x3e203d69	0.15648426
168	0x3e8ce870	0.27521086
169	0xbe20959b	-0.1568207
170	0xbdb31a65	-0.08745269
171	0x3d64e464	0.055881873
172	0xbcfbe58e	-0.030749109
173	0xbd210ad9	-0.039316986
174	0x3de74b78	0.112936914
175	0x3d0b4cba	0.03400872
176	0xbe209ffa	-0.15686026
177	0x3d0d76fe	0.034537308
178	0x3dba561f	0.090984575
179	0x3d8b3ed5	0.06799094
180	0x3ece5815	0.40301576
181	0x3cad333b	0.021142593
182	0x3d484979	0.048898194
183	0x3e521cfb	0.20518868
184	0x3cd4cdd8	0.02597706
185	0x3e7d4e4c	0.24736899
186	0x3e8cede1	0.27525237
187	0xbef75aa7	-0.4831135
188	0x3eb9ec5c	0.3631314
189	0xbddadc0d	-0.106865026
190	0xbc9c5cf9	-0.019087302
191	0x3d03a683	0.03214122
192	0xbf25e3aa	-0.6480051
193	0xbdd6d255	-0.104893364
194	0xbe53bdaa	-0.2067782
195	0xbf14b455	-0.58087665
196	0xbd9379b7	-0.0720095
197	0xbf31b809	-0.6942144
198	0xbdd90dcf	-0.10598337
199	0x3e4d2d5b	0.20036833
200	0x3c621376	0.013798585
201	0x3dc04d27	0.09389716
202	0x3cf71a36	0.030163866
203	0x3c9fe25a	0.019517113
204	0x3e21d340	0.15803242
205	0x3c2c5218	0.01051762
206	0x3e02223c	0.12708372
207	0x3d86bd3c	0.06579062
208	0x3d89aebe	0.067227826
209	0x3d410ee6	0.04713335
210	0x3e1f5d6e	0.15562984
211	0xbcf81ced	-0.03028723
212	0x3e180af9	0.14847936
213	0xbe4a3ed5	-0.19750531
214	0x3d68862c	0.05676858
215	0xbd603cbf	-0.054745432
216	0xbd8b44e9	-0.06800253
217	0x3df0b414	0.11753097
218	0xbc8066f2	-0.015674088
219	0xbe104bb8	-0.14091384
220	0x3dca69e2	0.09883477
221	0xbd22e21a	-0.03976641
222	0x3c7a5e68	0.015281297
223	0xbdad87bc	-0.08473155
224	0xbbc7dc0c	-0.0060992297
225	0x3d6e460c	0.05817227
226	0xbe5b511d	-0.21417661
227	0x3efbfb92	0.4921537
228	0x3bd83312	0.006597885
229	0x3dd2cfd7	0.102935486
230	0x3ee6fa98	0.45113063
231	0x3ececee1	0.4039221
232	0x3e9ce9ed	0.3064722
233	0x3f1ac15d	0.604513
234	0xba3c2862	-0.00071776484
235	0xbec36af5	-0.3816754
236	0xbdcca381	-0.099921234
237	0x3df39079	0.1189279
238	0xbe1aa344	-0.15101343
239	0xbd61e29b	-0.05514775
240	0x3f5af374	0.8552773
241	0x3e3362c9	0.17518152
242	0x3f3252d2	0.69657624
243	0x3d06b8dd	0.032891143
244	0xbceae679	-0.028674351
245	0xbb9c8107	-0.0047761234
246	0x3d8ea07a	0.06964202
247	0x3dd76e8d	0.10519133
248	0xbc145832	-0.0090542305
249	0x3def5b4c	0.11687335
250	0x3d818e30	0.06325948
251	0xbc8c9d19	-0.017164754
252	0x3ae7b730	0.0017678495
253	0x3cbbe0ee	0.022934403
254	0xbdf388f5	-0.11891357
255	0x3d78a4b1	0.060703937

conv1.bias f4 [8]
0	0xbd2ea4d3	-0.042637657
1	0x3d5ce1ff	0.053926464
2	0xbcbe8d74	-0.02326081
3	0x3e290e73	0.16509418
4	0x3d25a28b	0.040438216
5	0xbcb6a271	-0.022294255
6	0x3e11e17c	0.14246172
7	0x3e0dd7bd	0.13851829

conv2.weight f4 [16, 8, 3, 3]
0	0x3e36fced	0.17869921
1	0x3d104d3a	0.0352299
2	0xbe0a2a21	-0.13492633
3	0x3e168f28	0.14703047
4	0xbd9ed180	-0.07754803
5	0x3d24ac85	0.04020359
6	0x3ddf0b6c	0.108908504
7	0xbe41b32a	-0.18916002
8	0xbd8773b1	-0.06613863
9	0x3e18503a	0.14874354
10	0x3e1c1861	0.15243675
11	0x3d11da2e	0.035608463
12	0x3e387982	0.18015102
13	0x3d068f94	0.03285177
14	0x3e027c8b	0.12742822
15	0x3c2f01bf	0.010681569
16	0x3da36664	0.07978514
17	0x3de84a43	0.11342289
18	0xbea8fe7e	-0.33006662
19	0xbe83bbc6	-0.25729197
20	0xbe9ac264	-0.30226433
21	0xbe70536c	-0.23469323
22	0xbc227945	-0.009916608
23	0xbe90e924	-0.28302872
24	0xbe5a3678	-0.2130984
25	0xbe2b152a	-0.16707292
26	0xbe2dbc9b	-0.16966479
27	0xbcc30a94	-0.023808755
28	0x3de233a9	0.1104501
29	0x3da1801a	0.078857616
30	0xbc8e4c27	-0.017370297
31	0x3d46fc02	0.048580177
32	0x3e09aae9	0.13444103
33	0x3cd5e83f	0.02611172
34	0x3e1048b9	0.14090241
35	0x3dcb3adb	0.09923335
36	0x3d80983d	0.06279037
37	0x3db6170b	0.08891114
38	0x3de8c62a	0.11365922
39	0x3e12a4a2	0.14320615
40	0x3e3c11a9	0.18366112
41	0x3c75d78f	0.015005006
42	0x3e54a12a	0.20764604
43	0x3e30e57b	0.1727504
44	0x3e44379b	0.19161837
45	0xbcb04766	-0.02151842
46	0x3c9bc8fc	0.019016735
47	0x3dab1914	0.08354393
48	0x3d0f142e	0.034931354
49	0x3e17d162	0.14825967
50	0x3aed3aff	0.0018099247
51	0x3e285bb7	0.16441236
52	0xbda34d0e	-0.079736814
53	0xbe0dca8a	-0.13846794
54	0x3c94b476	0.018152457
55	0x3d633e17	0.055479135
56	0xbd8e3da9	-0.069453545
57	0xbda06ab4	-0.07832852
58	0xbc8b693c	-0.017017953
59	0xbccf1846	-0.02528013
60	0xbca506ae	-0.020144787
61	0xbd6f6401	-0.05844498
62	0x3d9fa147	0.07794433
63	0x3dd68899	0.10475273
64	0x3cb81e36	0.022475343
65	0x3e244926	0.16043529
66	0xbcb5a7c8	-0.02217473
67	0x3e19aee1	0.15008117
68	0xbcb2be1e	-0.02181917
69	0x3ce3fdde	0.027831014
70	0xbd48def7	-0.04904076
71	0xbd0ce9c0	-0.03440261
72	0x3c9fc9ab	0.019505342
73	0x3daffc92	0.08593096
74	0x3ead7e16	0.33885258
75	0xbe31ff84	-0.17382628
76	0x3d6d8c27	0.057994988
77	0x3df307a6	0.11866693
78	0xbda0058b	-0.07813557
79	0x3e4dc669	0.20095219
80	0xbd8ceb44	-0.06880811
81	0xbdcb23dc	-0.09918949
82	0xbe1242cf	-0.14283298
83	0x3e109365	0.14118727
84	0xbd21b234	-0.03947659
85	0xbd21ee36	-0.039533816
86	0xbd03c5b5	-0.03217097
87	0xbcf88dc6	-0.03034104
88	0x3b3af1b2	0.002852541
89	0x3d6afb2b	0.05736844
90	0x3d9c81d1	0.07641948
91	0x3d853f0e	0.06506167
92	0xbc3d4e40	-0.011554301
93	0x3e2c7a13	0.16843443
94	0x3da2be1e	0.07946418
95	0x3e4e465e	0.2014403
96	0x3df04f04	0.11733821
97	0x3c00ee15	0.007869263
98	0x3b77be1f	0.003780253
99	0xbb4778f3	-0.0030437082
100	0x3da97cbf	0.082757466
101	0x3dd1105b	0.10208198
102	0x3de651c9	0.11246068
103	0x3dd98073	0.10620203
104	0xbc8c89fd	-0.017155642
105	0xbcf8ba53	-0.030362284
106	0x390e1600	0.00013550371
107	0xbdb4bed4	-0.0882546
108	0x3dc2da07	0.09514242
109	0xbdc2c3bb	-0.09509989
110	0xbb9d0c61	-0.0047927354
111	0x3c87de34	0.016585447
112	0xbcea6535	-0.028612712
113	0x3e2cc8fb	0.16873543
114	0x3cacdeb5	0.021102289
115	0xbdcceacc	-0.100057214
116	0x3d5e10d0	0.054215252
117	0xbe1ee71f	-0.15517853
118	0x3bcef228	0.0063154884
119	0xbd9661f6	-0.07342903
120	0xbe4e9864	-0.2017532
121	0x3db45b63	0.08806493
122	0xbda51ef5	-0.08062545
123	0xbe3783b7	-0.17921339
124	0x3e1c7ea5	0.15282686
125	0xbe74465c	-0.23854965
126	0x3dbfb22d	0.09360156
127	0xbd172248	-0.036897928
128	0x3d832490	0.06403458
129	0x3e1d4a66	0.15360412
130	0x3dbac946	0.09120421
131	0xbd30dead	-0.04318111
132	0xbd290898	-0.04126796
133	0x3c2c117a	0.010502214
134	0xbda8f187	-0.08249193
135	0x3d302649	0.04300526
136	0x3d082816	0.033241354
137	0x3e1fb141	0.15594961
138	0xbda45351	-0.08023704
139	0x3d9c63f2	0.076362506
140	0x3dcf42a8	0.101201355
141	0xbb91383b	-0.004431752
142	0x3cfb2658	0.030657932
143	0xbc2dd6f3	-0.01061033
144	0x3e167e59	0.14696635
145	0xbdd716c0	-0.10502386
146	0xbac33c61	-0.0014895314
147	0x3d400825	0.046882767
148	0xbea6b1f6	-0.32557648
149	0xbdb94f93	-0.09048381
150	0xbd8b1b7d	-0.06792352
151	0xbdfcb3e4	-0.12338999
152	0xbe8b0b7c	-0.271572
153	0x3e0fb164	0.14032513
154	0x3ea16e57	0.31529495
155	0x3f051558	0.5198569
156	0x3c60f427	0.013730085
157	0x3e4f1688	0.20223439
158	0x3de8d79f	0.113692515
159	0x3e85bb6e	0.2611956
160	0x3e3466a9	0.17617287
161	0x3dd0886a	0.10182269
162	0xbeb2fdf0	-0.34959364
163	0xbe565d87	-0.20934115
164	0xbebe5b95	-0.37179247
165	0x3d0120be	0.031525366
166	0xbe88d477	-0.26724598
167	0xbeb64b59	-0.3560436
168	0x3d99a195	0.075015225
169	0xbd18c58a	-0.037297763
170	0xbeecd8f2	-0.46259266
171	0xbe2b5d88	-0.16734898
172	0xbe012d56	-0.1261495
173	0x3c1b9204	0.009495262
174	0xbd4d363e	-0.050100558
175	0x3d4262f5	0.047457654
176	0x3d50f1ff	0.051012035
177	0x3e58dce8	0.21178019
178	0xbd9b54b3	-0.075845145
179	0x3e01582d	0.12631293
180	0xbaa08a04	-0.0012248163
181	0x3c9c4b67	0.019078923
182	0x3d7860f6	0.060639344
183	0xbd0efb4d	-0.034907628
184	0x3d659310	0.056048453
185	0x3e1f622a	0.1556479
186	0x3dd3e44d	0.10346279
187	0x3dc07a8d	0.09398375
188	0x3e837dd0	0.25681925
189	0x3d1718a5	0.036888737
190	0xbdf885f4	-0.121349245
191	0xbcf72bb4	-0.030172206
192	0xbd76af01	-0.06022549
193	0x3e045cb3	0.12925987
194	0xbd5660a6	-0.052338265
195	0x3ddd029a	0.10791512
196	0x3e03c7fd	0.12869258
197	0x3d378f4b	0.04481439
198	0x3e300f21	0.17193271
199	0x3e67ec22	0.22648671
200	0x3e34260c	0.17592639
201	0x3d38ed7a	0.04514835
202	0xbd852486	-0.06501107
203	0xbe0f7c9b	-0.14012377
204	0xbd6c0ff7	-0.057632413
205	0xbd8eb79f	-0.06968617
206	0xbdda3720	-0.106550455
207	0x3df86865	0.12129287
208	0x3e29be19	0.16576423
209	0x3e6ac23e	0.2292566
210	0x3d426f32	0.047469325
211	0xbdb47e24	-0.08813122
212	0x3e0d4bac	0.13798398
213	0xbca7c446	-0.020479333
214	0x3d860f9e	0.065459475
215	0x3e8c630a	0.2741931
216	0x3e388afe	0.18021771
217	0xbd104e57	-0.03523096
218	0x3e9ad0eb	0.30237517
219	0xbe0ddd49	-0.13853945
220	0xbe2e5ead	-0.17028303
221	0xbc98c4b4	-0.018648483
222	0xbe38d8bd	-0.18051429
223	0x3de7d929	0.11320717
224	0x3da117e7	0.07865887
225	0x3cd03625	0.025416443
226	0xbde18c26	-0.11013059
227	0x3dcf320d	0.10116968
228	0x3dac5082	0.08413793
229	0xbde2251e	-0.11042236
230	0x3db312d3	0.08743825
231	0x3e0c302a	0.13690248
232	0x3e02c7a3	0.12771468
233	0xbb98bc40	-0.004661113
234	0x3d6b8069	0.05749551
235	0x3e068ab5	0.1313885
236	0x3e9db20e	0.30799907
237	0x3dfc7fa6	0.123290345
238	0xbd1e65ba	-0.038671233
239	0x3f123c54	0.57123303
240	0x3bbd73ff	0.00578165
241	0x3e5a56ed	0.21322222
242	0x3e9ebe7c	0.31004703
243	0x3e095686	0.13411912
244	0x3dab3a0a	0.083606794
245	0x3d8cf6f6	0.068830416
246	0xbd0fba32	-0.03508968
247	0x3dea8719	0.11451549
248	0xbbf4cff3	-0.0074710785
249	0xbc6814f1	-0.014165149
250	0x3db2fed3	0.0874001
251	0x3d859852	0.065231934
252	0xbd3dbc1f	-0.046321984
253	0xbd90c048	-0.07067925
254	0xbe133de5	-0.1437908
255	0x3db6be52	0.089230195

conv2.bias f4 [16]
0	0xbd4bbdd9	-0.0497416
1	0x3db10276	0.086430475
2	0x3cbd84a3	0.023134535
3	0xbc4d9d71	-0.012549744
4	0x3c17a55b	0.009255732
5	0x3d09034a	0.033450402
6	0x3cd677ba	0.026180137
7	0xbdb9d96b	-0.09074672
8	0xbce5273b	-0.027972808
9	0xbd8a4efe	-0.06753348
10	0xbb801000	-0.0039081573
11	0x3dfb56a7	0.12272387
12	0x3c571af0	0.013128981
13	0xbdd2f250	-0.10300124
14	0x3baccdaf	0.005273543
15	0x3dcc70a9	0.09982426

conv3.weight f4 [32, 16, 3, 3]
0	0x3e016d91	0.12639453
1	0x3e0fc788	0.14040959
2	0x3e079384	0.13239866
3	0xbdad734a	-0.08469255
4	0x3d54e21c	0.051973447
5	0x3de5e086	0.11224465
6	0xbc29b2c1	-0.01035756
7	0xbd82ab4f	-0.06380331
8	0x3d98d88f	0.0746318
9	0x3dabb2eb	0.08383735
10	0xbd2b5a9d	-0.041834462
11	0x3c9daf98	0.019248769
12	0xbd2f4397	-0.042789068
13	0x3d2f69af	0.042825397
14	0xbc1d7751	-0.009610967
15	0x3ccd8ff5	0.025093058
16	0xbcdf9b06	-0.0272956
17	0x3d60c7cd	0.054878045
18	0xbdec5f06	-0.11541562
19	0xbd65ca5e	-0.056101196
20	0xbdc2b8be	-0.09507893
21	0xbbd2194b	-0.0064117066
22	0xbcbd232a	-0.023088057
23	0x3ce51e64	0.027968593
24	0x3e1095e2	0.14119676
25	0xbc57d814	-0.013174076
26	0x3dee5478	0.11637205
27	0xbcf640d0	-0.030060202
28	0x3dee34fc	0.116312
29	0xbcd6d275	-0.0262234
30	0x3c8ada25	0.016949723
31	0xbc354a47	-0.011065072
32	0x3d640203	0.05566598
33	0x3dfa1315	0.12210671
34	0x3d6ce363	0.05783404
35	0x3cd4b25b	0.025963953
36	0x3d072e26	0.033002995
37	0x3c1d8725	0.0096147405
38	0xbb531f79	-0.0032214804
39	0xbe17e983	-0.14835171
40	0x3d11d845	0.03560664
41	0x3dac328e	0.0840808
42	0x3bbd2d3e	0.0057732156
43	0x3d113bb1	0.035457317
44	0x3c4c4ac9	0.012469002
45	0xbde5994f	-0.11210882
46	0x3b31e3cb	0.0027143832
47	0x3d5159a8	0.051110893
48	0x3d3757d4	0.044761494
49	0x3de45d99	0.11150665
50	0x3d8f9525	0.07010869
51	0xbdb61427	-0.088905625
52	0x3cb9103e	0.022590753
53	0x3e4d653c	0.20058149
54	0x3cc41fcb	0.023940941
55	0x3e238f57	0.15972649
56	0x3debf616	0.115215465
57	0xbd92ea63	-0.07173612
58	0xba415690	-0.00073752645
59	0x3de03283	0.10947134
60	0x3dc1ea9a	0.09468575
61	0xbbff8863	-0.007798241
62	0x3d932b2f	0.07185971
63	0x3c0a57b4	0.008443762
64	0xbdbce995	-0.0922424
65	0xbdaaf06b	-0.08346637
66	0xbc15f14b	-0.009151767
67	0xbdab7495	-0.08371846
68	0xbdbbb062	-0.09164502
69	0xbdc1343f	-0.09433793
70	0xbd25d685	-0.040487785
71	0xbe588446	-0.21144208
72	0x3b6fba23	0.0036579452
73	0x3d8560c9	0.06512601
74	0xbca301d7	-0.019898338
75	0x3d95d865	0.073166646
76	0x3e657b7b	0.22410385
77	0x3be5260e	0.006993062
78	0x3d0ef2ae	0.034899406
79	0x3ce989a7	0.02850802
80	0xbdf89a95	-0.12138859
81	0x3cb20677	0.021731598
82	0x3db39647	0.087688975
83	0xbdec568a	-0.115399435
84	0x3b5333a5	0.0032226827
85	0x3d7ff095	0.062485296
86	0xbc32fdb8	-0.010924749
87	0xbde15a29	-0.11003525
88	0xbb7b0c03	-0.003830672
89	0xbd1dc8b0	-0.03852147
90	0x3d35970f	0.044333514
91	0x3dd7a8d5	0.10530249
92	0xbd2e1f4c	-0.042510316
93	0x3cd18078	0.025573954
94	0xbd2a9d26	-0.041653775
95	0xbce246c7	-0.02762164
96	0xbd852992	-0.065020695
97	0xbda6e15b	-0.08148452
98	0xbda5f7a6	-0.08103876
99	0x3c53edc5	0.012935107
100	0xbdc6c80e	-0.09706126
101	0x3caeab69	0.02132197
102	0xbcccbd49	-0.024992602
103	0xbd121761	-0.035666827
104	0x3dcd830f	0.10034763
105	0xbd73e5e5	-0.059545416
106	0x3d4f7855	0.050651867
107	0xbc34f5f1	-0.011044965
108	0xbd423e08	-0.04742244
109	0xbd3d96f9	-0.046286557
110	0x3bd396ba	0.006457177
111	0xbd66c98e	-0.05634456
112	0x3dd071ff	0.10177993
113	0x3db6cf01	0.089262016
114	0xbcbbe209	-0.02293493
115	0x3dd19da6	0.10235147
116	0xbcbe083c	-0.023197286
117	0x3df7fbd1	0.12108577
118	0x3d381bfc	0.044948563
119	0xbd797004	-0.060897842
120	0x3d4d8f73	0.050185632
121	0x3e2f4d34	0.17119294
122	0x3db5c29a	0.08875008
123	0x3d423d79	0.047421906
124	0x3e2a66eb	0.16640823
125	0x3ccba633	0.024859523
126	0xbdbb4053	-0.09143128
127	0xbd38550c	-0.045002982
128	0xbb62d024	-0.0034608925
129	0x3d87a2c7	0.06622844
130	0xbd594f8b	-0.053054374
131	0x3cc3ad4e	0.023886349
132	0xbe351ae1	-0.17686035
133	0xbdfdbcbc	-0.12389514
134	0xbe2fa483	-0.171526
135	0xbd79de39	-0.061002944
136	0x3dc43c0d	0.09581766
137	0x3d4ecddc	0.05048929
138	0x3d7b78fb	0.061394673
139	0xbd883cc0	-0.06652212
140	0x3bcaa310	0.0061839893
141	0xbdfa2d79	-0.122157045
142	0xbd292fde	-0.041305415
143	0x3d76237b	0.06009243
144	0x3dfb0104	0.12256053
145	0x3dd75117	0.105135135
146	0x3d77bf0c	0.06048493
147	0x3d8ec0e0	0.06970382
148	0x3dbef7fe	0.093246445
149	0x3d010b1f	0.031504747
150	0x3dfe82a8	0.124272645
151	0xbcd04852	-0.02542511
152	0x3ddf9ba6	0.109183595
153	0x3d085025	0.033279557
154	0xbd87d677	-0.06632703
155	0xbd64561e	-0.05574619
156	0x3c1f0ad8	0.009707175
157	0xbd9385ea	-0.072032765
158	0xbd881314	-0.06644264
159	0xbcca228d	-0.024674678
160	0x3ceaad17	0.028646989
161	0xbd87c032	-0.06628455
162	0xbd6d9693	-0.058004927
163	0x3cf56ca5	0.029959032
164	0x3d46c3a0	0.048526406
165	0x3d6638dd	0.056206573
166	0xbd8e5db5	-0.06951467
167	0xb8233e18	-3.8920058e-05
168	0x3e025d36	0.1273087
169	0x3d7cd024	0.061721936
170	0x3cfd945a	0.030954529
171	0x3da86080	0.08221531
172	0x3db2d240	0.08731508
173	0x3cf7cbfa	0.03024863
174	0xbb9d52fe	-0.004801153
175	0x3c93db14	0.0180488
176	0xbbd3ea52	-0.006467142
177	0xbcce4ac8	-0.025182143
178	0x3c4dacc1	0.012553395
179	0xbdbb1928	-0.091356575
180	0x3d64d6ed	0.05586903
181	0x3d165ca9	0.03670946
182	0xbd968ea6	-0.07351427
183	0x3cfd5408	0.030923858
184	0xbd21c438	-0.03949377
185	0xbd5a92d1	-0.05336267
186	0xbdeb4886	-0.11488442
187	0x3d8c156b	0.06840023
188	0xbd97f35c	-0.07419464
189	0xbda01e4b	-0.07818278
190	0xbcada8b6	-0.021198612
191	0xbce82a67	-0.028340532
192	0x3cb8e3fb	0.022569647
193	0xbc5a724d	-0.0133329155
194	0xbd712356	-0.05887159
195	0xbdcde811	-0.10054029
196	0xb9ff8c84	-0.00048742082
197	0x3c5f35b0	0.01362364
198	0xbc86db3b	-0.01646196
199	0x3debd2bb	0.11514803
200	0x3ddd1921	0.107958086
201	0x3dafd23f	0.08585023
202	0x3db73025	0.0894473
203	0x3db17720	0.086652994
204	0x3db9438e	0.09046088
205	0x3d90e7bb	0.07075449
206	0x3d80fda0	0.06298375
207	0x3dbc902b	0.09207185
208	0xbdbc33f5	-0.091895975
209	0x3e2700b5	0.16308863
210	0xbde0f51b	-0.1098425
211	0xbd86032a	-0.06543572
212	0xbde24938	-0.110491216
213	0x3d5fedf6	0.054670297
214	0x3d957194	0.07297054
215	0xbda5fac0	-0.081044674
216	0xbda88c5f	-0.08229899
217	0x3d889424	0.066688806
218	0xbcc7b223	-0.024376934
219	0x3dd00aa2	0.10158278
220	0x3dbd1739	0.09232945
221	0x3d65d6e8	0.056113154
222	0xbda1a7c6	-0.07893328
223	0xbdac5d01	-0.084161766
224	0x3d0872d2	0.033312626
225	0x3d342b2f	0.043986496
226	0x3c82bc99	0.015959071
227	0xbd884197	-0.06653135
228	0x3c2200e0	0.009887904
229	0xbd405b6b	-0.046962183
230	0xbd8f31a1	-0.06991888
231	0x3b4018cc	0.0029311655
232	0x3de9a695	0.11408726
233	0xbda7e8c1	-0.08198691
234	0xbd1ad443	-0.037800085
235	0xbd9a4b9e	-0.07533954
236	0xbdcb897a	-0.09938331
237	0xbd7f596a	-0.06234113
238	0xbd8b07ce	-0.06788598
239	0x3cc7867b	0.024356117
240	0x3b766e6f	0.0037602445
241	0xbc9c5e8b	-0.01908805
242	0xbcadcece	-0.021216776
243	0x3d2d9cd1	0.04238588
244	0xbd8efdeb	-0.06982025
245	0x3cf61a8a	0.030041952
246	0x3ca2ca20	0.019871771
247	0x3b379154	0.0028010206
248	0x3da45e60	0.08025813
249	0xbcd1c786	-0.025607836
250	0x3d9c9136	0.07644884
251	0xbca4d921	-0.020123066
252	0xbe0598b0	-0.13046527
253	0xbce49ca4	-0.027906723
254	0xbda65ef4	-0.081235796
255	0x3dece7e4	0.11567667

conv3.bias f4 [32]
0	0x3d434e09	0.047681842
1	0x3d19fc0a	0.03759388
2	0xbda747be	-0.081679806
3	0x3d8992b2	0.06717433
4	0x3d1bb6c0	0.03801608
5	0x3d037b80	0.0321002
6	0x3d8f18c4	0.069871455
7	0xbc1e30f3	-0.009655225
8	0x3ae274be	0.0017277224
9	0x3d98ed74	0.074671656
10	0x3d4dcdbd	0.050245035
11	0xbd1bcc61	-0.038036708
12	0x3da5043f	0.080574505
13	0x3d5f2735	0.05448075
14	0x3d89b94d	0.067247964
15	0xbc989a1f	-0.018628178
16	0xbce36283	-0.027756935
17	0x3d4b7c84	0.049679294
18	0x3d632017	0.055450525
19	0xbd83db33	-0.06438293
20	0xbb850e98	-0.0040605776
21	0x3d93c6f7	0.07215684
22	0xbbf614d1	-0.0075098057
23	0x3d3d6977	0.046243157
24	0xbd384df2	-0.04499621
25	0xbc671ad3	-0.0141055165
26	0x3d4eeb70	0.0505175
27	0x3d18c178	0.03729388
28	0x3d90926a	0.07059176
29	0xbd680610	-0.056646407
30	0x3d1883b6	0.037234984
31	0xbd2d4ef0	-0.04231161

layer1.weight f4 [128, 804]
0	0x3c066ffd	0.008205411
1	0xbc8a02cb	-0.016847035
2	0x3c65a0da	0.014015401
3	0x3cf09bb2	0.029371116
4	0x3b970798	0.0046090595
5	0x3d187617	0.037221994
6	0x3cfeee8d	0.03111961
7	0x3d25cc85	0.04047825
8	0x3b9047be	0.0044030836
9	0xbcbf2f92	-0.023338113
10	0x3cd8f5a7	0.026484324
11	0x3ca7a55a	0.020464588
12	0x3d026beb	0.0318412
13	0xbc8bace7	-0.01705022
14	0xbcf93a06	-0.030423176
15	0x3a407166	0.00073411164
16	0x3cdcd666	0.026957702
17	0x3ccd86cf	0.025088696
18	0xbc404111	-0.011734263
19	0xbd2a4b71	-0.041575853
20	0x3d840b34	0.06447449
21	0x3c0fab18	0.008768819
22	0x3cedd2ea	0.029031236
23	0x3d1ac4d4	0.037785366
24	0x3cd1f4f8	0.025629506
25	0xbb3f001c	-0.0029144352
26	0xbbb7e26d	-0.005611709
27	0x3d1819b3	0.037133884
28	0xbbcd0d03	-0.0062576546
29	0xbb4b4b67	-0.0031020285
30	0x3c010bc2	0.007876338
31	0x3b93f855	0.0045156875
32	0x3d47dcd3	0.04879458
33	0x3d07ed53	0.033185314
34	0xbb4313cd	-0.002976644
35	0x3962c4e1	0.00021626383
36	0x3c252254	0.010078985
37	0xbc0b29b8	-0.008493833
38	0xbc9b2162	-0.018936817
39	0x3b8848f3	0.004159087
40	0xbcb2d694	-0.021830834
41	0x3d8e0ab3	0.069356345
42	0x3d374876	0.04474684
43	0x3ce80ac5	0.028325448
44	0x3beb8d4f	0.007188476
45	0x3cbee041	0.023300292
46	0x3cbcf0a4	0.023063965
47	0x396ab76b	0.00022384308
48	0x3c8dd36c	0.017312728
49	0x3d48563c	0.048910365
50	0x3cb41eae	0.021987285
51	0xbd23649f	-0.03989088
52	0xbc820564	-0.015871711
53	0x3d438c81	0.047741417
54	0xbd32d822	-0.04366315
55	0x3d0f1dfe	0.034940712
56	0xbd1178ad	-0.035515476
57	0x3c3850c9	0.011249729
58	0x3a24020a	0.00062564074
59	0x3bc46b1b	0.0059942133
60	0x3ccc472a	0.024936277
61	0x3ce545b7	0.027987344
62	0xbc449f5d	-0.012000886
63	0x3be4fb77	0.0069879848
64	0x3c1926e2	0.009347649
65	0x3b9168d5	0.004437546
66	0x3c881147	0.016609801
67	0x3cda7af6	0.02666996
68	0xbc2f84e0	-0.010712832
69	0xbd41a410	-0.047275603
70	0x3c812039	0.015762435
71	0xbc7d33ef	-0.015454276
72	0x3bf4a02a	0.007465382
73	0xbcb009c4	-0.021489032
74	0xbcb5dfc9	-0.022201436
75	0xbd12032e	-0.035647564
76	0x3d5dfb82	0.054194935
77	0x3d0cd8f3	0.034386586
78	0xbad960b3	-0.0016584605
79	0x3d27c62b	0.040960472
80	0xbc0cae14	-0.008586425
81	0x3be010ca	0.006837939
82	0x3d5b76d3	0.053580116
83	0x3cc9b1d2	0.024620924
84	0x3d6fa14c	0.058503434
85	0x3cb9987f	0.022655724
86	0x3d75af33	0.059981536
87	0x3cf690b4	0.030098297
88	0x3d7426cc	0.059607312
89	0x3c6c3b15	0.014418383
90	0xbcdec628	-0.027194098
91	0x3d245eb8	0.040129393
92	0x3a08e05f	0.0005221422
93	0x3c932a6d	0.017964566
94	0x3cd15b2b	0.025556168
95	0xbcf3f636	-0.029780488
96	0x3d04b258	0.032396644
97	0x3d87981d	0.0662081
98	0x3cbb5528	0.022867754
99	0x3d3f452e	0.046696834
100	0xbd26bc34	-0.04070683
101	0xbc0706f6	-0.008241406
102	0x3d4d9972	0.050195165
103	0xbc385c56	-0.011252483
104	0xbd6eed95	-0.058332045
105	0xbc812c22	-0.015768114
106	0xbd378043	-0.044800054
107	0xbc99c4f7	-0.018770678
108	0x3c542984	0.012949351
109	0x3c564be8	0.013079621
110	0x3d4fe1a4	0.050752297
111	0x3cd95d2d	0.026533687
112	0x3c56b7cc	0.013105344
113	0x3ca81384	0.020517118
114	0x3d2e116f	0.042497095
115	0x3d548744	0.05188681
116	0x3d1cad4f	0.038251217
117	0x3cfa320d	0.030541444
118	0x3ce0191f	0.027355729
119	0xbccdf7fe	-0.025142666
120	0x3d888949	0.0666681
121	0x3d670045	0.05639674
122	0xbc73f72b	-0.014890472
123	0x3ce10198	0.02746658
124	0xbd2b8a65	-0.04188003
125	0x3c68562c	0.014180701
126	0x39d4af53	0.00040566418
127	0x3c7c08ec	0.0153829865
128	0x3d1db330	0.038500965
129	0x3d25ca38	0.040476054
130	0x3d446782	0.047950275
131	0x3cca574b	0.024699828
132	0xbbd75132	-0.0065709585
133	0x3b206693	0.0024475201
134	0x3bd30b0d	0.0064405263
135	0x3b843182	0.004034222
136	0x3d06e87b	0.032936554
137	0x3c4b5cd4	0.012412269
138	0xbccc7019	-0.024955796
139	0x3d674710	0.056464255
140	0x3ca2eea7	0.019889189
141	0x3c8a8b86	0.016912233
142	0x3c951ddb	0.018202713
143	0x3d17007d	0.0368657
144	0xbac05e6d	-0.0014676579
145	0x3b1a5868	0.002355123
146	0xbbf1f569	-0.0073839915
147	0xbb37326a	-0.0027953633
148	0x3d019584	0.03163673
149	0x3d80cdce	0.06289254
150	0x3d1fb2f0	0.038989007
151	0x3cda11cd	0.026619816
152	0x3c3f4f08	0.011676557
153	0xbd0aa7c4	-0.0338514
154	0xbc89489a	-0.016758252
155	0x3cc64d1c	0.02420669
156	0xbcad1f4c	-0.021133088
157	0x3d3344b3	0.04376669
158	0x3d215306	0.039385818
159	0x3b0e20a6	0.002168694
160	0x3d3f959c	0.046773538
161	0xbbd35c24	-0.006450193
162	0x3c406d9e	0.011744885
163	0x3d1ad0a0	0.037796617
164	0x3cf220e0	0.029556692
165	0x3d483e1f	0.04888737
166	0x3c435bd2	0.011923747
167	0xba50d124	-0.00079657347
168	0x3cedab81	0.029012443
169	0x3d0ae858	0.033912987
170	0x3d63688b	0.05551962
171	0x3ce66be8	0.028127626
172	0xbc3f5826	-0.011678731
173	0xbb791e03	-0.0038012273
174	0x3d352fdf	0.044235107
175	0xbcd3dc4f	-0.025861887
176	0xbb9289cf	-0.0044719945
177	0x3b307795	0.0026926745
178	0x3cbd04bc	0.023073547
179	0x3cc7af8d	0.024375701
180	0xbbdf778d	-0.0068196715
181	0xbad94c64	-0.0016578552
182	0xbbdfc1e2	-0.0068285326
183	0xbcd784c3	-0.026308423
184	0x3d190583	0.037358772
185	0xbc8018cd	-0.015636826
186	0x3d313e2b	0.04327218
187	0x3d1145e8	0.03546706
188	0x39b7d292	0.00035061367
189	0xbb8b23df	-0.0042462195
190	0x3bc76adc	0.0060857367
191	0x3c4e605a	0.012596214
192	0xbc9e8835	-0.019352058
193	0xbc92face	-0.017941859
194	0x3c7daefc	0.015483614
195	0x3d4223a8	0.047397286
196	0x3d2e42fb	0.042544346
197	0x3d2ec752	0.042670555
198	0xbcd3b279	-0.025841938
199	0x3c115b55	0.008871873
200	0xbd131be0	-0.035915256
201	0x3cbd2d6f	0.023092953
202	0x3cfa4f2d	0.030555332
203	0x3cc4541b	0.023965886
204	0x3cfbc6c6	0.030734431
205	0x3d46463e	0.048406832
206	0x3c670b57	0.014101825
207	0xbbd80d29	-0.0065933657
208	0x3d0901a4	0.03344883
209	0x3d022997	0.031777944
210	0x3c9028d4	0.017597593
211	0xbc1f9c23	-0.009741816
212	0x3d266ecf	0.04063302
213	0x3ce0190e	0.027355697
214	0x3c7b709c	0.015346672
215	0xb9b89a3d	-0.0003521013
216	0xbba24169	-0.004951645
217	0x3cfa3378	0.03054212
218	0x3d048d32	0.032361217
219	0x3a14aa3f	0.00056711206
220	0xbcf58618	-0.029971167
221	0xbcf66469	-0.030077176
222	0x3d3a9ecf	0.045561608
223	0x3d1b9cac	0.03799121
224	0x3c3a0edb	0.011356081
225	0x3dad0955	0.084490456
226	0x3d22bf58	0.03973326
227	0x3d45bd91	0.048276488
228	0xbac24b86	-0.0014823533
229	0x3bf44f93	0.007455775
230	0x3c8bb17e	0.017052408
231	0xbccdfa54	-0.02514378
232	0x3d0e0ee6	0.034682177
233	0x3d3d705e	0.04624974
234	0xbc306fec	-0.010768872
235	0x3d0eb31a	0.034838773
236	0x3d8ff9b0	0.07030046
237	0x3d3e0703	0.046393406
238	0x3d3171d1	0.043321434
239	0xbcda089b	-0.026615432
240	0x3d677116	0.05650433
241	0x3cf73881	0.03017831
242	0x3c926bcf	0.017873673
243	0x3ca7e5b1	0.020495268
244	0x3cc19a78	0.023633227
245	0x3d42a9d9	0.04752526
246	0x3bd2e3f1	0.006435864
247	0x3d16acab	0.036785763
248	0x3d0da691	0.03458268
249	0x3cfe3c07	0.031034483
250	0x3d31bc5a	0.043392517
251	0x3cccd97c	0.025006048
252	0x3d4ef7c1	0.050529245
253	0x3dc3dea2	0.09563948
254	0x3dc3e093	0.095643185
255	0xbd0a018e	-0.03369289

layer1.bias f4 [128]
0	0x3d230f7a	0.03980968
1	0x3c94e797	0.018176837
2	0x3c497fd9	0.012298548
3	0x3b997290	0.0046828464
4	0x3bb8cd5b	0.0056397147
5	0xbc928956	-0.017887753
6	0x3cba75f8	0.02276133
7	0xbcab6462	-0.02092189
8	0xbca22fb5	-0.01979814
9	0xbd07a7a8	-0.033118874
10	0xbc17a99e	-0.0092567485
11	0x3cd6762a	0.026179392
12	0xba77987d	-0.0009445025
13	0x3baaf120	0.0052167326
14	0xbc0bb7b0	-0.008527681
15	0x3ce49645	0.027903685
16	0xbce0b65e	-0.02743071
17	0x3cb86f60	0.022514045
18	0xbbbb2cf6	-0.005712147
19	0xbc6f8f85	-0.01462162
20	0x3cb6b5d6	0.022303503
21	0xbc5f3083	-0.013622406
22	0xbaaa7691	-0.0013005306
23	0xbc9c1cbe	-0.019056674
24	0xbbdc5bb6	-0.0067248
25	0x3ca79e68	0.020461276
26	0x3d084224	0.0332662
27	0xbb4af9e9	-0.0030971712
28	0x3b4ae811	0.0030961076
29	0x3d04c7e7	0.032417204
30	0x3d438b61	0.047740344
31	0xbbc92069	-0.006137897
32	0x3cdf0342	0.027223233
33	0x3c5107ef	0.012758239
34	0x3cc37d96	0.023863595
35	0x3cb30fdb	0.021858146
36	0x3bfed27f	0.007776558
37	0xbc748865	-0.014925097
38	0x3c11cc1c	0.008898761
39	0xbcd62f6a	-0.026145656
40	0xbd25dd9a	-0.04049454
41	0xbcce325d	-0.0251705
42	0xbd175737	-0.03694841
43	0xbb5fcaa3	-0.003414788
44	0xbb4136f5	-0.002948222
45	0xbce0c11a	-0.027435828
46	0x3c45c335	0.012070467
47	0xbbf326bc	-0.007420389
48	0xbd0f052c	-0.03491704
49	0xbbac68d7	-0.0052615213
50	0xbcce5c4c	-0.025190495
51	0x3cc6c922	0.02426583
52	0xbc57a043	-0.013160768
53	0x3c72875a	0.014802778
54	0x3ca33b68	0.019925788
55	0xbc37d1eb	-0.011219482
56	0x3ce6a787	0.028156055
57	0x3c1fc23a	0.009750897
58	0x3c74eabe	0.014948545
59	0xbc64d598	-0.01396694
60	0x3ca34086	0.019928228
61	0x3cfb56f2	0.030681107
62	0x3cffc89e	0.031223591
63	0x3c46a0b1	0.012123273
64	0xbc3014bc	-0.010747131
65	0x3cecace0	0.028891027
66	0xbcca9f2d	-0.024734104
67	0x3c2a1da4	0.010383043
68	0x3c990ea2	0.018683735
69	0xbd181d9a	-0.037137605
70	0xbba2d9f1	-0.0049698283
71	0x3afd505f	0.0019326321
72	0xbd08ccbe	-0.033398382
73	0xbc23655b	-0.0099728955
74	0x3d18cd9f	0.03730547
75	0x3cc9e571	0.024645539
76	0x3c4015d2	0.011723952
77	0xbcc07b17	-0.023496194
78	0xbcfe4f7e	-0.031043764
79	0xbc86345e	-0.016382392
80	0xbccda2a1	-0.025101962
81	0xbd0239d6	-0.031793438
82	0xbacab940	-0.0015466586
83	0x3cd88505	0.026430616
84	0xbca1c333	-0.019746399
85	0x3c2810e8	0.010257937
86	0xbb51fab8	-0.003204031
87	0x3bc607db	0.006043417
88	0xbce4ff6a	-0.027953822
89	0x3d234a04	0.03986551
90	0xbd2f069c	-0.042730913
91	0x3c1c8020	0.009552032
92	0xbc54ba25	-0.012983833
93	0xbcf7998a	-0.03022458
94	0x3c83cb43	0.016088134
95	0x3bf7dda6	0.0075642643
96	0xbccdcf24	-0.025123186
97	0x3c9a8738	0.018863305
98	0xbc33cfc9	-0.010974833
99	0xbcfbf671	-0.03075716
100	0xbc8a0c3d	-0.016851539
101	0x3d0c9013	0.034317087
102	0x3cab383f	0.020900844
103	0x3cefb816	0.029262584
104	0xbc885674	-0.016642787
105	0x3a04b145	0.00050618156
106	0x3c281233	0.010258245
107	0x3a9d4328	0.0011998164
108	0x3d0555d9	0.032552574
109	0xbcedb868	-0.029018596
110	0x3bc23505	0.0059267306
111	0x3cd09cf6	0.02546547
112	0xbab9630d	-0.0014143899
113	0xbc901225	-0.017586777
114	0x3d24191a	0.040063
115	0xbcec981d	-0.028881127
116	0x3c87470a	0.016513366
117	0x3c976760	0.01848191
118	0xbc93f9d7	-0.018063469
119	0x3cf12b11	0.029439481
120	0x3ccc563c	0.024943464
121	0xbba36e6a	-0.0049875276
122	0xbd07dab1	-0.033167545
123	0x3d1d445e	0.03839528
124	0x3c1dc75e	0.009630052
125	0xbcd0c02b	-0.025482258
126	0x3c80f3cd	0.015741253
127	0xbc0fc613	-0.008775252

layer2.weight f4 [128, 128]
0	0xbbbf3f25	-0.005836385
1	0xbccf5304	-0.02530814
2	0x3cb1e9e3	0.021717971
3	0x3cb31a7b	0.021863213
4	0xbd85723c	-0.06515929
5	0xbdf9fc67	-0.12206345
6	0x3e2d3121	0.16913272
7	0xbd7a0c5d	-0.061046947
8	0x3cd053b7	0.025430543
9	0xbc8fabf0	-0.01753804
10	0x3ee706ad	0.4512228
11	0x3bd7fc90	0.006591387
12	0x3dd57234	0.10422173
13	0xbd95e705	-0.07319454
14	0xbd27ab59	-0.040934894
15	0xbdee9b32	-0.11650695
16	0x3a372efe	0.00069878984
17	0x3d938eb0	0.0720495
18	0xbd7b59aa	-0.061364807
19	0x3e88448f	0.26614806
20	0xbd1d3cf1	-0.038388196
21	0xbdbe9aa6	-0.093068406
22	0x3d9795a1	0.07401586
23	0x3d8aee4e	0.06783734
24	0xbd2c702b	-0.04209916
25	0x3c85886d	0.016300404
26	0x3d99db0e	0.075124845
27	0xbdd39750	-0.10331595
28	0xbd8dbf61	-0.06921268
29	0x3df5f7c0	0.12010145
30	0x3d1ee98c	0.038796946
31	0xbc28dfba	-0.010307247
32	0xbd92fc3e	-0.07177018
33	0xbda6d2d9	-0.08145685
34	0x3cf6e943	0.030140525
35	0xbd1799c5	-0.03701188
36	0xbd423489	-0.047413383
37	0x3d0c3985	0.034234542
38	0xbe464ecd	-0.19365998
39	0x3db96eb0	0.09054315
40	0x3b8602b6	0.0040896786
41	0x3d01c6c9	0.031683717
42	0xbb9c7500	-0.0047746897
43	0x3c3ef545	0.0116551565
44	0x3d0e0908	0.03467658
45	0x3da48c4f	0.08034574
46	0x3e382730	0.17983699
47	0xbd524c6e	-0.05134242
48	0x3bad8207	0.0052950415
49	0xbc4f57fc	-0.012655254
50	0xbd153aba	-0.03643296
51	0xbde0480b	-0.10951241
52	0xbdea2284	-0.114323646
53	0xbce6d852	-0.028179321
54	0xbd4f6555	-0.050633747
55	0xbdb31970	-0.08745086
56	0xbdcefe0c	-0.10107049
57	0x3d9cffe6	0.07665996
58	0x3dcd307a	0.10019012
59	0xbb380b26	-0.0028082817
60	0xbd46893d	-0.048470724
61	0x3c4edb85	0.01262558
62	0x3d434980	0.047677517
63	0x3cac9b57	0.021070166
64	0x3d6f202d	0.058380295
65	0xbd66be01	-0.056333546
66	0xbe263231	-0.16230084
67	0x3d00da3c	0.031458125
68	0x3e2334d8	0.15938127
69	0x3e6ec815	0.23318513
70	0x3d3db6a1	0.046316747
71	0xbe368fad	-0.17828245
72	0xbdd2ce36	-0.10293238
73	0x3d77c4d7	0.060490455
74	0x3d89c3a0	0.06726766
75	0x3e01e086	0.12683305
76	0xbd6f8ab7	-0.0584819
77	0x3d9ea37f	0.07746028
78	0xbd7d6460	-0.061863303
79	0xbccc5b97	-0.024946017
80	0x3e2ecdae	0.17070648
81	0x3e2df667	0.16988526
82	0x3dc745e5	0.09730128
83	0x3c537fd9	0.012908899
84	0xbde81182	-0.11331464
85	0xbc68b638	-0.014203601
86	0x3c197bf8	0.009367935
87	0x3da82641	0.08210421
88	0x3d2a81eb	0.041627806
89	0xbe3392d6	-0.17536482
90	0xbe174d1b	-0.14775507
91	0xbc041e5b	-0.008063878
92	0xbd646f14	-0.055769995
93	0x3d672b1e	0.056437604
94	0xb9991790	-0.0002919999
95	0x3d615698	0.055014223
96	0xba27ac00	-0.00063961744
97	0xbce7442b	-0.028230747
98	0xbd86e466	-0.06586532
99	0x3e14a1fb	0.14514916
100	0x3d19edd7	0.037580337
101	0x3ded76c5	0.11594919
102	0xbd339cc6	-0.043850683
103	0x3d28fa24	0.041254178
104	0xbb4c63b6	-0.0031187362
105	0x3d8360d7	0.06414955
106	0xbdb9c995	-0.09071652
107	0x3da75ceb	0.081720196
108	0x3c7af39e	0.015316872
109	0xbd4feed3	-0.05076487
110	0xbd595741	-0.053061727
111	0x3cc8df32	0.02452049
112	0x3d28a5be	0.04117369
113	0x3e09c22e	0.1345298
114	0x3ddcf2bb	0.10788485
115	0xbd9e2421	-0.07721735
116	0xbca1352f	-0.01967868
117	0x3e8c3b82	0.2738915
118	0xbd98473b	-0.07435461
119	0xbd3d3cce	-0.046200566
120	0x3cae37da	0.021266866
121	0xbd7f7c70	-0.062374532
122	0x3de12a5c	0.109944075
123	0x3d3d34bb	0.046192866
124	0xbdbc6f71	-0.09200943
125	0x3b94e1ec	0.0045435335
126	0xbd830436	-0.063972875
127	0x3e820b34	0.25399172
128	0xbc8afab2	-0.016965244
129	0xbe0668a4	-0.13125855
130	0x3d4dfd64	0.05029048
131	0x3db430df	0.08798384
132	0xbe1b70ef	-0.151798
133	0xbdee7a19	-0.11644382
134	0xbd50a2db	-0.05093656
135	0x3c75cdbf	0.015002667
136	0x3b879a15	0.004138241
137	0x3da6ccc7	0.08144527
138	0xbcb61ac4	-0.02222956
139	0xbe6addcd	-0.22936173
140	0xbdb4b0b8	-0.08822769
141	0x3d80cbb9	0.06288857
142	0x3d104993	0.035226416
143	0xbefafc44	-0.49020588
144	0x3c0a2c33	0.0084333895
145	0x3d1a3536	0.037648402
146	0x3cd028da	0.025410105
147	0xbd01b0c6	-0.031662725
148	0x3dd7ccc7	0.10537105
149	0xbe143c5a	-0.14476147
150	0x3da5c2ac	0.08093771
151	0x3cc0e03d	0.023544425
152	0x3d6725c6	0.056432508
153	0xbd4674c7	-0.04845121
154	0x3df44a3b	0.11928221
155	0x3dc43194	0.09579769
156	0x3d4618d3	0.048363518
157	0xbd989b76	-0.07451527
158	0xbd4c23cd	-0.04983883
159	0x3e7b0685	0.24514206
160	0x3bdd6dcb	0.006757473
161	0xbdb9d886	-0.09074502
162	0x3c38ce6a	0.011279682
163	0xbda918df	-0.08256697
164	0x3d9a29c1	0.07527495
165	0x3d5a32a0	0.053270936
166	0xbabd6110	-0.0014448483
167	0x3de726bd	0.112866856
168	0xbd2820d0	-0.041046917
169	0xbc80efcb	-0.015739342
170	0xbd5a3ff7	-0.053283658
171	0x3ca67ace	0.02032223
172	0x3d925da5	0.071467675
173	0x3d9c74f1	0.07639492
174	0xbe78169e	-0.24227378
175	0xbc0594df	-0.008153169
176	0xbc0af629	-0.008481541
177	0xbca7b5a7	-0.02047236
178	0x3badd893	0.0053053587
179	0xbe16771d	-0.14693876
180	0x3d8cd365	0.06876258
181	0x3bf03eef	0.007331721
182	0x3de2e32e	0.11078487
183	0xbdaa6ea5	-0.08321885
184	0xbd5680ee	-0.05236905
185	0xbd752be3	-0.059856307
186	0x3e17ff22	0.14843419
187	0x3d40d845	0.04708125
188	0xbd30c5eb	-0.0431575
189	0x3b061abc	0.0020462712
190	0x3d4c05e9	0.049810324
191	0x3e14597a	0.14487258
192	0xbd04457d	-0.03229283
193	0x3c6970c5	0.014248078
194	0xbdaa2eda	-0.083097175
195	0x3ab58221	0.0013847986
196	0x3d7e6f46	0.062117837
197	0xbeaec3bd	-0.3413371
198	0xbd30c33f	-0.04315495
199	0xbca6df82	-0.020370249
200	0xbe33f8d8	-0.17575395
201	0xbc920019	-0.017822312
202	0xbdbccf9f	-0.09219288
203	0x3e81c431	0.25344995
204	0xbd8bb302	-0.068212524
205	0x3e309cfd	0.17247386
206	0x3da5c8af	0.08094918
207	0xbd86f073	-0.06588831
208	0x3eaf70e9	0.3426583
209	0x3e2b13b3	0.16706733
210	0x3d3911d9	0.045183036
211	0x3d89a230	0.06720388
212	0x3d818208	0.063236296
213	0xbe899a4e	-0.26875538
214	0xbdc54f61	-0.09634281
215	0x3e69c40d	0.22828694
216	0x3d1925f1	0.0373897
217	0xbcd015c9	-0.025401013
218	0xbd2af856	-0.041740738
219	0x3df46645	0.11933569
220	0x3cbaf5ea	0.02282234
221	0xbcbfba01	-0.023404123
222	0xbde3aae0	-0.11116576
223	0xbd4f9083	-0.050674926
224	0xbd1f373a	-0.038871028
225	0xbd50ca31	-0.050974075
226	0xbae85684	-0.0017725979
227	0x3cc8e4af	0.024523107
228	0x3d484f2b	0.048903625
229	0x3dc807f8	0.09767145
230	0xbe7ff001	-0.24993898
231	0xbc03e3b9	-0.008049899
232	0xbd8ac930	-0.06776655
233	0x3d166090	0.036713183
234	0xbd85c313	-0.06531348
235	0xbc5ad5bd	-0.013356623
236	0x3c66c792	0.014085667
237	0x3a3e65b6	0.0007263081
238	0x3d0801a3	0.033204686
239	0x3d8bfcc5	0.06835321
240	0xbd8833bd	-0.06650493
241	0x3dc760d7	0.097352676
242	0xbe89b78c	-0.26897848
243	0xbcd6a061	-0.026199521
244	0x3d95fed6	0.07323997
245	0x3e000541	0.12502004
246	0x3d4cbc62	0.049984343
247	0x3c73e51f	0.01488617
248	0x3e9cb81d	0.30609217
249	0xbc8a7394	-0.016900815
250	0xbdab427d	-0.08362291
251	0x3c962773	0.018329358
252	0x3d4743ac	0.04864852
253	0x3cbc9bd0	0.023023516
254	0xbe1c7fba	-0.15283099
255	0xbdf22d00	-0.11824989

layer2.bias f4 [128]
0	0xbd46b46e	-0.048511915
1	0x3d7fc31a	0.062441923
2	0xbd29326e	-0.04130786
3	0xbd5ac214	-0.053407744
4	0xbce7dea2	-0.028304402
5	0x3d264642	0.040594347
6	0x3d9c2994	0.07625118
7	0xbd9ac5a8	-0.07557231
8	0xbd1bb4e0	-0.038014293
9	0x3d8bd7a2	0.06828238
10	0xbd515598	-0.05110702
11	0xbc380374	-0.011231292
12	0x3c9b2c3c	0.018941991
13	0xbbb91771	-0.0056485464
14	0xbcbe550b	-0.023233911
15	0x3bf15c72	0.0073657567
16	0x3cd0aaf4	0.025472142
17	0x3dab729e	0.08371471
18	0x3c8157a4	0.01578886
19	0x3d1d5a64	0.03841628
20	0x3d9f5e76	0.07781689
21	0x3b59ae26	0.0033215373
22	0xbc459ef5	-0.012061824
23	0xbd58cf9a	-0.05293236
24	0xbcbf9baa	-0.023389656
25	0xba9e36fd	-0.0012070831
26	0x3db819ba	0.08989282
27	0x3d0e201b	0.034698587
28	0x3c256537	0.010094932
29	0x3d853ce6	0.06505756
30	0xbc8db512	-0.017298255
31	0x3c1e9d48	0.009681053
32	0x3d52c907	0.051461246
33	0xbbe7890c	-0.007065898
34	0xbd584502	-0.052800186
35	0xbd6b9875	-0.05751844
36	0x3d2b67dc	0.041847095
37	0x3d586df7	0.052839246
38	0xbd7f8238	-0.062380046
39	0xbd86fa9a	-0.06590767
40	0xbbd7de62	-0.0065877894
41	0xbd844500	-0.06458473
42	0xbd000bde	-0.031261317
43	0xbc6e025a	-0.014526928
44	0x3d7dea48	0.061991006
45	0x3a7a1015	0.00095391396
46	0xbc28c0d4	-0.01029988
47	0xbd1f3332	-0.038867183
48	0x3d1b3601	0.0378933
49	0x3d1c2027	0.0381166
50	0x3dd5528d	0.10416136
51	0xbc582dd8	-0.013194524
52	0xbc017fd2	-0.00790401
53	0x3bd73a3e	0.0065682223
54	0x3c23ec07	0.010005004
55	0xbd939041	-0.072052486
56	0x3d746bb8	0.05967304
57	0xbd90ee1e	-0.07076667
58	0x3cd85f57	0.02641265
59	0x3d4de89e	0.05027067
60	0xbb20d0b2	-0.0024538455
61	0xbd724b5a	-0.059153892
62	0x3d08b217	0.033372965
63	0xbca01d97	-0.01954536
64	0x3cf64fd2	0.030067358
65	0xbd57ccac	-0.052685425
66	0xbd64b76b	-0.055838984
67	0x3dd0a0f6	0.10186951
68	0xbb37939f	-0.0028011573
69	0x3d49d7ac	0.049277946
70	0xbce4cde3	-0.027930206
71	0xbd5fccdc	-0.05463873
72	0xbd8cb2c0	-0.06870031
73	0xbd9a4cb4	-0.07534161
74	0x3da73e15	0.08166138
75	0x3d8dd41b	0.069252215
76	0x3d93e92b	0.07222208
77	0x3dc384d5	0.0954682
78	0xbd4c7bad	-0.049922634
79	0xbd2c1728	-0.04201427
80	0x3d8f2a4c	0.06990489
81	0x3d68ec2a	0.05686585
82	0x3c6708f3	0.014101255
83	0x3d411eac	0.04714839
84	0xbcab5bbf	-0.020917771
85	0x3d8df2b1	0.06931055
86	0x3d7521d3	0.05984671
87	0x3d434009	0.04766849
88	0x3b1171f9	0.0022193177
89	0x3d9f2473	0.07770624
90	0x3d5fa34e	0.0545991
91	0x3d9d3803	0.07676699
92	0x3dc377c1	0.095443256
93	0xbc221654	-0.009893019
94	0xbd9e4caa	-0.07729466
95	0xbd239c6b	-0.039944094
96	0x3d93c6a7	0.07215624
97	0xbb5370ea	-0.0032263347
98	0xbcbd5b9d	-0.023114974
99	0x3d4e67ad	0.05039184
100	0x3c172ed3	0.009227472
101	0xbd751aa5	-0.059839863
102	0x3d922c29	0.07137329
103	0xbce3645e	-0.02775782
104	0x3d5fe4cf	0.05466157
105	0x3d8378d9	0.06419534
106	0x3d802f65	0.0625904
107	0x3c99264d	0.018695021
108	0xbb295bd0	-0.0025842078
109	0xbd46f516	-0.048573576
110	0x3cd825ac	0.02638515
111	0xbd635c22	-0.055507787
112	0xbcf21385	-0.029550323
113	0xbd216cf3	-0.039410543
114	0x3d7b640e	0.061374716
115	0xbd19865a	-0.037481643
116	0x3cb291f7	0.021798117
117	0xbd8db666	-0.06919555
118	0xbd130949	-0.035897527
119	0x3da8c784	0.082411796
120	0x3d00123d	0.031267393
121	0xbc8e376d	-0.017360413
122	0x3d750ab4	0.05982466
123	0xbd1c5e94	-0.038176134
124	0xbd574725	-0.052558083
125	0xbd4ac16d	-0.04950087
126	0xbdafff43	-0.08593609
127	0xbd39f89a	-0.0454031

layer3.weight f4 [4, 128]
0	0xbe1db09c	-0.15399402
1	0xbeac5af9	-0.33663157
2	0xbcc61e4f	-0.024184374
3	0xbd00dcf1	-0.031460706
4	0xba411bed	-0.0007366527
5	0x3e2a2e9b	0.16619341
6	0xbd319778	-0.043357342
7	0x3da30884	0.079606086
8	0xbe52dcb0	-0.20591998
9	0x3ede164f	0.43376395
10	0xbccfa258	-0.025345966
11	0xbcef455c	-0.029207878
12	0x3e68f287	0.22748767
13	0x3e40e821	0.1883855
14	0x3e05fdf6	0.1308516
15	0xbd339b87	-0.043849494
16	0x3e3c857e	0.18410298
17	0x3dfb203c	0.122620076
18	0xbd4f1259	-0.050554607
19	0x3a98ddc0	0.0011662766
20	0xbe6f499b	-0.23367922
21	0x3d2bf2c7	0.041979577
22	0xbd07e232	-0.0331747
23	0xbc4481bb	-0.011993821
24	0x3d44def5	0.04806419
25	0xbe1a285c	-0.15054458
26	0x3e0f40e6	0.139896
27	0xbce5ed7f	-0.028067349
28	0x3db427d7	0.08796661
29	0xbdf44c03	-0.119285606
30	0x3e26193b	0.16220562
31	0xbdd1860f	-0.10230648
32	0xbddfc6eb	-0.109266125
33	0x3d610f4b	0.054946225
34	0x3ca3a1ff	0.019974707
35	0xbf1732c1	-0.5906182
36	0x3d6b1d1c	0.057400808
37	0x3e7bffa0	0.24609232
38	0x3cfa7a51	0.030575903
39	0xbda9b484	-0.08286384
40	0x3e1e2e25	0.1544729
41	0x3d9a3d2f	0.07531201
42	0x3e728461	0.23683311
43	0x3d7c8449	0.061649594
44	0xbd82eb7d	-0.06392572
45	0xbe78e45f	-0.24305867
46	0xbd1577e3	-0.036491286
47	0x3e388f82	0.18023494
48	0xbdfc2be7	-0.12313061
49	0x3e8aebe7	0.27133104
50	0x3d9a163e	0.075237736
51	0xbed53163	-0.41639242
52	0x3d9b9e6c	0.07598576
53	0x3ee46671	0.44609407
54	0xbe65ac9c	-0.22429127
55	0x3e62b63b	0.22139828
56	0xbb2964cc	-0.0025847433
57	0xbe18ce0f	-0.14922355
58	0xbe06f6f3	-0.13180141
59	0xbdc04e0b	-0.093898855
60	0x3e5c348b	0.21504419
61	0x3e5acf1b	0.21368067
62	0x3c985ea0	0.018599808
63	0xbe186c12	-0.14884976
64	0x3dc5d732	0.09660186
65	0xbe12675d	-0.14297242
66	0x3ed9feca	0.425772
67	0x3e5f01c5	0.21778019
68	0xbd99a6dc	-0.07502529
69	0xbe3ea301	-0.18616869
70	0x3e6ad008	0.2293092
71	0xbda05a76	-0.07829754
72	0xbd4a7469	-0.049427424
73	0xbe820920	-0.25397587
74	0x3d8829e8	0.06648618
75	0xbd0ea260	-0.03482282
76	0x3c8b3991	0.016995223
77	0x3e43e575	0.191305
78	0x3e74909a	0.23883286
79	0x3d2d5e87	0.042326476
80	0x3eec8cd7	0.46201202
81	0x3e6af633	0.2294548
82	0x3e656531	0.22401883
83	0xbd53ab7d	-0.051677216
84	0xbe256516	-0.16151842
85	0xbdbf9597	-0.09354704
86	0x3d7c8c19	0.061657045
87	0x3e437d45	0.19090755
88	0x3e94d3a5	0.29067722
89	0xbe2fc909	-0.17166533
90	0xba55614c	-0.00081398035
91	0xbe42ea58	-0.19034708
92	0x3e281c25	0.16416986
93	0xbe2fb2bc	-0.17158026
94	0xbe644d5f	-0.2229514
95	0x3d2c1904	0.042016044
96	0x3e4628aa	0.1935145
97	0xbe95e613	-0.29277095
98	0x3e210c4f	0.15727352
99	0x3d9765bc	0.07392451
100	0x3e5d6867	0.21621858
101	0xbd6896a5	-0.05678429
102	0xbdc01978	-0.09379858
103	0xbeba4d9a	-0.3638733
104	0xbe5d1467	-0.21589814
105	0xbecc6baa	-0.3992589
106	0x3d9f3d64	0.07775381
107	0xbab99f1f	-0.0014161802
108	0xbe1f7159	-0.15570582
109	0x3e37e18f	0.17957138
110	0x3cad8e1e	0.02118593
111	0xbdb3833f	-0.087652676
112	0x3e7534de	0.23945948
113	0x3e5489ed	0.2075574
114	0x3e091fb6	0.13391003
115	0x3e12e4b3	0.14345054
116	0x3e9fa260	0.3117857
117	0x3e0a2219	0.1348957
118	0x3d212917	0.039345827
119	0xbe832365	-0.2561294
120	0xbe57b159	-0.21063747
121	0xbe0ffce1	-0.1406131
122	0xbe43e1a1	-0.1912904
123	0xbcf40af3	-0.029790377
124	0xbde54495	-0.111947216
125	0xbe3ad949	-0.1824695
126	0xbe452052	-0.1925061
127	0x3e9fb1b4	0.31190264
128	0x3e1f90b8	0.1558255
129	0xbeae2948	-0.3401587
130	0x3bafc216	0.005363713
131	0x3d9207e6	0.07130413
132	0x3ca585bf	0.020205377
133	0xbe78e582	-0.243063
134	0xbd2dd36c	-0.042437956
135	0xbda77da7	-0.08178263
136	0x3e0362c4	0.12830645
137	0xbcfb75de	-0.030695852
138	0xbe565d8c	-0.20934123
139	0xbd838c37	-0.06423228
140	0x3e5a26b6	0.2130383
141	0xbd19db99	-0.03756294
142	0xbe9f018c	-0.31055868
143	0x3d83116c	0.06399807
144	0x3d32e377	0.04367396
145	0x3d51e82e	0.051246814
146	0x3e37989d	0.17929311
147	0x3cd829d0	0.026387125
148	0x3e92345b	0.2855557
149	0x3e050999	0.12991942
150	0x3d442952	0.04789097
151	0xbcefaac9	-0.029256241
152	0x3eb4af2a	0.3528989
153	0x3d04aa9e	0.032389276
154	0xbd99c366	-0.075079724
155	0x3b2dfe75	0.0026549373
156	0x3e90d015	0.28283754
157	0xbbe238a2	-0.006903724
158	0xbe7443e5	-0.23854025
159	0xbe369f86	-0.17834291
160	0xbe3540cb	-0.17700498
161	0x3ec2b43a	0.38028127
162	0xbd62f928	-0.055413395
163	0x3e7e903e	0.24859712
164	0x3c9fd6bc	0.019511573
165	0x3d0eedb3	0.034894656
166	0xbe3c8083	-0.18408398
167	0xbe13d13d	-0.14435287
168	0xbe28a16a	-0.16467825
169	0xbe7acdc0	-0.2449255
170	0x3bc60897	0.0060435045
171	0x3d488e1f	0.048963662
172	0xbd6fa4e3	-0.058506858
173	0xbe8597a3	-0.26092252
174	0x3d1c8bd0	0.038219273
175	0xbd8bfba3	-0.06835105
176	0xbcd352ad	-0.025796259
177	0xbdc60b3f	-0.09670114
178	0x3e8ae18e	0.2712521
179	0xbe65f755	-0.22457631
180	0xbd8dfff8	-0.06933588
181	0x3e24c1e7	0.16089593
182	0xbebd12a5	-0.36928287
183	0x3e8cefb2	0.27526623
184	0xbbddb683	-0.006766142
185	0x3e01afc4	0.12664706
186	0xbf00b29e	-0.5027255
187	0x3cbc36b8	0.02297531
188	0xbdae4552	-0.085093156
189	0xbd7e3499	-0.06206188
190	0xbd0ebf31	-0.034850303
191	0xbda73a71	-0.08165444
192	0xbd7c86c9	-0.06165198
193	0xbd4016e6	-0.046896838
194	0xbe02d8d8	-0.12778032
195	0x3e9e23a5	0.3088657
196	0xbd96d313	-0.07364478
197	0xbe785884	-0.24252516
198	0xbda7a8e3	-0.081865095
199	0xbd5f348a	-0.054493465
200	0xbd39a708	-0.04532531
201	0x3eb1e65e	0.3474607
202	0xbe1fb7fd	-0.1559753
203	0xbddfd5e6	-0.1092947
204	0x3edfb63c	0.4369372
205	0xbe029a21	-0.12754108
206	0xbbfd0e89	-0.00772268
207	0xbd1be856	-0.03806337
208	0xbf3478d6	-0.7049688
209	0x3eaa4313	0.332543
210	0xbd672b76	-0.056437932
211	0x3cbf65bd	0.023363942
212	0xbe70100a	-0.23443618
213	0x3ea80657	0.32817337
214	0x3d9ff14e	0.07809697
215	0x3e97ae7f	0.29625317
216	0xbd46feed	-0.04858296
217	0xbd423815	-0.047416765
218	0x3d30b9dd	0.043146003
219	0xbd027234	-0.031847194
220	0x3e4a36a7	0.1974741
221	0x3dc7de97	0.097592525
222	0x3e901238	0.281389
223	0xbbb9e4e8	-0.0056730397
224	0x3eba6c52	0.36410767
225	0x3ec48091	0.38379338
226	0x3ebfb00d	0.37439004
227	0x3cfb46d1	0.030673416
228	0xbb90dbf7	-0.004420753
229	0x3da49eef	0.08038127
230	0xbe02b2d7	-0.12763534
231	0xbde8e14a	-0.113710955
232	0x3e519558	0.20467126
233	0x3f04f8fd	0.51942426
234	0x3cdb7700	0.026790142
235	0x3d8f9655	0.070110954
236	0xbe2f1842	-0.17099097
237	0xbf10c607	-0.56552166
238	0xbc9a9ffd	-0.018875116
239	0xbdc1ffec	-0.09472641
240	0x3d7fc6be	0.062445395
241	0x3e3f58af	0.18686174
242	0xbe7a15b4	-0.24422342
243	0xbe6cb762	-0.2311683
244	0x3ea9cd44	0.33164418
245	0x3eea7dd6	0.4579913
246	0xbe8ace36	-0.2711045
247	0x3f098931	0.5372496
248	0xbe604b57	-0.2190374
249	0xbd9a443b	-0.07532545
250	0xbe3122e7	-0.1729847
251	0xbd864cad	-0.065575935
252	0xbd96c43e	-0.07361649
253	0xbebf56b9	-0.37370852
254	0x3f010280	0.5039444
255	0x3e8bc4fb	0.27298722

layer3.bias f4 [4]
0	0xbc62ead1	-0.01384993
1	0xbd934339	-0.07190556
2	0xbd3626c6	-0.04447057
3	0x3b9c7fe8	0.00477599
