RL/Networks/WithoutGuide/target2.pt (torch, 508289 bytes, 12 tensors)

conv1.weight f4 [8, 5, 3, 3]
0	0x3e798618	0.24367559
1	0xba35e58a	-0.0006938806
2	0xbe013a85	-0.1261998
3	0x3e9a559b	0.30143437
4	0x3e88076b	0.2656816
5	0xbd1bfd17	-0.038083162
6	0x3e8b6d60	0.27231884
7	0x3ecbe272	0.39821202
8	0x3e4d86cd	0.20070954
9	0xbf455cbe	-0.7709464
10	0xbf44d87e	-0.7689284
11	0xbe95c1fc	-0.2924956
12	0x3eaf8ad3	0.34285602
13	0xbf483f88	-0.7822194
14	0xbf3c10cc	-0.7346313
15	0x3eb7b43a	0.3587969
16	0x3e61cd33	0.22050934
17	0xbf8447b4	-1.0334382
18	0x3e523ee8	0.2053181
19	0xbd793ecf	-0.060850915
20	0x3d8abd81	0.06774426
21	0xbd1b721a	-0.037950613
22	0x3d9906a8	0.07471973
23	0xbd46036f	-0.04834312
24	0x3c3a3ba6	0.01136676
25	0x3e359fa0	0.17736673
26	0xbd589787	-0.052878883
27	0xbe1517a7	-0.14559804
28	0xbd9cec53	-0.07662263
29	0xbd515b11	-0.05111224
30	0x3da0452d	0.07825694
31	0x3d34e04d	0.044159222
32	0x3ce384ab	0.027773222
33	0x3e76655a	0.240621
34	0x3ce0f63a	0.02746116
35	0x3dd3620f	0.103214376
36	0x3d7a8733	0.061164092
37	0x3d3fc792	0.046821184
38	0x3d162a5c	0.03666149
39	0xbdb8eecc	-0.09029922
40	0xbdea05e7	-0.11426907
41	0xbd05a4e6	-0.032627963
42	0x3d95ca7f	0.07314014
43	0xbd5dd410	-0.054157317
44	0xbcfdf15e	-0.030998882
45	0x3ec26e4e	0.3797478
46	0x3ed67e32	0.41893154
47	0x3f0d14b1	0.551097
48	0x3ea08f10	0.31359148
49	0x3dc49ba3	0.09599998
50	0x3e698ae6	0.22806892
51	0x3ec03228	0.37538266
52	0x3e1457db	0.14486639
53	0x3e9d8f55	0.30773416
54	0xbe85b888	-0.2611735
55	0xbee79d77	-0.45237324
56	0xbebf00d8	-0.3730533
57	0xbe7ada27	-0.24497281
58	0xbeeb5519	-0.45963362
59	0xbf33010f	-0.6992349
60	0xbf117532	-0.5681945
61	0xbeb20f65	-0.3477737
62	0xbe26dbe9	-0.16294827
63	0x3d2bfb23	0.04198755
64	0x3da94ea0	0.0826695
65	0xbc56159e	-0.013066677
66	0xbd8f3bb5	-0.0699381
67	0xbd833fdc	-0.064086646
68	0x3a35a2fc	0.00069288886
69	0x3d9572e6	0.07297306
70	0x3e6300c9	0.22168268
71	0x3d88c5b0	0.06678331
72	0xbcb023b0	-0.021501392
73	0x3da0715e	0.07834123
74	0x3dbb7c26	0.09154539
75	0xbd414b12	-0.047190733
76	0x3e34504f	0.1760876
77	0x3d6eca76	0.05829855
78	0x3bf058a6	0.0073347865
79	0x3d9d442e	0.0767902
80	0x3ae311ae	0.0017323995
81	0x3b10ffc9	0.0022125116
82	0x3b94072f	0.004517458
83	0xbc9c527e	-0.019082304
84	0xbcb89386	-0.022531282
85	0xbde7c391	-0.11316598
86	0x3d4b19e6	0.049585246
87	0xbd9cab50	-0.07649863
88	0xbd471478	-0.048603505
89	0x3d9491d5	0.07254378
90	0xbf4e27ff	-0.8052978
91	0x3ed06539	0.40702227
92	0x3b080864	0.0020756954
93	0xbd984c09	-0.074363776
94	0x3e8ded35	0.27720037
95	0xbeba6870	-0.36407804
96	0x3e4e31eb	0.2013623
97	0x3eac1d0f	0.3361592
98	0x3e575203	0.21027379
99	0xbe9068ac	-0.28204858
100	0x3ed92708	0.4241259
101	0xbf52e967	-0.82387394
102	0xbf1e9632	-0.6194793
103	0xbe01a6ae	-0.1266124
104	0xbef5a1a0	-0.47974873
105	0xbe4995e9	-0.19686092
106	0x3e783b5b	0.24241392
107	0xbf5d0765	-0.8633941
108	0xbc9ffc19	-0.01952939
109	0x3b448d54	0.0029991465
110	0xbd2d3b36	-0.042292796
111	0xbd544d5d	-0.051831592
112	0xbe1fd6d2	-0.15609291
113	0xbd7ad577	-0.061238732
114	0x3e085f4f	0.13317607
115	0xbd291d58	-0.04128775
116	0xbcccc04c	-0.024994038
117	0xbe2f7c69	-0.17137302
118	0xbdb1c428	-0.08679992
119	0xbd9a019b	-0.075198375
120	0x3e2f78c1	0.17135908
121	0x3e8968d7	0.268378
122	0x3e4f1539	0.2022294
123	0xbe86129f	-0.26186082
124	0x3db2520f	0.08707058
125	0x3d9d5330	0.076818824
126	0xbd221271	-0.03956837
127	0xbd9fe85c	-0.07807991
128	0x3d04d7e7	0.032432463
129	0xbc430180	-0.011902213
130	0xbd22ae51	-0.039717022
131	0xbb5b14ab	-0.0033429067
132	0x3d140a9a	0.036142923
133	0x3c9217f7	0.017833693
134	0xbc7c7ab2	-0.015410112
135	0xbefe33de	-0.49648947
136	0x3ec134ec	0.3773569
137	0xbe9983cd	-0.2998337
138	0xbd9e98ff	-0.077440254
139	0x3c7043f8	0.0146646425
140	0xbe8fb421	-0.28067115
141	0x3e18fa52	0.1493924
142	0x3ef82a6e	0.4846987
143	0x3e3a5f4b	0.18200414
144	0xbe8bc97f	-0.27302167
145	0xbe0eef38	-0.13958442
146	0xbda674ed	-0.081277706
147	0xbe011a62	-0.1260772
148	0x3dc17822	0.09446742
149	0x3dbfc969	0.09364588
150	0xbe34d790	-0.17660356
151	0xbee8b866	-0.45453185
152	0x3e712a25	0.23551233
153	0xbd4e3c53	-0.0503505
154	0x3e0d2231	0.13782574
155	0xbcea4fdb	-0.028602531
156	0xbd452389	-0.048129592
157	0x3c3dbc72	0.011580573
158	0x3e1ea1e0	0.15491438
159	0x3e7e7964	0.24850994
160	0x3d5b5d9f	0.05355608
161	0xbdbc3575	-0.091898836
162	0x3c9426ff	0.018085001
163	0x3cf110e8	0.029427007
164	0x3ddb23a6	0.10700159
165	0xbe0e470b	-0.13894288
166	0x3d1c1f85	0.038115997
167	0x3e21f8f6	0.15817627
168	0x3e8e16df	0.27751824
169	0xbe1e4a3a	-0.15458003
170	0xbdaec179	-0.08532996
171	0x3d71760a	0.05895046
172	0xbcec6731	-0.0288578
173	0xbd179e62	-0.03701628
174	0x3de744bb	0.11292406
175	0x3d0f829e	0.035036676
176	0xbe212f57	-0.15740715
177	0x3d0d7812	0.034538336
178	0x3dbb94d1	0.09159244
179	0x3d89f4e0	0.06736159
180	0x3ece4145	0.40284172
181	0x3cb6c17b	0.022309056
182	0x3d4bb220	0.04973042
183	0x3e51e1b8	0.20496261
184	0x3cdbeae4	0.026845403
185	0x3e7d3db5	0.2473057
186	0x3e8c4dcc	0.27403104
187	0xbef732a2	-0.48280817
188	0x3eb9ada9	0.36265305
189	0xbddc03e9	-0.10742933
190	0xbc952615	-0.018206635
191	0x3d088e20	0.033338666
192	0xbf25d070	-0.64771175
193	0xbdd55db5	-0.10418264
194	0xbe52094e	-0.20511362
195	0xbf151071	-0.5822821
196	0xbd94e117	-0.07269495
197	0xbf31841c	-0.6934221
198	0xbddab9e0	-0.10679984
199	0x3e4c2f23	0.19939856
200	0x3c5df9e7	0.013548351
201	0x3dbff009	0.09371955
202	0x3cf66cdf	0.03008121
203	0x3ca32ae5	0.019917915
204	0x3e216e4a	0.15764728
205	0x3c21aa13	0.009867209
206	0x3e01bef5	0.126705
207	0x3d891543	0.066935085
208	0x3d8938e1	0.06700302
209	0x3d3cff28	0.046141773
210	0x3e2065a1	0.15663768
211	0xbcf53a2a	-0.029934961
212	0x3e191de2	0.14952806
213	0xbe4a2317	-0.19739948
214	0x3d6575e4	0.056020632
215	0xbd60523f	-0.054765936
216	0xbd8a8432	-0.067634955
217	0x3def657b	0.11689278
218	0xbc82206e	-0.015884604
219	0xbe1098fd	-0.1412086
220	0x3dc96e1f	0.09835457
221	0xbd226832	-0.03965015
222	0x3c81bbbf	0.015836595
223	0xbdaeb0f9	-0.085298486
224	0xbbc5ac4b	-0.006032502
225	0x3d6a46a4	0.057196274
226	0xbe5d9ac7	-0.21641074
227	0x3efb74dc	0.49112594
228	0x3b9dc9a3	0.0048152967
229	0x3dd31748	0.10307175
230	0x3ee7cad3	0.4527193
231	0x3ece2241	0.4026051
232	0x3e9d12a6	0.3067829
233	0x3f1b163e	0.60580814
234	0xbae16c81	-0.0017198474
235	0xbec30ef7	-0.38097355
236	0xbdcb5b11	-0.09929479
237	0x3df0714e	0.11740361
238	0xbe1a2262	-0.15052179
239	0xbd6384f6	-0.055546723
240	0x3f5b0352	0.8555194
241	0x3e3320ff	0.17493056
242	0x3f327596	0.6971067
243	0x3d0c3269	0.034227762
244	0xbcebad04	-0.028769024
245	0xbb44b99a	-0.0030017854
246	0x3d8e48cd	0.069474794
247	0x3dd4316c	0.10360989
248	0xbc250486	-0.010071879
249	0x3df13efc	0.117795914
250	0x3d85c7c5	0.06532244
251	0xbc612971	-0.013742791
252	0x3af2de7e	0.0018529443
253	0x3cbd216f	0.023087231
254	0xbdf077f7	-0.117416315
255	0x3d763c5c	0.060116157

conv1.bias f4 [8]
0	0xbd2df171	-0.042466585
1	0x3d5b5316	0.053546034
2	0xbcba5ad3	-0.022748386
3	0x3e29185f	0.16513203
4	0x3d25215b	0.040315013
5	0xbcb5adf6	-0.022177678
6	0x3e1225bc	0.14272207
7	0x3e0dbacf	0.13840793

conv2.weight f4 [16, 8, 3, 3]
0	0x3e372995	0.17886956
1	0x3d0deac9	0.034647737
2	0xbe0b1d61	-0.13585426
3	0x3e17c7d4	0.14822322
4	0xbd9e531f	-0.07730698
5	0x3d235e79	0.039885018
6	0x3ddfabb4	0.10921422
7	0xbe41bcf3	-0.18919735
8	0xbd88c208	-0.066776335
9	0x3e182297	0.14856945
10	0x3e1bfc2a	0.15232912
11	0x3d105c1b	0.03524409
12	0x3e387a6f	0.18015455
13	0x3d071014	0.032974318
14	0x3e027b2b	0.12742297
15	0x3c2bdc92	0.0104896
16	0x3da2d872	0.0795144
17	0x3de773a7	0.11301356
18	0xbea89b25	-0.32930866
19	0xbe8446f3	-0.2583538
20	0xbe9b2ece	-0.30309147
21	0xbe6fd988	-0.23422825
22	0xbc2bc380	-0.010483623
23	0xbe915f21	-0.2839289
24	0xbe59ff96	-0.21288905
25	0xbe2bd5e9	-0.16780819
26	0xbe2df6bf	-0.16988657
27	0xbcc3bd2b	-0.023893913
28	0x3de18e77	0.11013501
29	0x3da0f657	0.078594856
30	0xbc8f519c	-0.01749497
31	0x3d467eed	0.04846089
32	0x3e09807f	0.13427924
33	0x3cd56178	0.026047453
34	0x3e103140	0.14081287
35	0x3dcaf82b	0.099106155
36	0x3d7ff1da	0.062486507
37	0x3db607b9	0.08888192
38	0x3de86e62	0.11349179
39	0x3e125eed	0.14294024
40	0x3e3c010f	0.18359779
41	0x3c73ed29	0.014888086
42	0x3e546b32	0.20744017
43	0x3e30bee2	0.17260316
44	0x3e441f4a	0.19152561
45	0xbcb509a7	-0.02209933
46	0x3c9652f9	0.018350111
47	0x3daafd98	0.083491504
48	0x3d0da8cb	0.0345848
49	0x3e17931f	0.14802216
50	0x3ae92bf2	0.0017789586
51	0x3e283e5b	0.16430037
52	0xbda3c8fe	-0.079973206
53	0xbe0e4a2e	-0.13895485
54	0x3c9245d9	0.017855572
55	0x3d628539	0.055302832
56	0xbd8e7d1d	-0.06957457
57	0xbda134e4	-0.07871416
58	0xbc8d3846	-0.017238747
59	0xbccfc765	-0.025363633
60	0xbca80618	-0.020510718
61	0xbd705b3e	-0.058680765
62	0x3d9f44f4	0.07776824
63	0x3dd6710c	0.10470781
64	0x3cb73aec	0.022366963
65	0x3e2439df	0.16037701
66	0xbcb67db2	-0.022276733
67	0x3e19af0c	0.15008181
68	0xbcb27e80	-0.021788836
69	0x3ce3254e	0.02772775
70	0xbd4930f5	-0.049118955
71	0xbd0d6b06	-0.034525894
72	0x3c9b2e4c	0.018942975
73	0x3db0053f	0.085947506
74	0x3ead8eb6	0.33897942
75	0xbe311ce0	-0.17296171
76	0x3d7512e5	0.059832472
77	0x3df54732	0.1197647
78	0xbd9cc16b	-0.07654079
79	0x3e4ee4ef	0.20204519
80	0xbd8be6e7	-0.068311505
81	0xbdca6fd8	-0.09884614
82	0xbe121916	-0.14267382
83	0x3e10c229	0.14136566
84	0xbd1ecc67	-0.038769152
85	0xbd1e6182	-0.03866721
86	0xbd003764	-0.031302825
87	0xbcf60955	-0.030033747
88	0x3b5b58bf	0.0033469645
89	0x3d6b5375	0.057452638
90	0x3da057ff	0.07829284
91	0x3d872ce2	0.066003576
92	0xbc4161cb	-0.011803101
93	0x3e2eb969	0.17062916
94	0x3da7409a	0.08166619
95	0x3e4fa77c	0.20278734
96	0x3df3d8c8	0.11906582
97	0x3c11880a	0.008882532
98	0x3b8541d9	0.0040666875
99	0xbb2f9a7f	-0.0026794968
100	0x3daa413a	0.08313222
101	0x3dd1ef2f	0.10250699
102	0x3de746ac	0.112927765
103	0x3dda2355	0.1065127
104	0xbc89544c	-0.016763829
105	0xbcf51bfd	-0.029920572
106	0x3a053575	0.0005081513
107	0xbdb3f8d2	-0.08787693
108	0x3dc3ec35	0.09566537
109	0xbdc1606c	-0.09442219
110	0xbb8c8efa	-0.004289505
111	0x3c874df3	0.016516661
112	0xbce44617	-0.027865453
113	0x3e2d8aa5	0.1694742
114	0x3caf439c	0.021394543
115	0xbdcbd045	-0.09951834
116	0x3d5f065f	0.054449435
117	0xbe1e1c6a	-0.15440527
118	0x3bd2c812	0.0064325416
119	0xbd96b845	-0.073593654
120	0xbe4cf9db	-0.20017187
121	0x3db60487	0.08887582
122	0xbda34e60	-0.07973933
123	0xbe36e4f9	-0.17860784
124	0x3e1d4e04	0.15361792
125	0xbe7408ae	-0.23831436
126	0x3dc0f169	0.09421045
127	0xbd15f0de	-0.036606662
128	0x3d83a6d2	0.06428303
129	0x3e1db548	0.15401185
130	0x3dbbb432	0.09165229
131	0xbd2efda4	-0.04272236
132	0xbd275b64	-0.04085864
133	0x3c33047b	0.010926361
134	0xbda8c9e3	-0.08241632
135	0x3d30c706	0.043158554
136	0x3d09300d	0.03349309
137	0x3e1fc5f4	0.15602857
138	0xbda3ea79	-0.080037065
139	0x3d9d4e0b	0.07680901
140	0x3dd029fa	0.101642564
141	0xbb873487	-0.004126135
142	0x3cfd8f30	0.030952066
143	0xbc270a7b	-0.01019537
144	0x3e15b096	0.14618143
145	0xbdd79ded	-0.10528169
146	0xbac144e9	-0.0014745268
147	0x3d3b516c	0.045731947
148	0xbea6f201	-0.3260651
149	0xbdb8c77d	-0.09022424
150	0xbd8e7bcd	-0.06957207
151	0xbdff3673	-0.12461557
152	0xbe8b93b1	-0.27261117
153	0x3e0f4c48	0.13993943
154	0x3ea1353b	0.31485924
155	0x3f0502b0	0.51957226
156	0x3c5bdf69	0.013419964
157	0x3e4f061b	0.20217173
158	0x3de9096e	0.11378752
159	0x3e851c13	0.2599798
160	0x3e337da6	0.175284
161	0x3dce2081	0.100647934
162	0xbeb3529d	-0.35023966
163	0xbe56012e	-0.20898888
164	0xbebe6c45	-0.37191978
165	0x3cfaad64	0.030600257
166	0xbe88f698	-0.26750636
167	0xbeb60cfd	-0.35556784
168	0x3d975301	0.073888786
169	0xbd1ca5c4	-0.038244024
170	0xbeed3a43	-0.46333513
171	0xbe2c6b7c	-0.16837877
172	0xbe0166f9	-0.12636937
173	0x3c184466	0.009293651
174	0xbd519194	-0.051164225
175	0x3d3f6c9f	0.04673445
176	0x3d4e5874	0.050377324
177	0x3e5853e9	0.21125759
178	0xbd9c8616	-0.07642762
179	0x3e005d43	0.12535577
180	0xbaec371d	-0.0018021796
181	0x3c95d4b9	0.01828991
182	0x3d764731	0.060126487
183	0xbd121cda	-0.035672046
184	0x3d61ac9f	0.055096265
185	0x3e1ef2a3	0.15522246
186	0x3dd14e8a	0.10220058
187	0x3dbe707d	0.09298799
188	0x3e833590	0.25626802
189	0x3d177c37	0.036983695
190	0xbdf914cf	-0.12162172
191	0xbcf3f4f0	-0.029779881
192	0xbd79d7cd	-0.06099682
193	0x3e04750f	0.1293528
194	0xbd52bef4	-0.05145164
195	0x3dda8c44	0.10671285
196	0x3e0324f3	0.12807064
197	0x3d33534c	0.04378061
198	0x3e2fbcd4	0.17161876
199	0x3e679219	0.22614326
200	0x3e33fdd4	0.17577296
201	0x3d369031	0.044571105
202	0xbd853923	-0.065050386
203	0xbe0f12a8	-0.1397196
204	0xbd6d8fdb	-0.05799852
205	0xbd8e0a6d	-0.06935582
206	0xbdd86066	-0.105652615
207	0x3df7a10f	0.12091266
208	0x3e297d04	0.16551596
209	0x3e6a5498	0.22883832
210	0x3d430a2a	0.047617115
211	0xbdb38a7b	-0.087666474
212	0x3e0dfa7b	0.13865082
213	0xbcaffb4b	-0.02148213
214	0x3d842dcd	0.06454048
215	0x3e8bcfcd	0.27306977
216	0x3e38ceea	0.18047681
217	0xbd0d7731	-0.034537498
218	0x3e9b1567	0.30289766
219	0xbe0d4480	-0.13795662
220	0xbe2dfd2b	-0.16991107
221	0xbc967fb7	-0.018371446
222	0xbe384bb5	-0.1799763
223	0x3de78194	0.11304012
224	0x3d9e610f	0.07733356
225	0x3ccecee3	0.025245136
226	0xbde18ce9	-0.110132046
227	0x3dce4af8	0.10072893
228	0x3dac5f25	0.08416585
229	0xbde16a69	-0.11006624
230	0x3db2cd59	0.08730573
231	0x3e0c4985	0.1369992
232	0x3e032d54	0.1281026
233	0xbba2810b	-0.004959231
234	0x3d715ccb	0.058926385
235	0x3e074d7d	0.13213153
236	0x3e9deaf7	0.30843326
237	0x3e0091af	0.12555574
238	0xbd210681	-0.039312843
239	0x3f124f5e	0.57152355
240	0x3bf1969b	0.00737269
241	0x3e5935ce	0.21211931
242	0x3e9e5b9c	0.30929267
243	0x3e097478	0.13423336
244	0x3dabd62b	0.08390459
245	0x3d8d7052	0.06906189
246	0xbd0f8898	-0.035042375
247	0x3dea4bc0	0.114402294
248	0xbbf91b64	-0.007602142
249	0xbc65eb03	-0.014033082
250	0x3db26184	0.08710006
251	0x3d855ac2	0.06511451
252	0xbd3f46a6	-0.046698235
253	0xbd907d3d	-0.07055137
254	0xbe13af22	-0.14422277
255	0x3db67f3d	0.089109875

conv2.bias f4 [16]
0	0xbd4c692c	-0.049904987
1	0x3db1a626	0.086742684
2	0x3cbbcc45	0.022924552
3	0xbc4e4f61	-0.012592168
4	0x3c1a8634	0.009431411
5	0x3d090800	0.033454895
6	0x3cd52a29	0.02602108
7	0xbdbad4a4	-0.09122589
8	0xbce5346d	-0.0279791
9	0xbd8ac350	-0.06775534
10	0xbb7d27e5	-0.0038628515
11	0x3dfb463e	0.12269257
12	0x3c58949c	0.013219025
13	0xbdd34a77	-0.103169374
14	0x3bab417b	0.0052263117
15	0x3dccaec5	0.09994272

conv3.weight f4 [32, 16, 3, 3]
0	0x3e013d9e	0.12621161
1	0x3e0f89f0	0.14017463
2	0x3e0762d9	0.13221301
3	0xbdadf507	-0.08494001
4	0x3d53e0f7	0.051728215
5	0x3de565b4	0.11201039
6	0xbc2c5816	-0.010519048
7	0xbd82c527	-0.0638526
8	0x3d98e494	0.07465473
9	0x3dab6b0f	0.08370029
10	0xbd2bd655	-0.04195245
11	0x3c9cf718	0.019160792
12	0xbd308ac1	-0.043101076
13	0x3d2eb0ad	0.04264896
14	0xbc1ed359	-0.009693944
15	0x3ccb68be	0.024830218
16	0xbce1ae3d	-0.027548904
17	0x3d60853e	0.05481457
18	0xbdecdb0b	-0.11565217
19	0xbd65c860	-0.056099296
20	0xbdc2b431	-0.09507025
21	0xbbddc51c	-0.006767882
22	0xbcbee500	-0.023302555
23	0x3ce34874	0.02774451
24	0x3e106577	0.14101206
25	0xbc5b70ce	-0.013393594
26	0x3dede137	0.11615222
27	0xbcfb65db	-0.030688217
28	0x3ded4845	0.1158605
29	0xbcd7a7f6	-0.026325207
30	0x3c86c7aa	0.01645263
31	0xbc3c1389	-0.011479267
32	0x3d64a411	0.05582053
33	0x3df95477	0.121743135
34	0x3d6bd398	0.05757484
35	0x3cd618c1	0.02613485
36	0x3d06b275	0.032885034
37	0x3c15ee63	0.009151074
38	0xbb64f617	-0.003493672
39	0xbe1827ca	-0.14858928
40	0x3d105a2e	0.035242252
41	0x3dabf166	0.083956525
42	0x3bb75152	0.005594411
43	0x3d10394a	0.035210885
44	0x3c4bd62f	0.012441202
45	0xbde64078	-0.11242765
46	0x3b10c826	0.0022091954
47	0x3d4e8aa7	0.050425198
48	0x3d35ee5c	0.04441677
49	0x3de2af53	0.11068597
50	0x3d8deaeb	0.06929573
51	0xbdb62269	-0.08893282
52	0x3cb69741	0.02228892
53	0x3e4d099b	0.20023195
54	0x3cc1a06a	0.023636062
55	0x3e235c2c	0.1595313
56	0x3dec0c02	0.11525728
57	0xbd93573f	-0.07194375
58	0xba677c4d	-0.0008830473
59	0x3de022ac	0.10944113
60	0x3dc1e68b	0.09467801
61	0xbbff1465	-0.0077844136
62	0x3d933465	0.07187728
63	0x3c0a69f3	0.008448112
64	0xbdbe2b33	-0.09285583
65	0xbdac5c6f	-0.08416068
66	0xbc10239d	-0.008797553
67	0xbdab75b1	-0.08372057
68	0xbdbcb76e	-0.09214674
69	0xbdc1748f	-0.0944606
70	0xbd261142	-0.040543802
71	0xbe58a1b5	-0.21155436
72	0x3b47e18b	0.0030499424
73	0x3d84513a	0.06460805
74	0xbca38dd3	-0.019965088
75	0x3d958947	0.07301574
76	0x3e657634	0.22408372
77	0x3bed43f8	0.0072407685
78	0x3d0e6e06	0.034772895
79	0x3ce86e64	0.02837295
80	0xbdf8d5ec	-0.12150177
81	0x3caa666f	0.020800797
82	0x3db25103	0.08706858
83	0xbdedb543	-0.116068386
84	0x3b2e781f	0.002662189
85	0x3d7d8507	0.061894443
86	0xbc3dc822	-0.01158336
87	0xbde1df35	-0.110289015
88	0xbb878b9b	-0.0041365153
89	0xbd1f2da5	-0.03886189
90	0x3d332455	0.04373582
91	0x3dd77d63	0.105219625
92	0xbd2edb3e	-0.042689554
93	0x3ccd1e72	0.025038932
94	0xbd2b5232	-0.041826434
95	0xbce1b8ba	-0.027553905
96	0xbd85e9bd	-0.06538723
97	0xbda7b6f9	-0.08189196
98	0xbda63fcd	-0.08117638
99	0x3c517bf4	0.0127859
100	0xbdc736db	-0.0972726
101	0x3cac7381	0.02105117
102	0xbcce1488	-0.025156274
103	0xbd12cf75	-0.035842378
104	0x3dcd1be4	0.10015085
105	0xbd74ddf8	-0.059782
106	0x3d4e4e99	0.050367925
107	0xbc38e536	-0.011285117
108	0xbd428576	-0.04749056
109	0xbd41c6c6	-0.047308706
110	0x3bc37111	0.0059644063
111	0xbd66d662	-0.056356795
112	0x3dd00e4b	0.10158976
113	0x3db71bbc	0.08940837
114	0xbcbc17a4	-0.022960491
115	0x3dd0d288	0.10196406
116	0xbcc18ae0	-0.023625791
117	0x3df6c5d0	0.120494485
118	0x3d378333	0.044802856
119	0xbd7a9cf2	-0.06118483
120	0x3d4c235b	0.049838405
121	0x3e2f3153	0.1710866
122	0x3db5632d	0.08856807
123	0x3d420f15	0.047377665
124	0x3e2a4bf8	0.16630542
125	0x3ccaf7c5	0.024776349
126	0xbdb9f9d3	-0.09080853
127	0xbd34b73f	-0.04412007
128	0xbb613948	-0.0034366418
129	0x3d873a0c	0.066028684
130	0xbd58e97e	-0.05295705
131	0x3cc40db0	0.023932308
132	0xbe3519ca	-0.17685619
133	0xbdfdffc6	-0.124023005
134	0xbe3033b7	-0.17207228
135	0xbd78b36c	-0.060717985
136	0x3dc3df35	0.09564058
137	0x3d4d9bf5	0.05019756
138	0x3d7c67b6	0.061622344
139	0xbd882ba3	-0.06648948
140	0x3bc17c37	0.0059047
141	0xbdf9f841	-0.12205554
142	0xbd284670	-0.0410828
143	0x3d7661d5	0.060151894
144	0x3dfb111b	0.12259122
145	0x3dd74a03	0.105121635
146	0x3d77f24c	0.060533807
147	0x3d8ec8c9	0.069718905
148	0x3dbee8ae	0.09321724
149	0x3d014e4b	0.031568807
150	0x3dfe8229	0.1242717
151	0xbcd11dc0	-0.025526881
152	0x3ddfaa67	0.109211735
153	0x3d078a8c	0.033091113
154	0xbd8815cc	-0.066447824
155	0xbd64ea2e	-0.055887394
156	0x3c1bf681	0.00951922
157	0xbd93b849	-0.07212884
158	0xbd88499b	-0.06654664
159	0xbccad903	-0.024761682
160	0x3cea39b2	0.028591964
161	0xbd879e76	-0.06622021
162	0xbd6db194	-0.05803068
163	0x3cf5ac41	0.029989364
164	0x3d46c785	0.04853012
165	0x3d6616dd	0.056174148
166	0xbd8e6c7f	-0.06954288
167	0xb8d027f4	-9.925655e-05
168	0x3e023ba5	0.12718065
169	0x3d7c64f6	0.06161972
170	0x3cfd5189	0.030922668
171	0x3da81ef5	0.082090296
172	0x3db28e3a	0.08718534
173	0x3cf959af	0.030438272
174	0xbba4ba6b	-0.0050271056
175	0x3c92bb7e	0.017911669
176	0xbbd7b1b8	-0.006582465
177	0xbccfe368	-0.02537699
178	0x3c4a8a91	0.012362138
179	0xbdbb5a68	-0.09148103
180	0x3d64653e	0.055760615
181	0x3d16a67a	0.03677986
182	0xbd96a921	-0.073564775
183	0x3cfce66e	0.030871596
184	0xbd226122	-0.039643414
185	0xbd5a99c8	-0.053369313
186	0xbdeb0006	-0.11474614
187	0x3d8bf6fc	0.06834218
188	0xbd97cdaa	-0.07412274
189	0xbda04cb5	-0.07827131
190	0xbcad2057	-0.021133585
191	0xbce8f866	-0.028438758
192	0x3cb7c045	0.022430548
193	0xbc5cd607	-0.0134787625
194	0xbd7162a1	-0.05893195
195	0xbdce0d83	-0.10061171
196	0xba11ca6f	-0.0005561476
197	0x3c5f1e61	0.013618083
198	0xbc875983	-0.016522175
199	0x3debc6a8	0.115125
200	0x3ddd40c6	0.1080337
201	0x3dafbc8d	0.08580885
202	0x3db71e3f	0.08941316
203	0x3db1661b	0.08662053
204	0x3db92093	0.09039416
205	0x3d90c88e	0.07069503
206	0x3d80b2e8	0.06284124
207	0x3dbdb60d	0.09263239
208	0xbdbbded6	-0.09173362
209	0x3e268a36	0.16263661
210	0xbdde56b6	-0.108563825
211	0xbd852216	-0.06500642
212	0xbde2c41d	-0.11072562
213	0x3d614667	0.05499878
214	0x3d96252e	0.0733131
215	0xbda6ce5e	-0.0814483
216	0xbda8c3bd	-0.08240459
217	0x3d889e53	0.06670823
218	0xbcc7529f	-0.024331389
219	0x3dcfc0e4	0.10144213
220	0x3dbd023a	0.0922894
221	0x3d64ec24	0.055889264
222	0xbda206e5	-0.07911471
223	0xbdacb4d3	-0.08432927
224	0x3d069d62	0.032864936
225	0x3d351a60	0.044214606
226	0x3c8173de	0.01580232
227	0xbd881e1b	-0.06646367
228	0x3c250c27	0.010073698
229	0xbd40602e	-0.046966724
230	0xbd8ff915	-0.070299305
231	0x3b54128d	0.003235969
232	0x3de978dc	0.11400005
233	0xbda811b0	-0.082064986
234	0xbd1ac949	-0.037789617
235	0xbd9a6990	-0.07539666
236	0xbdcb7245	-0.099339046
237	0xbd7f3fc2	-0.062316664
238	0xbd8b203a	-0.06793256
239	0x3cc74ed9	0.02432959
240	0x3b791310	0.0038005747
241	0xbc9deb65	-0.019277284
242	0xbcadb3ae	-0.021203842
243	0x3d2d76d5	0.042349655
244	0xbd8f1c99	-0.069878764
245	0x3cf5a45a	0.029985595
246	0x3ca271fd	0.019829744
247	0x3b3129ff	0.0027033088
248	0x3da4545c	0.08023903
249	0xbcd226a8	-0.025653198
250	0x3d9c3749	0.07627732
251	0xbca4fead	-0.02014097
252	0xbe05a302	-0.13050464
253	0xbce321e2	-0.027726118
254	0xbda6921a	-0.081333354
255	0x3decf273	0.11569681

conv3.bias f4 [32]
0	0x3d42e563	0.04758204
1	0x3d199578	0.03749606
2	0xbda737c8	-0.08164936
3	0x3d898053	0.06713929
4	0x3d1d0420	0.038334012
5	0x3d03db95	0.03219183
6	0x3d8f110d	0.06985674
7	0xbc1f54b7	-0.009724787
8	0x3ac9e5c5	0.001540356
9	0x3d995614	0.07487121
10	0x3d4d2cd8	0.050091594
11	0xbd1bcd11	-0.038037363
12	0x3da4e6c5	0.08051828
13	0x3d5e07cc	0.054206654
14	0x3d89b220	0.06723428
15	0xbc9955bf	-0.018717645
16	0xbce240ce	-0.027618792
17	0x3d4b0fd4	0.04957564
18	0x3d63989c	0.05556546
19	0xbd83a6d4	-0.06428304
20	0xbb8381fe	-0.004013299
21	0x3d93ddeb	0.07220062
22	0xbbf468be	-0.0074587753
23	0x3d3ceaa6	0.046122216
24	0xbd37d6ce	-0.044882588
25	0xbc659311	-0.014012114
26	0x3d4e350c	0.05034356
27	0x3d17fe49	0.03710774
28	0x3d90c0a7	0.070679955
29	0xbd6811d1	-0.056657616
30	0x3d1924c1	0.037388567
31	0xbd2d4fae	-0.042312317

layer1.weight f4 [128, 804]
0	0x3bffc083	0.0078049316
1	0xbc8b8458	-0.01703088
2	0x3c63fd1d	0.013915327
3	0x3cefb9f0	0.029263467
4	0x3ba0db04	0.004908921
5	0x3d178417	0.036991205
6	0x3d013982	0.031548984
7	0x3d266e84	0.04063274
8	0x3b93b3ea	0.0045075314
9	0xbcbeb150	-0.023277909
10	0x3cd0a43d	0.02546894
11	0x3caacb43	0.020848876
12	0x3d02e9a5	0.031961102
13	0xbc8a66f5	-0.016894797
14	0xbcfae202	-0.030625347
15	0xbabefc47	-0.0014571034
16	0x3cda8d95	0.02667884
17	0x3cce5ac1	0.02518976
18	0xbc3e4548	-0.011613198
19	0xbd29ed51	-0.04148609
20	0x3d7efd8a	0.062253512
21	0x3c0ace1b	0.008471991
22	0x3ced2d47	0.028952254
23	0x3d1b798d	0.037957717
24	0x3cd2ec9a	0.025747586
25	0xbb5aac62	-0.0033366908
26	0xbbc6afe2	-0.0060634473
27	0x3d166443	0.03671671
28	0xbbd9d622	-0.006647841
29	0xbb2da37f	-0.0026495156
30	0x3bfbc7bc	0.0076837223
31	0x3b82ddbb	0.0039937175
32	0x3d47a93e	0.048745386
33	0x3d06d038	0.032913417
34	0xbb36129d	-0.002778209
35	0x389c0e39	7.441309e-05
36	0x3c1bab2a	0.009501258
37	0xbc0e87e0	-0.008699387
38	0xbca27337	-0.01983033
39	0x3b86d152	0.0041143084
40	0xbcb56980	-0.022145033
41	0x3d8c752f	0.068582885
42	0x3d371465	0.044697184
43	0x3ce4d550	0.027933747
44	0x3befb261	0.0073149656
45	0x3cbbc1b3	0.022919511
46	0x3cb5202a	0.022110064
47	0x375474f0	1.2663411e-05
48	0x3c899486	0.016794454
49	0x3d49886e	0.049202375
50	0x3cb2ada2	0.02181131
51	0xbd2415ec	-0.04005997
52	0xbc80990b	-0.015697977
53	0x3d441732	0.047873683
54	0xbd3208e1	-0.0434655
55	0x3d0e611d	0.034760583
56	0xbd11d0b8	-0.03559944
57	0x3c3dd9a2	0.011587532
58	0x3a21072e	0.00061427325
59	0x3bcaa5e4	0.0061843265
60	0x3cc877c0	0.024471164
61	0x3ce5eb06	0.02806617
62	0xbc3ee706	-0.01165176
63	0x3bea1330	0.0071434006
64	0x3c193186	0.009350186
65	0x3b5da28a	0.0033818805
66	0x3c82c212	0.01596168
67	0x3cda6b0d	0.026662374
68	0xbc306318	-0.010765813
69	0xbd408a74	-0.04700704
70	0x3c699998	0.014257811
71	0xbc8606b5	-0.01636062
72	0x3bf091ec	0.007341614
73	0xbcb0ea2e	-0.02159604
74	0xbcb26b5d	-0.02177971
75	0xbd13a5ea	-0.0360469
76	0x3d5cbabc	0.05388902
77	0x3d0de797	0.03464469
78	0xbae322ec	-0.0017329133
79	0x3d293678	0.04131171
80	0xbc0fce5b	-0.008777226
81	0x3bdd7cff	0.0067592855
82	0x3d5de281	0.05417109
83	0x3cca46e6	0.02469201
84	0x3d703397	0.05864295
85	0x3cbac5ab	0.022799334
86	0x3d74bbe1	0.059749488
87	0x3cfbd562	0.030741397
88	0x3d734b16	0.05939778
89	0x3c6fa452	0.014626579
90	0xbce164d6	-0.027513903
91	0x3d226101	0.03964329
92	0x3a89d0f0	0.0010514539
93	0x3c90ac30	0.01766023
94	0x3cd3a798	0.02583675
95	0xbcf3f6c3	-0.029780751
96	0x3d03533e	0.032061808
97	0x3d88bb38	0.06676334
98	0x3cbb2035	0.022842506
99	0x3d410a95	0.047129232
100	0xbd297f22	-0.04138101
101	0xbc12ee41	-0.008967937
102	0x3d4c46a1	0.049872044
103	0xbc4692f0	-0.012119994
104	0xbd6f0256	-0.058351837
105	0xbc802b54	-0.01564566
106	0xbd38258f	-0.044957694
107	0xbc9f5d4d	-0.019453669
108	0x3c4ac2a2	0.012375506
109	0x3c4a443c	0.01234537
110	0x3d517b25	0.05114283
111	0x3cdc0f9d	0.026862914
112	0x3c5187e7	0.012788749
113	0x3ca1d5e5	0.019755313
114	0x3d2bf27a	0.04197929
115	0x3d5425f3	0.051794004
116	0x3d1e419b	0.038636785
117	0x3cfbb3a2	0.030725304
118	0x3cde9168	0.027168944
119	0xbcd12cbb	-0.025534024
120	0x3d8785d2	0.06617321
121	0x3d6663f6	0.056247674
122	0xbc710918	-0.014711641
123	0x3ce49a8d	0.027905727
124	0xbd2ba174	-0.04190202
125	0x3c64d543	0.013966861
126	0x3a002312	0.00048880384
127	0x3c7d0560	0.015443176
128	0x3d1ff53e	0.03905224
129	0x3d249372	0.040179677
130	0x3d4429a3	0.04789127
131	0x3cce8552	0.025210056
132	0xbbcbc3cb	-0.0062184087
133	0x3b5083c7	0.0031816827
134	0x3bc80de6	0.0061051724
135	0x3b6a47a0	0.0035748258
136	0x3d058d72	0.032605596
137	0x3c4d52c4	0.01253194
138	0xbcc8b0ba	-0.024498332
139	0x3d66bd49	0.05633286
140	0x3c98ca35	0.018651107
141	0x3c86c68c	0.016452096
142	0x3c93751e	0.018000182
143	0x3d184b53	0.03718121
144	0xbacfd367	-0.001585585
145	0x3aa025e7	0.0012218327
146	0xbc019c88	-0.007910855
147	0xbb3c6695	-0.0028747667
148	0x3d02cdb0	0.03193444
149	0x3d810c55	0.0630118
150	0x3d1cbe03	0.038267147
151	0x3cd7b592	0.026331697
152	0x3c3d37ea	0.0115489755
153	0xbd0982cb	-0.033572
154	0xbc883fa0	-0.016631901
155	0x3cbe2bbc	0.023214214
156	0xbcb2e473	-0.021837449
157	0x3d30f919	0.043206308
158	0x3d225265	0.03962936
159	0x3b1417c6	0.0022597178
160	0x3d3d165b	0.046163898
161	0xbbf2c86e	-0.007409147
162	0x3c34e779	0.0110415155
163	0x3d17d7e3	0.03707112
164	0x3cf05143	0.029335624
165	0x3d46195e	0.048364036
166	0x3c373f20	0.011184484
167	0xbaacfc5c	-0.0013197768
168	0x3ce955bd	0.028483266
169	0x3d0a1045	0.033706922
170	0x3d61a970	0.05509323
171	0x3ce56146	0.028000485
172	0xbc467a56	-0.012114128
173	0xbb7ad235	-0.0038272266
174	0x3d35da9a	0.044397928
175	0xbcd915e6	-0.0264997
176	0xbb9d06b7	-0.0047920602
177	0x3b142847	0.0022607015
178	0x3cbe1fb1	0.023208471
179	0x3ccaa5a2	0.024737183
180	0xbbf20e1d	-0.0073869363
181	0xbb099e9f	-0.0020999087
182	0xbbee4e05	-0.0072724842
183	0xbcd546d7	-0.026034756
184	0x3d1994c5	0.037495393
185	0xbc88c57f	-0.016695736
186	0x3d2ef443	0.042713415
187	0x3d0e3efc	0.034728035
188	0x3a12e935	0.00056042086
189	0xbb8ad55b	-0.0042368597
190	0x3ba5c6ff	0.0050591226
191	0x3c4838bc	0.012220558
192	0xbca4f023	-0.020134037
193	0xbc8d9d57	-0.01728694
194	0x3c7f0f16	0.015567562
195	0x3d3c417f	0.0459609
196	0x3d2b823e	0.041872256
197	0x3d2a80bf	0.041626688
198	0xbcd14798	-0.025546834
199	0x3c11e77f	0.008905291
200	0xbd12e6c7	-0.035864618
201	0x3cbcab15	0.023030797
202	0x3cfbb701	0.030726912
203	0x3cc2bc2f	0.023771374
204	0x3cfe564d	0.03104701
205	0x3d4796a4	0.048727646
206	0x3c65f63d	0.014035759
207	0xbbd4b51a	-0.0064913156
208	0x3d078ad2	0.033091374
209	0x3d020f96	0.031753145
210	0x3c8c72d8	0.017144606
211	0xbc25a6f7	-0.010110608
212	0x3d26fe9b	0.040770154
213	0x3cdf3adb	0.027249744
214	0x3c7de378	0.015496127
215	0xbaa68ef6	-0.0012707401
216	0xbbb48d80	-0.005510032
217	0x3cf96652	0.030444298
218	0x3d04aff9	0.032394383
219	0x3a4cc3de	0.0007811169
220	0xbcfdb077	-0.030967934
221	0xbcfce4a0	-0.030870736
222	0x3d3a6c14	0.045513228
223	0x3d1aefac	0.037826225
224	0x3c3ea354	0.01163562
225	0x3dac55c4	0.08414796
226	0x3d20f328	0.039294392
227	0x3d43d5cd	0.04781132
228	0xbaa64983	-0.0012686703
229	0x3be60029	0.007019062
230	0x3c8acf4b	0.016944548
231	0xbcd1138e	-0.02552202
232	0x3d0d02fb	0.03442667
233	0x3d3c8be3	0.046031844
234	0xbc3523d7	-0.011055908
235	0x3d0f8a2b	0.035043877
236	0x3d8ecfea	0.0697325
237	0x3d3c582d	0.04598253
238	0x3d2fd70d	0.042929698
239	0xbce07f20	-0.027404368
240	0x3d6893a4	0.056781426
241	0x3cf2b126	0.029625487
242	0x3c8fb912	0.017544303
243	0x3ca4160e	0.020030048
244	0x3cbd940b	0.023141881
245	0x3d44e1bb	0.048066836
246	0x3bc4dc33	0.006007695
247	0x3d15ca1a	0.036569692
248	0x3d0cb5eb	0.034353178
249	0x3cfe73b9	0.03106104
250	0x3d335301	0.04378033
251	0x3cca9ccc	0.02473297
252	0x3d4e9fee	0.05044549
253	0x3dc2e35d	0.09516022
254	0x3dc2c09b	0.09509393
255	0xbd0b39b1	-0.033990566

layer1.bias f4 [128]
0	0x3d2200d2	0.039551564
1	0x3c95fe8b	0.018309852
2	0x3c498a01	0.012300969
3	0x3b9685c9	0.004593585
4	0x3bb29cf3	0.0054508387
5	0xbc984be0	-0.018590868
6	0x3cb7e6e2	0.02244896
7	0xbcab6cfa	-0.020925988
8	0xbca2384d	-0.019802237
9	0xbd07aeb0	-0.03312558
10	0xbc1df5af	-0.009641095
11	0x3cd42948	0.02589859
12	0xba831cf2	-0.0010003133
13	0x3baaf9b8	0.005217757
14	0xbc073be9	-0.00825403
15	0x3ce20151	0.027588518
16	0xbce0c212	-0.02743629
17	0x3cb866a5	0.022509882
18	0xbbbbde6d	-0.0057333023
19	0xbc721462	-0.014775367
20	0x3cb5aaa4	0.022176094
21	0xbc5d0119	-0.013489031
22	0xbaaa7f29	-0.0013007867
23	0xbc9c248a	-0.019060392
24	0xbbd8280c	-0.006596571
25	0x3ca7a700	0.020465374
26	0x3d0823c4	0.033237234
27	0xbb45f429	-0.0030205345
28	0x3b4af239	0.003096713
29	0x3d039569	0.03212491
30	0x3d4450b6	0.047928534
31	0xbbc7562e	-0.0060832715
32	0x3cdf0efb	0.027228823
33	0x3c50132b	0.0126998825
34	0x3cc18f73	0.023627972
35	0x3cb31938	0.021862611
36	0x3bfedfc4	0.00777814
37	0xbc7494dc	-0.014928069
38	0x3c1399c6	0.00900883
39	0xbcd70977	-0.02624963
40	0xbd25381d	-0.040336717
41	0xbccddaea	-0.0251288
42	0xbd175f04	-0.03695585
43	0xbb582c13	-0.0032985255
44	0xbb46ef92	-0.0030355197
45	0xbce0ccff	-0.0274415
46	0x3c43ca2e	0.011950059
47	0xbbf4abd7	-0.007466774
48	0xbd0f0c65	-0.03492393
49	0xbbac716f	-0.005262546
50	0xbcce673a	-0.025195707
51	0x3cc40aa6	0.023930859
52	0xbc565edb	-0.013084139
53	0x3c80374c	0.015651368
54	0x3ca46b40	0.020070672
55	0xbc30307b	-0.010753746
56	0x3ce8148f	0.028330116
57	0x3c1fcad0	0.009752944
58	0x3c74b8df	0.014936655
59	0xbc624934	-0.013811398
60	0x3ca3491e	0.019932326
61	0x3cfdbca0	0.030973732
62	0x3cfde969	0.030995088
63	0x3c4801e9	0.012207487
64	0xbc32662a	-0.010888616
65	0x3cecb962	0.028896991
66	0xbccca496	-0.024980824
67	0x3c2a263c	0.010385092
68	0x3c9aa922	0.018879477
69	0xbd18ab6b	-0.037272852
70	0xbba2e289	-0.0049708528
71	0x3ae16a3d	0.0017197799
72	0xbd097bf0	-0.03356546
73	0xbc1be2c1	-0.009514512
74	0x3d17fcd0	0.037106335
75	0x3cca2cb0	0.024679512
76	0x3c40f150	0.011776283
77	0xbcbe47bc	-0.023227565
78	0xbcfe5cc3	-0.031050092
79	0xbc863b66	-0.016385745
80	0xbccf0fc9	-0.025276082
81	0xbd023ec4	-0.03179814
82	0xbae216f3	-0.0017249271
83	0x3cd88ff2	0.026435826
84	0xbc9f5960	-0.019451797
85	0x3c2a9cf2	0.010413395
86	0xbb426225	-0.002966055
87	0x3bc0c599	0.0058829305
88	0xbce50b1e	-0.027959403
89	0x3d23943c	0.03993629
90	0xbd2f67f1	-0.042823736
91	0x3c1db810	0.009626403
92	0xbc54c512	-0.012986438
93	0xbcf7a60b	-0.030230543
94	0x3c85e0b5	0.0163425
95	0x3be86be2	0.0070929388
96	0xbccfde31	-0.025374504
97	0x3c9955c6	0.018717658
98	0xbc33dd72	-0.01097809
99	0xbcfaea24	-0.030629225
100	0xbc8bacfd	-0.01705026
101	0x3d0b6f9d	0.03404199
102	0x3caaf506	0.02086879
103	0x3cef70d6	0.029228609
104	0xbc88e7eb	-0.01671215
105	0x3a04b84d	0.00050628633
106	0x3c2823c5	0.010262434
107	0x3a9d4afd	0.0012000498
108	0x3d05ef82	0.032699116
109	0xbcedc4e3	-0.029024547
110	0x3bc23f2d	0.0059279413
111	0x3cd0734f	0.025445608
112	0xbab96c6f	-0.0014146696
113	0xbc91f5f3	-0.017817473
114	0x3d2412af	0.04005688
115	0xbceca494	-0.02888707
116	0x3c874e12	0.016516719
117	0x3c97bdb5	0.018523077
118	0xbc943e80	-0.018096209
119	0x3cf1378c	0.029445432
120	0x3ccf06d5	0.025271812
121	0xbba37702	-0.004988552
122	0xbd080c3d	-0.033214796
123	0x3d1cb279	0.038256142
124	0x3c1b2531	0.009469316
125	0xbcd0cb18	-0.025487468
126	0x3c8071be	0.015679237
127	0xbc1443c9	-0.009049364

layer2.weight f4 [128, 128]
0	0xbbc7af7a	-0.0060939165
1	0xbcceba40	-0.025235295
2	0x3cb1f340	0.021722436
3	0x3cb26316	0.021775763
4	0xbd853b7e	-0.06505488
5	0xbdf4adf9	-0.11947245
6	0x3e2c8df4	0.16851026
7	0xbd7a19a2	-0.0610596
8	0x3cd05ea4	0.025435753
9	0xbc8fb3bc	-0.017541759
10	0x3ee6f015	0.45105043
11	0x3bdf3042	0.0068111727
12	0x3dd4eb61	0.103964575
13	0xbd95eed0	-0.073209405
14	0xbd27f90c	-0.041008994
15	0xbdef472a	-0.11683495
16	0x3a37385c	0.0006989294
17	0x3d93cee2	0.07217194
18	0xbd7cac55	-0.061687786
19	0x3e881dd7	0.26585266
20	0xbd212df0	-0.03935045
21	0xbdbee822	-0.093216196
22	0x3d979d70	0.07403076
23	0x3d8af556	0.06785075
24	0xbd2b93de	-0.041889064
25	0x3c858f75	0.016303757
26	0x3d9973e2	0.07492806
27	0xbdd346b1	-0.10316218
28	0xbd8dc669	-0.06922609
29	0x3df4e19e	0.119570956
30	0x3d1db0be	0.038498633
31	0xbc25efa2	-0.010127934
32	0xbd930404	-0.071785
33	0xbda6f8df	-0.08152937
34	0x3cf6547a	0.030069578
35	0xbd17a194	-0.037019327
36	0xbd423eb1	-0.04742307
37	0x3d0c408d	0.034241248
38	0xbe4665c4	-0.19374758
39	0x3db91ace	0.09038316
40	0x3b73037e	0.003708094
41	0x3d01c2d0	0.03167993
42	0xbb9c7cc8	-0.0047756173
43	0x3c3f04f6	0.011658898
44	0x3d0d26ea	0.03446094
45	0x3da494e7	0.08036213
46	0x3e384cc4	0.17998034
47	0xbd5307aa	-0.05152098
48	0x3bad8b66	0.0052961586
49	0xbc4f62ea	-0.01265786
50	0xbd154282	-0.03644038
51	0xbddfc630	-0.10926473
52	0xbdea46ca	-0.11439283
53	0xbce0893b	-0.027409187
54	0xbd509be1	-0.050929908
55	0xbdb2df01	-0.08733941
56	0xbdcf4378	-0.101202905
57	0x3d9d07b9	0.076674886
58	0x3dccd74f	0.10002004
59	0xbb495304	-0.0030719647
60	0xbd469365	-0.04848041
61	0x3c50a67f	0.012735008
62	0x3d4222b1	0.047396366
63	0x3cab2bc6	0.020894896
64	0x3d6fcc78	0.058544606
65	0xbd66c9b4	-0.056344703
66	0xbe24ead8	-0.16105211
67	0x3d00e144	0.03146483
68	0x3e22c080	0.15893745
69	0x3e6f2718	0.23354757
70	0x3d3dc0c7	0.046326425
71	0xbe361858	-0.17782724
72	0xbdd2cea7	-0.10293322
73	0x3d7a1093	0.061050963
74	0x3d8955ba	0.06705804
75	0x3e01cc2b	0.1267554
76	0xbd707b60	-0.05871141
77	0x3d9e8516	0.07740228
78	0xbd7d71a5	-0.061875958
79	0xbccc6684	-0.024951227
80	0x3e2df746	0.16988859
81	0x3e2dffc3	0.16992097
82	0x3dc67bfd	0.09691618
83	0x3c538ac6	0.012911504
84	0xbde77bd6	-0.11302917
85	0xbc742874	-0.014902223
86	0x3c139f97	0.009010217
87	0x3da7d848	0.08195549
88	0x3d2a8a83	0.041636
89	0xbe32f9cf	-0.17478107
90	0xbe184a55	-0.14872105
91	0xbc06b185	-0.008221035
92	0xbd647ac8	-0.055781156
93	0x3d6736d2	0.056448765
94	0xba3e4e33	-0.00072595774
95	0x3d5fb72c	0.054618046
96	0xba52d2e5	-0.000804229
97	0xbce7e537	-0.02830754
98	0xbd86eb6e	-0.065878734
99	0x3e150475	0.14552481
100	0x3d16c42a	0.03680817
101	0x3decafeb	0.11556991
102	0xbd3427c8	-0.04398325
103	0x3d2967ec	0.041358873
104	0xbb47812c	-0.0030441983
105	0x3d8367df	0.06416296
106	0xbdb9ae9e	-0.09066509
107	0x3da76583	0.08173659
108	0x3c7713c0	0.015080392
109	0xbd4ff9c0	-0.05077529
110	0xbd596230	-0.053072155
111	0x3cc77cae	0.024351444
112	0x3d28ae56	0.041181885
113	0x3e09d480	0.13459969
114	0x3ddc838b	0.10767277
115	0xbd9e2cb7	-0.077233724
116	0xbca13dc7	-0.019682778
117	0x3e8bdba5	0.27316013
118	0xbd983dc0	-0.07433653
119	0xbd3d46f4	-0.046210244
120	0x3cb1d683	0.021708732
121	0xbd7f89b5	-0.062387187
122	0x3ddfd123	0.109285615
123	0x3d3d2b1c	0.04618369
124	0xbdbd5248	-0.092442095
125	0x3b94e9b8	0.004544463
126	0xbd8355df	-0.06412863
127	0x3e821765	0.25408474
128	0xbc8b76e3	-0.017024463
129	0xbe065156	-0.13116965
130	0x3d4e0852	0.050300904
131	0x3db43959	0.08800001
132	0xbe1b2f5b	-0.15154783
133	0xbdebf116	-0.11520593
134	0xbd5071ff	-0.050889965
135	0x3c75da3c	0.015005644
136	0x3b87a11d	0.0041390792
137	0x3da6d55f	0.08146166
138	0xbcbafee4	-0.02282662
139	0xbe6b192e	-0.22958824
140	0xbdb54dcb	-0.088527285
141	0x3d80d2c1	0.06290198
142	0x3d10c5f4	0.035345033
143	0xbefb1ed8	-0.4904697
144	0x3c0a333b	0.008435066
145	0x3d1a490e	0.037667327
146	0x3ccee481	0.025255444
147	0xbd02191a	-0.03176222
148	0x3dd78e3b	0.10525175
149	0xbe149faf	-0.1451404
150	0x3da5cb44	0.080954105
151	0x3cc0ea65	0.023549268
152	0x3d673a06	0.05645182
153	0xbd467eef	-0.048460897
154	0x3df42fde	0.119231924
155	0x3dc43c90	0.09581864
156	0x3d4622fb	0.048373204
157	0xbd982944	-0.07429746
158	0xbd4cb25e	-0.04997479
159	0x3e7b3305	0.24531181
160	0x3bdd7983	0.00675887
161	0xbdb945a9	-0.0904649
162	0x3c38e819	0.011285805
163	0xbda92177	-0.08258336
164	0x3d9a318e	0.07528983
165	0x3d5a3d94	0.05328138
166	0xbac3cf16	-0.0014939036
167	0x3de70e95	0.11282078
168	0xbd29c68e	-0.041449122
169	0xbc8102ae	-0.015748348
170	0xbd5a4af7	-0.05329415
171	0x3ca57b92	0.020200524
172	0x3d924487	0.07141977
173	0x3d9c7cbe	0.0764098
174	0xbe783c9e	-0.24241874
175	0xbc07c304	-0.008286241
176	0xbc0afd31	-0.008483217
177	0xbca7be3f	-0.020476459
178	0x3bade1ef	0.0053064744
179	0xbe168e42	-0.14702705
180	0x3d8d10c2	0.06887962
181	0x3c03e993	0.008051294
182	0x3de2a103	0.11065867
183	0xbdab1b82	-0.08354856
184	0xbd56db1a	-0.052455045
185	0xbd75385c	-0.0598682
186	0x3e182dae	0.14861175
187	0x3d407579	0.04698703
188	0xbd30cf48	-0.04316643
189	0x3b20e9c5	0.00245534
190	0x3d4ac483	0.049503814
191	0x3e14599c	0.14487308
192	0xbd036d52	-0.032086678
193	0x3c697d4a	0.014251063
194	0xbdab4489	-0.083626814
195	0x3ab58b80	0.0013850778
196	0x3d7e2351	0.0620454
197	0xbeaec0b5	-0.341314
198	0xbd30cc9c	-0.04316388
199	0xbca5ff78	-0.020263419
200	0xbe34260c	-0.17592639
201	0xbc90578f	-0.017619876
202	0xbdbc4c10	-0.09194195
203	0x3e81c371	0.25344422
204	0xbd8c0a1e	-0.06837867
205	0x3e30b3ac	0.1725604
206	0x3da5d147	0.08096557
207	0xbd86f77b	-0.06590172
208	0x3eaf42bf	0.3423061
209	0x3e2b1c4b	0.16710012
210	0x3d385251	0.045000378
211	0x3d89a938	0.06721729
212	0x3d81ac4b	0.063316904
213	0xbe89d7b3	-0.26922378
214	0xbdc58b79	-0.09645743
215	0x3e69c55e	0.22829196
216	0x3d192dc0	0.037397146
217	0xbccc6153	-0.024948752
218	0xbd2dfe9c	-0.042479143
219	0x3df445e6	0.119273946
220	0x3cbaff4b	0.022826811
221	0xbcbfc427	-0.023408962
222	0xbde4eb7e	-0.11177729
223	0xbd4e23e6	-0.050327204
224	0xbd1fbee2	-0.0390004
225	0xbd50ad13	-0.050946306
226	0xbae865ba	-0.0017730512
227	0x3ccb8531	0.024843784
228	0x3d46f46e	0.04857295
229	0x3dc7f7ff	0.097640984
230	0xbe800e5e	-0.2501096
231	0xbc01ee3c	-0.007930335
232	0xbd8aa851	-0.06770385
233	0x3d166856	0.036720596
234	0xbd85bb90	-0.06529915
235	0xbc5ae16f	-0.013359412
236	0x3c6592b7	0.01401203
237	0x3a3e6fdc	0.0007264593
238	0x3d0808ab	0.03321139
239	0x3d8be5ec	0.068309635
240	0xbd883ac5	-0.066518344
241	0x3dc732de	0.09726499
242	0xbe8994b1	-0.26871255
243	0xbcd6ab4e	-0.026204731
244	0x3d9606a4	0.07325485
245	0x3e002bf8	0.12516773
246	0x3d4d18a7	0.05007234
247	0x3c73f19c	0.014889147
248	0x3e9cc456	0.30618542
249	0xbc8a7a9c	-0.016904168
250	0xbdab837f	-0.0837469
251	0x3c967115	0.018364469
252	0x3d45eddf	0.048322555
253	0x3cbca5f6	0.023028355
254	0xbe1cad65	-0.1530052
255	0xbdf280e5	-0.11840991

layer2.bias f4 [128]
0	0xbd477bdb	-0.048702102
1	0x3d800fe5	0.06253032
2	0xbd293b06	-0.041316055
3	0xbd5acdc9	-0.05341891
4	0xbce7ea5e	-0.028309997
5	0x3d26f42a	0.040760197
6	0x3d9c315a	0.076266006
7	0xbd9acd74	-0.07558718
8	0xbd1c0ecb	-0.038100045
9	0x3d8c0aee	0.06838022
10	0xbd50309d	-0.05082761
11	0xbc380cc1	-0.0112335095
12	0x3c9a9dc6	0.01887406
13	0xbbb5ef40	-0.0055522025
14	0xbcbd20ec	-0.023086987
15	0x3bf168ec	0.007367244
16	0x3ccc28ec	0.024921857
17	0x3dab97aa	0.08378537
18	0x3c7f3a23	0.015577826
19	0x3d1d623b	0.038423758
20	0x3d9ee4a7	0.07758456
21	0x3b50d77d	0.0031866722
22	0xbc45588e	-0.012045039
23	0xbd58da8a	-0.05294279
24	0xbcc0e4f2	-0.02354667
25	0xbab83740	-0.0014054552
26	0x3db86a89	0.09004695
27	0x3d0e2723	0.034705292
28	0x3c228442	0.009919228
29	0x3d851e60	0.06499934
30	0xbc8cf1f0	-0.017205209
31	0x3c1c6a73	0.009546864
32	0x3d52f9d2	0.05150778
33	0xbbeedf2c	-0.0072897878
34	0xbd584ff0	-0.05281061
35	0xbd6b4f07	-0.057448413
36	0x3d2b5aa5	0.041834492
37	0x3d588d59	0.052869175
38	0xbd7f66e1	-0.062353972
39	0xbd87097e	-0.06593607
40	0xbbcfea42	-0.0063450644
41	0xbd84220b	-0.06451806
42	0xbd00d85f	-0.031456348
43	0xbc6e0ed3	-0.014529902
44	0x3d7df78d	0.06200366
45	0x3a866a84	0.0010255133
46	0xbc28c96c	-0.010301929
47	0xbd2052f7	-0.03914162
48	0x3d1b6d76	0.037946187
49	0x3d1cda17	0.038293924
50	0x3dd4d9f0	0.10393131
51	0xbc586094	-0.01320662
52	0xbc0186da	-0.007905686
53	0x3bd8905e	0.006609007
54	0x3c25b275	0.010113348
55	0xbd93a713	-0.07209601
56	0x3d747834	0.059684947
57	0xbd9141e0	-0.07092643
58	0x3cda7c59	0.026670622
59	0x3d4e6c0b	0.050396007
60	0xbb3365b0	-0.0027373843
61	0xbd7230ea	-0.05912868
62	0x3d08b91f	0.03337967
63	0xbca10066	-0.01965351
64	0x3cf78ed2	0.03021947
65	0xbd584c12	-0.05280692
66	0xbd64f3e5	-0.05589666
67	0x3dd04764	0.10169867
68	0xbb379cfc	-0.0028017154
69	0x3d49cbe0	0.049266696
70	0xbce3ada4	-0.02779276
71	0xbd5fd895	-0.054649908
72	0xbd8cb9c8	-0.068713725
73	0xbd9a6fe5	-0.075408734
74	0x3da72250	0.081608415
75	0x3d8e79e8	0.069568455
76	0x3d9371e2	0.07199456
77	0x3dc4396a	0.09581263
78	0xbd4c141a	-0.049823858
79	0xbd2c1fb5	-0.042022426
80	0x3d8ec49e	0.069710955
81	0x3d697756	0.056998573
82	0x3c6854c1	0.014180363
83	0x3d4128d4	0.047158077
84	0xbcaa69dc	-0.02080243
85	0x3d8cdbf9	0.06877894
86	0x3d752e4c	0.059858605
87	0x3d42e30d	0.047579814
88	0x3b19d666	0.0023473739
89	0x3d9f1df9	0.07769389
90	0x3d5fbecc	0.054625317
91	0x3d9d31d8	0.076755226
92	0x3dc35a81	0.095387466
93	0xbc24b36a	-0.010052541
94	0xbd9e9d64	-0.07744864
95	0xbd23a477	-0.039951768
96	0x3d9385ce	0.072032556
97	0xbb6a3aef	-0.0035740694
98	0xbcbeeeb7	-0.023307187
99	0x3d4e729a	0.05040226
100	0x3c174652	0.009233074
101	0xbd75271c	-0.05985175
102	0x3d92ae29	0.07162125
103	0xbce78e5b	-0.028266123
104	0x3d5ed704	0.054404274
105	0x3d829fe7	0.06378155
106	0x3d80366d	0.06260381
107	0x3c992e1a	0.01869874
108	0xbb312cb5	-0.0027034704
109	0xbd45930a	-0.04823593
110	0x3cd8309a	0.026390363
111	0xbd631c8b	-0.055447143
112	0xbcf3e663	-0.029772943
113	0xbd216714	-0.039404944
114	0x3d7c545b	0.061603885
115	0xbd18a357	-0.037265148
116	0x3cb1ed83	0.0217197
117	0xbd8dd53b	-0.06925436
118	0xbd129dbc	-0.03579496
119	0x3da8843d	0.082283475
120	0x3d01abcf	0.03165799
121	0xbc8e2fad	-0.017356718
122	0x3d7520f7	0.05984589
123	0xbd1c665c	-0.038183555
124	0xbd584c8e	-0.052807383
125	0xbd4a45b3	-0.049382877
126	0xbdb07996	-0.08616941
127	0xbd3a9662	-0.045553572

layer3.weight f4 [4, 128]
0	0xbe1d65d2	-0.15370873
1	0xbeac5957	-0.3366191
2	0xbcc62877	-0.024189217
3	0xbd00e3f9	-0.03146741
4	0xba412615	-0.00073680404
5	0x3e2aa38b	0.16663949
6	0xbd31a0d4	-0.04336627
7	0x3da3111c	0.07962248
8	0xbe52c417	-0.20582615
9	0x3ede2602	0.43388373
10	0xbcd009fa	-0.025395382
11	0xbcef51d4	-0.029213823
12	0x3e693673	0.22774677
13	0x3e41293a	0.18863383
14	0x3e061ad5	0.13096173
15	0xbd33a4e4	-0.043858424
16	0x3e3bfa09	0.183571
17	0x3dfb63b3	0.122748755
18	0xbd4df492	-0.05028207
19	0x3a98e586	0.0011665083
20	0xbe6eea28	-0.23331511
21	0x3d2d11bf	0.042253252
22	0xbd0568c6	-0.032570623
23	0xbc448be3	-0.011996242
24	0x3d456b8c	0.048198268
25	0xbe1a3c61	-0.15062095
26	0x3e0f3c0e	0.13987753
27	0xbce5f934	-0.02807293
28	0x3db47d10	0.08812916
29	0xbdf34105	-0.11877636
30	0x3e25e919	0.16202201
31	0xbdd11e00	-0.102108
32	0xbddffb7a	-0.10936637
33	0x3d6201f4	0.055177644
34	0x3ca3aa97	0.019978805
35	0xbf175e2d	-0.59128076
36	0x3d6b8759	0.057502124
37	0x3e7c071d	0.24612089
38	0x3cf86c21	0.030324997
39	0xbda8d3fc	-0.08243558
40	0x3e1e580a	0.15463272
41	0x3d9a6539	0.07538838
42	0x3e720357	0.23634087
43	0x3d7c918e	0.06166225
44	0xbd82f285	-0.06393913
45	0xbe78ba47	-0.24289809
46	0xbd157fae	-0.036498718
47	0x3e37fc21	0.17967273
48	0xbdfba39c	-0.122870654
49	0x3e8b087b	0.27154908
50	0x3d99ab25	0.07503346
51	0xbed4ffde	-0.4160146
52	0x3d9ba636	0.076000616
53	0x3ee46807	0.44610617
54	0xbe656e14	-0.22405273
55	0x3e629507	0.22127162
56	0xbb296d64	-0.0025852555
57	0xbe18eced	-0.1493413
58	0xbe071b34	-0.13193971
59	0xbdc07ae2	-0.09398438
60	0x3e5b9dcc	0.21446913
61	0x3e5ab11a	0.21356621
62	0x3c98666a	0.018603522
63	0xbe1875ce	-0.14888689
64	0x3dc6412c	0.09680399
65	0xbe122950	-0.14273572
66	0x3ed9e25b	0.42555508
67	0x3e5f21a3	0.21790175
68	0xbd99aea8	-0.07504016
69	0xbe3ea3b5	-0.18617137
70	0x3e6aae15	0.2291797
71	0xbda0630e	-0.07831393
72	0xbd4a7e91	-0.04943711
73	0xbe821d4b	-0.25412974
74	0x3d86f9e3	0.06590631
75	0xbd101b6a	-0.035182394
76	0x3c8d1422	0.017221514
77	0x3e4404c8	0.19142449
78	0x3e746477	0.2386645
79	0x3d2d67ee	0.042335443
80	0x3eecbd7e	0.4623832
81	0x3e6af185	0.22943695
82	0x3e652d4d	0.22380562
83	0xbd53b66a	-0.051687635
84	0xbe250c14	-0.16117889
85	0xbdbfddad	-0.09368453
86	0x3d7c995e	0.0616697
87	0x3e42f743	0.19039635
88	0x3e94d68f	0.29069945
89	0xbe2fd340	-0.17170429
90	0xba3e4a0f	-0.00072589604
91	0xbe42d533	-0.19026642
92	0x3e2827dc	0.16421455
93	0xbe2f5c41	-0.17125036
94	0xbe63e38e	-0.22254774
95	0x3d2c219c	0.04202424
96	0x3e4564e5	0.1927677
97	0xbe95a86e	-0.29230064
98	0x3e216053	0.15759401
99	0x3d976d82	0.07393934
100	0x3e5db6d6	0.21651778
101	0xbd68a25f	-0.056795474
102	0xbdc09517	-0.09403437
103	0xbeba147e	-0.3634376
104	0xbe5ca83c	-0.21548551
105	0xbecc2d80	-0.39878464
106	0x3d9f45fa	0.07777019
107	0xbab9a87c	-0.0014164592
108	0xbe1f6d35	-0.15569003
109	0x3e37f6b3	0.17965202
110	0x3cad977b	0.021190396
111	0xbdb2e0bd	-0.08734272
112	0x3e74451b	0.23854487
113	0x3e54aa47	0.2076808
114	0x3e08faf9	0.13376988
115	0x3e12a741	0.14321615
116	0x3e9f98ed	0.3117136
117	0x3e0947ae	0.1340625
118	0x3d211107	0.03932288
119	0xbe833b42	-0.25631148
120	0xbe57d317	-0.21076618
121	0xbe0fe38a	-0.14051643
122	0xbe436b20	-0.19083834
123	0xbcf4176c	-0.029796325
124	0xbde4f4d8	-0.11179513
125	0xbe3a9227	-0.18219815
126	0xbe44c59f	-0.19216011
127	0x3e9fc562	0.3120528
128	0x3e1f40c0	0.15552044
129	0xbeae6a05	-0.3406526
130	0x3bafcb74	0.0053648297
131	0x3d920fb7	0.071319036
132	0x3ca58e57	0.020209474
133	0xbe78f843	-0.24313454
134	0xbd2ddcc8	-0.04244688
135	0xbda7863f	-0.08179902
136	0x3e02e216	0.12781557
137	0xbcfc46c9	-0.030795472
138	0xbe562fa6	-0.20916614
139	0xbd839339	-0.06424565
140	0x3e59f06a	0.21283117
141	0xbd19b9bf	-0.037530657
142	0xbe9eeb6b	-0.31038985
143	0x3d831874	0.064011484
144	0x3d34e735	0.04416581
145	0x3d5152c8	0.051104337
146	0x3e375265	0.17902525
147	0x3cd834be	0.026392337
148	0x3e91e49f	0.28494737
149	0x3e04c914	0.1296733
150	0x3d441a98	0.047876924
151	0xbcefb744	-0.029262193
152	0x3eb4bab1	0.35298684
153	0x3d04c32f	0.032412704
154	0xbd99ff09	-0.07519347
155	0x3b2e07d3	0.0026554957
156	0x3e90c07e	0.2827186
157	0xbbf02e6a	-0.0073297517
158	0xbe7434db	-0.23848288
159	0xbe3650f0	-0.17804313
160	0xbe352fd4	-0.17694026
161	0x3ec29215	0.38002077
162	0xbd6304dc	-0.055424556
163	0x3e7f034e	0.24903604
164	0x3c9e81ca	0.019348998
165	0x3d102af3	0.03519721
166	0xbe3c88cc	-0.18411559
167	0xbe140166	-0.14453658
168	0xbe289959	-0.16464747
169	0xbe7aa37f	-0.24476431
170	0x3bd57ccc	0.006515121
171	0x3d489847	0.048973348
172	0xbd6fb15c	-0.058518752
173	0xbe85c102	-0.26123816
174	0x3d1c9398	0.038226694
175	0xbd8b2828	-0.067947686
176	0xbcd35c03	-0.02580071
177	0xbdc61e9e	-0.096738085
178	0x3e8ac12b	0.271005
179	0xbe665a12	-0.22495297
180	0xbd8e0700	-0.06934929
181	0x3e24c1ef	0.16089605
182	0xbebd29b1	-0.3694587
183	0x3e8d062d	0.27543774
184	0xbbddc236	-0.0067675365
185	0x3e01ac4c	0.12663382
186	0xbf00c194	-0.50295377
187	0x3cbc4fc6	0.022987258
188	0xbdadc92a	-0.084856346
189	0xbd7c969e	-0.061667077
190	0xbd0ec639	-0.03485701
191	0xbda74df5	-0.08169166
192	0xbd7d3ca9	-0.06182543
193	0xbd4140ac	-0.047180817
194	0xbe02cb76	-0.12772927
195	0x3e9dfd0f	0.3085713
196	0xbd96dade	-0.07365964
197	0xbe78682f	-0.24258493
198	0xbda7b6e1	-0.08189178
199	0xbd5f403f	-0.05450463
200	0xbd39b064	-0.045334235
201	0x3eb1f257	0.34755203
202	0xbe1f5f57	-0.15563713
203	0xbddf1623	-0.10892894
204	0x3edf92ff	0.43666837
205	0xbe02ad5c	-0.12761444
206	0xbbf965b9	-0.0076110032
207	0xbd1bf01e	-0.03807079
208	0xbf346c19	-0.70477444
209	0x3eaa4c85	0.33261505
210	0xbd672f68	-0.056441694
211	0x3cbf6fe3	0.023368781
212	0xbe70533f	-0.23469256
213	0x3ea7fe2f	0.32811114
214	0x3d9ff9e6	0.07811336
215	0x3e97f32e	0.2967772
216	0xbd46a332	-0.04849548
217	0xbd431120	-0.047623754
218	0x3d2f5807	0.04280856
219	0xbd025754	-0.031821564
220	0x3e4a34d6	0.19746718
221	0x3dc6f9b5	0.097155966
222	0x3e8fdd15	0.2809836
223	0xbbb9f772	-0.0056752497
224	0x3ebab0a1	0.36462882
225	0x3ec474b8	0.383703
226	0x3ebf9b27	0.3742306
227	0x3cfb5416	0.030679744
228	0xbb8aacc2	-0.00423202
229	0x3da4a787	0.08039766
230	0xbe029e13	-0.12755613
231	0xbde96ce2	-0.11397721
232	0x3e51551f	0.20442627
233	0x3f04de68	0.51901865
234	0x3cdb82b4	0.026795723
235	0x3d8f9e22	0.07012583
236	0xbe2f212a	-0.17102495
237	0xbf10c125	-0.56544715
238	0xbc9aa7cc	-0.01887884
239	0xbdc2b1e4	-0.09506586
240	0x3d80e466	0.062935635
241	0x3e3f23ef	0.18666051
242	0xbe79ed7b	-0.24406998
243	0xbe6c6ee5	-0.23089178
244	0x3ea9e0dc	0.33179367
245	0x3eeaa05a	0.45825464
246	0xbe8ad1d2	-0.27113205
247	0x3f097f02	0.53709424
248	0xbe606611	-0.21913935
249	0xbd9a119d	-0.07522891
250	0xbe315449	-0.17317308
251	0xbd8653b5	-0.065589346
252	0xbd9539fe	-0.07286452
253	0xbebf702e	-0.37390274
254	0x3f00f892	0.5037929
255	0x3e8bc321	0.2729731

layer3.bias f4 [4]
0	0xbc617cd5	-0.013762672
1	0xbd93d459	-0.072182365
2	0xbd3609dc	-0.044442996
3	0x3b9e33a8	0.0048279352
