RL/Networks/WithoutGuide/target1.pt (torch, 508289 bytes, 12 tensors)

conv1.weight f4 [8, 5, 3, 3]
0	0x3e819907	0.25312063
1	0xbd0fade4	-0.035077944
2	0x3ee64331	0.44973138
3	0x3e3a78ad	0.18210097
4	0x3e01226f	0.12610792
5	0x3d95c679	0.07313246
6	0x3ea2e3b4	0.3181435
7	0xbd6b008c	-0.05737357
8	0x3b1cf200	0.0023947954
9	0x3eb93dbf	0.3617992
10	0xbeb5ba76	-0.3549382
11	0xbe07ee50	-0.13274503
12	0x3e1ed732	0.15511778
13	0xbd67d363	-0.05659808
14	0xbdb32d7a	-0.08748908
15	0x3e91d692	0.28484017
16	0xbd7f2faf	-0.062301334
17	0xbdd4f6e0	-0.1039865
18	0x3d684821	0.056709412
19	0x3d98fbe5	0.0746992
20	0xbcf20257	-0.029542131
21	0x3e0180d8	0.12646806
22	0xbc39b576	-0.011334768
23	0xbdaa4a20	-0.083149195
24	0xbc802a51	-0.015645178
25	0x3d607424	0.05479826
26	0x3da519bd	0.0806155
27	0x3d2b23ef	0.041782316
28	0xbe777aa2	-0.24167874
29	0xbd6525be	-0.055944197
30	0x3cd93c5e	0.026518043
31	0xbd0c6d69	-0.03428403
32	0x3e4aa811	0.19790675
33	0xbe9a5981	-0.3014641
34	0x3d1a357a	0.037648655
35	0xbd34b7a2	-0.04412044
36	0xbd315186	-0.043290637
37	0x3d92ab26	0.0716155
38	0xbd9dc85f	-0.077042334
39	0x3ce85030	0.028358549
40	0xbb413209	-0.0029479286
41	0xbd2b134e	-0.041766457
42	0xbd40b4d3	-0.047047447
43	0x3dc992de	0.09842466
44	0xbd8ed622	-0.06974436
45	0x3e9815f3	0.29704246
46	0x3e3ce1c1	0.18445493
47	0x3e6e493f	0.23270129
48	0x3e492b0c	0.19645327
49	0xbd0d73c0	-0.034534216
50	0x3d916c8a	0.0710078
51	0x3e9432bf	0.28944966
52	0x3e3db9d2	0.18527916
53	0x3ed58f2f	0.41710803
54	0x3e927ec9	0.28612354
55	0xbd0b2c09	-0.033977542
56	0x3e8dfa3c	0.27729976
57	0x3bc5ed97	0.006040286
58	0xbea70715	-0.3262259
59	0xbeb1afe9	-0.3470452
60	0x3f0c2eb1	0.54758745
61	0xbd176ade	-0.03696715
62	0x3eb2232a	0.34792453
63	0xbc97da7d	-0.0185368
64	0xbc5fdd9e	-0.0136636775
65	0xb9cbe744	-0.00038891484
66	0x3d386f4a	0.04502801
67	0xb81c91ac	-3.7328966e-05
68	0x3dbae1d2	0.09125103
69	0x3da4d39a	0.08048172
70	0x3c1dca6f	0.009630783
71	0x3dc1b51d	0.09458373
72	0x3c8536b0	0.016261429
73	0xbdb731b6	-0.089450285
74	0xbdc45b5b	-0.09587737
75	0x3d9aabeb	0.07552322
76	0x3dc22f18	0.09481639
77	0xbc8ba547	-0.017046584
78	0x3ab0c3fd	0.0013486143
79	0xbe122980	-0.14273643
80	0xbaac8012	-0.0013160727
81	0xbb0a01c8	-0.002105819
82	0x3ba13e07	0.0049207243
83	0x3a80b509	0.0009819578
84	0xbdb0b435	-0.08628122
85	0x3d927f7a	0.071532205
86	0xbd695f1e	-0.056975476
87	0x3ca3a0cf	0.01997414
88	0x3de58272	0.11206521
89	0x3da7736f	0.08176314
90	0x3d105c28	0.035244137
91	0x3e0f3049	0.13983263
92	0xbd92c754	-0.07166925
93	0x3ecacd32	0.39609677
94	0x3dd1962e	0.102337226
95	0x3ed278c8	0.41107774
96	0x3e6e490b	0.23270051
97	0xbd906eda	-0.07052393
98	0x3e0d3a81	0.13791849
99	0xbe07119b	-0.1319031
100	0xbe1102bf	-0.14161204
101	0x3d0c845d	0.03430592
102	0x3e17fc69	0.1484238
103	0xbe5e214a	-0.21692386
104	0xbd23508c	-0.039871737
105	0xbe5b0171	-0.21387269
106	0xbe90c7f2	-0.28277546
107	0xbf215b43	-0.6302988
108	0x3e68e245	0.22742565
109	0xbd7af5e4	-0.061269656
110	0x3e4622a9	0.1934916
111	0xbe8a2da9	-0.2698796
112	0x3ba0abc2	0.0049032876
113	0xbda267c7	-0.0792995
114	0x3e1c5b88	0.15269291
115	0xbd0cf3cf	-0.0344122
116	0x3df945fc	0.121715516
117	0x3e47eb3a	0.19523326
118	0x3e1931c9	0.14960398
119	0x3d9929c6	0.07478671
120	0xbdefb82d	-0.117050506
121	0x3d39fb37	0.045405593
122	0xbd340162	-0.04394663
123	0x3d9efa22	0.07762553
124	0x3db1ab6d	0.08675275
125	0x3dd19341	0.102331646
126	0x3bbbf60d	0.0057361186
127	0xbcfb6b3a	-0.030690778
128	0x3d75c2b3	0.060000133
129	0xbc2addea	-0.010428885
130	0xbdbd1f49	-0.09234483
131	0x3bba1011	0.005678185
132	0x3dab9dcf	0.08379709
133	0xbce763d7	-0.02824585
134	0xbd211c3f	-0.03933358
135	0x3e0e9877	0.13925348
136	0x3c344f02	0.011005165
137	0x3ea07cd0	0.31345224
138	0x3e8fa118	0.28052592
139	0x3eb78499	0.3584335
140	0x3e446d9b	0.19182436
141	0x3eacfa17	0.33784553
142	0x3e846df3	0.25865135
143	0x3e799d8f	0.2437651
144	0xbd5680b9	-0.052368853
145	0xbde114a9	-0.10990269
146	0x3e73ec2d	0.23820563
147	0xbda3d332	-0.07999267
148	0xbe14310e	-0.14471838
149	0x3ea387fc	0.31939685
150	0xbe1dfa38	-0.15427482
151	0xbe94ba3f	-0.29048344
152	0x3f07888d	0.52942735
153	0x3dd1cb58	0.10243863
154	0xbd7d113a	-0.061784007
155	0xbc660efc	-0.0140416585
156	0xbd8cf280	-0.06882191
157	0x3dafb574	0.08579531
158	0xbddc9fb4	-0.107726485
159	0x3bcbf532	0.006224298
160	0x3d2078a5	0.039177556
161	0x3d9d9ead	0.07696281
162	0x3b9ad304	0.004724862
163	0x3c96605c	0.018356495
164	0x3df75c59	0.12078161
165	0x3db4bf3d	0.08825538
166	0x3c41c625	0.0118270265
167	0x3d5752cb	0.052569192
168	0xbe854e45	-0.26036277
169	0xbd549db3	-0.051908206
170	0x3e1226fe	0.14272687
171	0xbd14d762	-0.036338218
172	0x3cbc2f30	0.02297172
173	0xbe12e518	-0.14345205
174	0x3d943102	0.0723591
175	0x3db423a1	0.08795858
176	0x3b123a65	0.0022312638
177	0xbd3097ed	-0.043113638
178	0x3e05918d	0.13043804
179	0x3dbb6a43	0.09151127
180	0x3e9087e8	0.28228688
181	0x3e4cb693	0.19991522
182	0x3e90a1a1	0.28248313
183	0x3e03e878	0.12881649
184	0x3e17e633	0.14833908
185	0x3ead21c2	0.33814818
186	0x3d373084	0.044724002
187	0x3d403b4c	0.04693155
188	0xbe37ca7a	-0.17948332
189	0x3ea5b179	0.32361963
190	0xbdda92c4	-0.106725246
191	0x3ea24feb	0.31701598
192	0x3e0b8a9d	0.13627096
193	0xbe1a732f	-0.15083002
194	0x3df9438c	0.12171087
195	0x3f0cff18	0.5507674
196	0xbd42c401	-0.047550205
197	0x3e9d4a14	0.3072058
198	0xbdc662bc	-0.09686801
199	0xbd2182a0	-0.039431214
200	0x3d4d8d68	0.050183684
201	0xbc95ab4f	-0.018270163
202	0xbe1d212f	-0.1534469
203	0x3cb75d07	0.022383226
204	0xbbea8b2e	-0.007157705
205	0xbe174b2f	-0.14774774
206	0x3d04b60c	0.032400176
207	0x3d871bdf	0.06597113
208	0x3e3a18e5	0.18173559
209	0xbda62342	-0.08112194
210	0x3dc8791b	0.09788724
211	0xbe405980	-0.18784142
212	0x3d83ed52	0.0644175
213	0x3e1b60ac	0.15173596
214	0x3e0dc091	0.1384299
215	0xbe19d955	-0.15024312
216	0xbc6d38c4	-0.014478866
217	0xbe1ab885	-0.15109451
218	0x3d8f4334	0.0699524
219	0x3dfed90e	0.12443744
220	0x3c5fa7b5	0.013650824
221	0x3ce687b3	0.028140878
222	0xbd303c79	-0.04302642
223	0x3dad0074	0.08447352
224	0x3d7bf863	0.061516177
225	0xbe0752b8	-0.13215148
226	0xbf0f9a97	-0.5609526
227	0x3e5a371b	0.21310084
228	0xbe1c6271	-0.15271927
229	0xbd9b9d18	-0.07598323
230	0x3e16820e	0.1469805
231	0x3dc8438b	0.09778508
232	0x3d041361	0.032245044
233	0x3eeea2b1	0.466085
234	0x3e2e461a	0.17018929
235	0xbe8a8ef1	-0.2706218
236	0x3f12f31b	0.574022
237	0xbd3ce079	-0.04611251
238	0xbe1fa188	-0.15588963
239	0x3db9ffff	0.090820305
240	0xbe4cb69c	-0.19991535
241	0xbe8f1a8b	-0.27949938
242	0x3f06f3fa	0.5271603
243	0x3d9f8010	0.07788098
244	0xbc830616	-0.015994113
245	0x3da7c229	0.0819133
246	0x3d2884db	0.041142326
247	0xbd648a32	-0.055795856
248	0x3e148838	0.14505088
249	0x3d938a95	0.07204167
250	0x3d048ea9	0.032362614
251	0xbe29723c	-0.16547483
252	0xbec090f0	-0.3761058
253	0xbcca0392	-0.024659906
254	0x3d6a9467	0.057270434
255	0x3e2fced1	0.17168738

conv1.bias f4 [8]
0	0x3e6024ab	0.21888988
1	0xbdc1678d	-0.09443579
2	0x3d16e8db	0.036843162
3	0xbdbd17e9	-0.09233076
4	0xbd3df6ca	-0.046377935
5	0xbc97da74	-0.018536784
6	0x3de3a860	0.11116099
7	0xbd93cc6f	-0.07216727

conv2.weight f4 [16, 8, 3, 3]
0	0xbd294b1e	-0.041331403
1	0xbdff75b9	-0.12473626
2	0xbe294960	-0.16531897
3	0x3d7b1d28	0.061307102
4	0xbd5c35d2	-0.053762265
5	0xbe1cf51b	-0.15327875
6	0xbd3eb062	-0.04655493
7	0x3b9066fc	0.004406808
8	0x3ddc6ea3	0.1076329
9	0x3da10259	0.07861776
10	0x3e2ac7b3	0.16677742
11	0x3d8ecd39	0.06972737
12	0xbd8856fe	-0.066572174
13	0x3deb3ba0	0.11485982
14	0xbd9dd04c	-0.07705745
15	0xbea362f2	-0.31911427
16	0xbd88ff7a	-0.06689353
17	0x3e7d7d41	0.24754812
18	0x3c97ff5a	0.018554378
19	0x3d64700e	0.055770926
20	0xbce01b4d	-0.027356768
21	0x3b8b81fb	0.0042574382
22	0x3ccdcebd	0.025122995
23	0x3e6482a0	0.22315454
24	0x3d9a03de	0.07520269
25	0x3e3ef5f4	0.18648511
26	0x3e774975	0.24149115
27	0x3e16a1cb	0.14710157
28	0xbd81d868	-0.06340104
29	0x3ccb85c0	0.02484405
30	0xbe0c413e	-0.13696763
31	0xbe8c1e7f	-0.27367017
32	0x3c6157c2	0.013753833
33	0xbe81a66e	-0.25322288
34	0xbe970669	-0.29497078
35	0x3e90d864	0.28290093
36	0x3e441406	0.19148263
37	0x3d1d2f23	0.03837503
38	0xbea419ea	-0.3205102
39	0x3dbba22a	0.0916179
40	0x3d5a87ec	0.05335228
41	0x3d156fd5	0.036483604
42	0xbe1aec47	-0.15129195
43	0xbe852798	-0.2600677
44	0x3e1b66dc	0.15175956
45	0x3d2f709c	0.042832002
46	0xbd0f54aa	-0.03499285
47	0x3e9a1d02	0.30100256
48	0xbe26c570	-0.16286254
49	0xbc8d504d	-0.017250204
50	0x3e70e355	0.2352422
51	0xbe9e0222	-0.30861002
52	0x3d16d46e	0.036823682
53	0x3e7b1718	0.24520528
54	0xbcca87c3	-0.02472294
55	0xbd955e59	-0.07293386
56	0x3d9446ae	0.072400436
57	0xbdcdf82c	-0.10057101
58	0xbc15113d	-0.009098348
59	0xbc963de0	-0.018340051
60	0x3d552ad3	0.052042793
61	0xbd528a3f	-0.051401373
62	0x3d3e1d32	0.04641456
63	0x3e4d59e8	0.20053828
64	0x3e61bd7c	0.22044939
65	0x3d711a8f	0.05886322
66	0x3e510592	0.20412281
67	0x3e6d0c82	0.23149303
68	0x3ea21367	0.31655428
69	0x3d794c2e	0.060863666
70	0x3e5a40a8	0.21313727
71	0x3ea07c18	0.31344676
72	0x3e0d7271	0.13813187
73	0xbc7174ea	-0.014737347
74	0x3cadddc5	0.021223912
75	0x3c583796	0.0131968465
76	0x3cd6d00e	0.026222255
77	0x3df0537d	0.11734674
78	0x3d88ceb9	0.06680054
79	0xbcfbf826	-0.030757975
80	0x3e071451	0.13191344
81	0x3e8a743a	0.270418
82	0x3d34f74b	0.04418115
83	0xbe444321	-0.19166233
84	0x3e922735	0.28545538
85	0x3dcf01f7	0.10107797
86	0xbd48f538	-0.049061984
87	0x3ec4c528	0.38431668
88	0xbd18d81c	-0.037315473
89	0xbe345e61	-0.17614128
90	0x3e46060e	0.19338247
91	0xbd88b9e6	-0.06676082
92	0x3df6e98f	0.120562665
93	0x3e3805fc	0.17971033
94	0x3de6115e	0.11233781
95	0x3deccfcd	0.11563072
96	0x3e09334a	0.13398471
97	0xbd86ea65	-0.06587676
98	0x3e45968f	0.19295715
99	0x3d8962bf	0.067082874
100	0xbd93bf9b	-0.0721428
101	0x3de3bd99	0.11120147
102	0x3e0914c3	0.13386826
103	0x3c72d0a0	0.014820248
104	0xbd236aa2	-0.039896615
105	0x3cfab032	0.030601595
106	0x3d23bf7a	0.03997753
107	0x3e23934e	0.15974161
108	0x3e1188c6	0.14212331
109	0xbc7d76ea	-0.015470246
110	0xbe0e6ead	-0.13909407
111	0x3e5c4a32	0.21512678
112	0xbe6e90e9	-0.23297466
113	0xbe1605be	-0.14650628
114	0x3ea33453	0.31875858
115	0xbe333962	-0.17502359
116	0xbce978da	-0.02850001
117	0xbd2c9044	-0.04212977
118	0xbd566dd2	-0.052350827
119	0x3d45f9b1	0.048333827
120	0xbcf24333	-0.029573059
121	0x3d4f0da8	0.050550133
122	0x3d92b265	0.07162932
123	0xbcf35b7f	-0.029706715
124	0x3d8391e8	0.06424314
125	0xbd945462	-0.07242657
126	0xbdef863e	-0.116955265
127	0x3ccb1978	0.024792418
128	0x3ce2ab66	0.02766962
129	0xbd5dcf19	-0.05415258
130	0xbcfb90d1	-0.030708702
131	0x3c9088fd	0.017643446
132	0xbce9bf96	-0.028533738
133	0x3d97f91b	0.0742056
134	0x3dd4a5ae	0.103831634
135	0xbe0dc9b5	-0.13846476
136	0x3c43cb8d	0.011950386
137	0xbe1ec826	-0.15506038
138	0xbd59c0cc	-0.05316238
139	0x3d99c0cd	0.07507477
140	0x3dffb4ec	0.1248568
141	0xbe14f2c0	-0.14545727
142	0x3db4985d	0.088181235
143	0xbcc641a1	-0.024201216
144	0x3b4bff54	0.003112753
145	0x3e148735	0.14504702
146	0xbddfa151	-0.109194405
147	0x3b905531	0.004404687
148	0xbc2e194b	-0.0106261475
149	0x3e1b3309	0.15156187
150	0x3ddd8b58	0.10817593
151	0x3d589ad6	0.052882038
152	0xbc0ef65a	-0.008725727
153	0x3d8d5fec	0.06903061
154	0x3e5b7620	0.2143178
155	0x3e8648df	0.2622747
156	0x3e85088b	0.2598308
157	0x3e256493	0.16151647
158	0x3e9128d5	0.28351465
159	0x3b984ed0	0.004648067
160	0xbe995463	-0.29947194
161	0xbbc72890	-0.0060778335
162	0x3cf7600a	0.030197162
163	0x3e4933ed	0.19648714
164	0x3c9e784d	0.019344473
165	0x3e2362a5	0.15955599
166	0x3e57edde	0.21086833
167	0x3d94fe3e	0.07275055
168	0x3de3c913	0.11122336
169	0x3dd77041	0.105194576
170	0x3e2a87f5	0.16653426
171	0x3e29440b	0.16529863
172	0x3e493291	0.19648196
173	0xbe105198	-0.14093626
174	0xbc4968dd	-0.012293068
175	0x3e91b0b9	0.2845514
176	0x3e93d125	0.28870502
177	0x3d50ab8a	0.050944842
178	0x3d05c9c7	0.032663133
179	0x3df4dfee	0.11956774
180	0x3d275370	0.040851057
181	0x3e3a9600	0.18221283
182	0xbdd5ff8a	-0.10449131
183	0x3d545af7	0.051844563
184	0xbbb47564	-0.005507158
185	0xbcd1747e	-0.025568243
186	0xbe538cb0	-0.20659137
187	0xbc6cb5eb	-0.0144476695
188	0x3e52b132	0.20575407
189	0xbe394175	-0.18091376
190	0x3d2dcedf	0.042433616
191	0xbdf8a586	-0.12140946
192	0xbea71c2e	-0.32638687
193	0xbdc87181	-0.09787274
194	0x3e77740e	0.24165365
195	0xbea0951c	-0.3136376
196	0xbedfc103	-0.43701944
197	0xbe8bf3cd	-0.27334443
198	0x3e0095af	0.125571
199	0x3d306f75	0.043075044
200	0x3e856ae5	0.26058117
201	0x3d861f2a	0.06548913
202	0x3d23109d	0.039810766
203	0x3c5da9c1	0.013529242
204	0xbdf69fae	-0.12042175
205	0x3c0c34ac	0.00855748
206	0xbe5923d9	-0.21205081
207	0x3e1ec2f4	0.15504056
208	0x3eb73ab4	0.35786974
209	0x3e4c5c97	0.19957195
210	0x3dca0316	0.0986387
211	0xbbcce509	-0.006252889
212	0xbe930a02	-0.28718573
213	0x3d29a3bc	0.041415915
214	0x3e0109f6	0.12601456
215	0x3e724c93	0.23662023
216	0x3dfb4e9d	0.12270854
217	0xbd90388e	-0.07042037
218	0x3e15127a	0.1455783
219	0x3dbc0dcf	0.09182321
220	0xbd8c652d	-0.06855235
221	0x3d9653c1	0.073401935
222	0x3c6c19b6	0.014410427
223	0x3ddf5bc7	0.10906177
224	0xbd444613	-0.04791839
225	0x3e657c48	0.22410691
226	0x3e2e84f7	0.1704291
227	0x3de02217	0.10944002
228	0x3e620965	0.22073896
229	0x3e21324e	0.15741846
230	0x3dfb459d	0.12269137
231	0x3ea891d3	0.32923755
232	0x3dfdac7f	0.12386417
233	0xbb43b733	-0.0029863834
234	0xbd956460	-0.07294536
235	0xbe127371	-0.1430185
236	0x3b877b40	0.0041345656
237	0x3d8c18f9	0.06840701
238	0xbc6d9ddb	-0.014502968
239	0xbe04df9d	-0.12975927
240	0x3d7e4a63	0.06208266
241	0xbd3c2ebc	-0.045943007
242	0x3d2df99d	0.042474378
243	0xbdbfe5a0	-0.09369969
244	0x3dce2920	0.10066438
245	0xbe01d168	-0.12677538
246	0x3dee838b	0.116461836
247	0x3e12eb8c	0.14347667
248	0xbd570fc5	-0.052505273
249	0x3e24340c	0.1603548
250	0x3d6c278c	0.057654902
251	0x3c02409e	0.007949976
252	0x3e02f6fc	0.1278953
253	0x3dc25758	0.09489316
254	0x3d3dcc82	0.046337612
255	0xbc7c46c0	-0.0153977275

conv2.bias f4 [16]
0	0xbd8e8ca1	-0.069604166
1	0x3c166dd2	0.009181457
2	0x3da954c7	0.08268123
3	0xbd43201e	-0.04763805
4	0xbdccff99	-0.10009689
5	0x3c924988	0.017857328
6	0x3d9a7847	0.07542472
7	0x3d8952aa	0.0670522
8	0xbde07fbd	-0.10961864
9	0x3d83639c	0.06415483
10	0x3ddcc771	0.10780228
11	0x3b6d9e0b	0.003625753
12	0x3c87170c	0.016490482
13	0xbc1f0499	-0.009705686
14	0x3de557ca	0.11198385
15	0x3d44438f	0.04791599

conv3.weight f4 [32, 16, 3, 3]
0	0x3d553a99	0.052057836
1	0xbd00ac07	-0.031414058
2	0x3e9252c8	0.28578782
3	0x3e15336b	0.14570396
4	0x3e63acba	0.22233859
5	0xbe9fb3f4	-0.3119198
6	0x3eb409f9	0.3516386
7	0x3ec9c0ff	0.39405057
8	0xbeab9cbc	-0.33518016
9	0xbd65da17	-0.05611619
10	0xbd4cea92	-0.05002839
11	0x3d1338fb	0.035943013
12	0x3c0df019	0.008663201
13	0x3d8f63be	0.07001446
14	0x3d4d9e4e	0.0501998
15	0x3d1ce584	0.03830482
16	0xbd1979cc	-0.03746967
17	0x3b0014c2	0.0019543623
18	0x3dc79a55	0.097462334
19	0xbd2adbf4	-0.04171367
20	0x3d5bb1e7	0.053636458
21	0x3d86021c	0.06543371
22	0xbcaa7b9b	-0.020810893
23	0x3d820840	0.0634923
24	0x3ca0c406	0.019624721
25	0xbda8b3f6	-0.0823745
26	0xbde0e1ac	-0.109805435
27	0xbd467bc9	-0.048457894
28	0x3da19731	0.078901656
29	0xbd0d1f89	-0.034453902
30	0xbd48c1a3	-0.04901279
31	0x3d61a676	0.05509039
32	0xbd8afcf1	-0.06786526
33	0x3d8cd8c8	0.06877285
34	0xbd2c98e2	-0.042137988
35	0xbda33578	-0.07969183
36	0x3e6579b6	0.2240971
37	0xbcc740bc	-0.02432286
38	0xbd2d1e34	-0.042265132
39	0xbdc86a14	-0.09785858
40	0xbd910d28	-0.070825875
41	0xbe0b867a	-0.13625517
42	0x3d2083f0	0.039188325
43	0xbb14695e	-0.0022645812
44	0xbd22b755	-0.03972562
45	0x3da2ebfa	0.07955165
46	0xbca4dd4b	-0.020125052
47	0x3d6b37f4	0.057426408
48	0x3cbda643	0.023150569
49	0xbd6b16d5	-0.05739482
50	0xbac5a062	-0.0015077705
51	0x3da149f0	0.078754306
52	0xbd9960bb	-0.07489153
53	0x3c8fa6f2	0.01753566
54	0x3c5aa1fb	0.013344283
55	0x3d012a72	0.03153462
56	0x3d802ee3	0.06258943
57	0x3d1792b5	0.037005145
58	0xbd6b56dc	-0.057455882
59	0xbd2a8430	-0.04162997
60	0xbbf08fb2	-0.0073413486
61	0x3d1d1b30	0.038356006
62	0xba204037	-0.00061130844
63	0x3d5336f6	0.051566087
64	0xbbe01a65	-0.006839084
65	0x3d9119fd	0.07085035
66	0x3d664925	0.0562221
67	0xbd6b3130	-0.057419956
68	0x3d6de0c1	0.05807567
69	0xbd09ca5c	-0.03364025
70	0xbd9bd10f	-0.07608234
71	0xbb77fb66	-0.0037839054
72	0x3db910e4	0.09036425
73	0x3dadf55f	0.084940664
74	0x3bc6287d	0.006047307
75	0xbd69a08f	-0.057037886
76	0xbb6b1dcc	-0.0035875915
77	0x3d4f0ecc	0.05055122
78	0xbbd4e083	-0.0064964904
79	0xba7f0841	-0.0009728708
80	0xbdbae516	-0.09125726
81	0xbbbd6eef	-0.0057810466
82	0xbdb0d2b4	-0.086339384
83	0x3cfbbe7f	0.030730484
84	0x3db3859a	0.08765717
85	0xbb8d05d6	-0.004303674
86	0x3caf8e82	0.021430258
87	0xbd26105b	-0.04054294
88	0x3d37398d	0.04473262
89	0x3db0e463	0.08637311
90	0xbdab658a	-0.083689764
91	0xbd97485a	-0.07386847
92	0x3d9e16ba	0.077191785
93	0x3cb0f321	0.021600308
94	0x3d995792	0.07487406
95	0xbca7b8d8	-0.020473883
96	0x3db65099	0.089020915
97	0x3c618ccc	0.013766479
98	0xbd3a9ba9	-0.045558605
99	0x3cd82b4c	0.026387833
100	0xbd210854	-0.039314583
101	0xbe06860f	-0.13137077
102	0xbdaf046e	-0.08545767
103	0xbd8f5448	-0.06998497
104	0xbd96e9eb	-0.07368835
105	0xbca02f0d	-0.019553686
106	0xbda77d05	-0.081781425
107	0xbb9ecbc8	-0.00484607
108	0x3a003c9c	0.0004891844
109	0xbd409cfe	-0.04702472
110	0x3c5bb5a2	0.013410004
111	0x3d1814f3	0.037129354
112	0xbd1f6677	-0.038916077
113	0xbc8c1d8a	-0.01710393
114	0x3ddd270b	0.107984625
115	0x3d3344d4	0.04376681
116	0xbd2e5e9e	-0.042570703
117	0x3d7cfeba	0.061766364
118	0xbda2a63a	-0.079418615
119	0xbd0be3da	-0.034152843
120	0x3cf9a81a	0.030475665
121	0x3bf621e1	0.007511363
122	0xbd48f278	-0.04905936
123	0xbd8dd6a7	-0.06925707
124	0xbd266a01	-0.040628437
125	0xbe227ab8	-0.15867126
126	0x3d587754	0.052848175
127	0xbcea275e	-0.028583225
128	0xbd061422	-0.032734044
129	0xbd89f0a9	-0.067353554
130	0xbd694e91	-0.056959692
131	0xbcee25cc	-0.029070757
132	0x3d3c6456	0.045994125
133	0x3c1f3e1b	0.009719397
134	0x3dadc2b8	0.08484405
135	0xbdb9d270	-0.09073341
136	0xbd1a9d9d	-0.037747968
137	0x3d77734f	0.0604127
138	0xbb9d8a38	-0.0048077367
139	0x3d87a1f6	0.066226885
140	0x3db288c0	0.08717489
141	0x3cb5111c	0.022102885
142	0x3c6299b5	0.013830592
143	0xbc9d85c8	-0.019228831
144	0x3eb7a324	0.35866654
145	0x3e9956fc	0.29949176
146	0x3e06e0f8	0.13171756
147	0x3be92999	0.0071155545
148	0xbce89000	-0.028388977
149	0x3d9bd2db	0.07608577
150	0x3c01b57a	0.007916803
151	0x3df69f79	0.12042136
152	0x3e6147f5	0.22000106
153	0x3e150de5	0.14556082
154	0xbc8ed933	-0.017437553
155	0x3d5b9206	0.053606056
156	0xbd426891	-0.047463004
157	0x3c85ee92	0.01634911
158	0x3be3969f	0.0069454457
159	0xbc98ec8a	-0.018667478
160	0x3b5c9fb2	0.0033664522
161	0xbd952ea8	-0.072842896
162	0xbb31dc9b	-0.0027139548
163	0xbc6ab958	-0.014326416
164	0x3e3c7fb9	0.18408097
165	0xbd66c6c7	-0.056341913
166	0x3c9adae5	0.018903205
167	0x3d19283c	0.037391886
168	0x3d938c7c	0.0720453
169	0x3dcc1ebb	0.09966799
170	0x3dcb6c3c	0.099327534
171	0x3bb4abea	0.005513658
172	0x3d5d1805	0.053977985
173	0xbd849bdb	-0.064750396
174	0x3d1db24a	0.038500108
175	0x3d8022eb	0.0625666
176	0x3d14b4a1	0.036305074
177	0x3d0159a1	0.031579617
178	0xbd21161a	-0.03932772
179	0x3b463d74	0.0030249031
180	0x3dd7d841	0.10539294
181	0xbc975508	-0.018473163
182	0xbe7d45a1	-0.24733593
183	0x3d0f8789	0.035041366
184	0xbdaff670	-0.08591926
185	0x3d70613a	0.058686472
186	0x3e0f02f2	0.13965967
187	0x3d7f07ef	0.062263425
188	0xbe6769ee	-0.22599003
189	0x3dc42816	0.09577958
190	0x3e07738b	0.1322767
191	0x3dae9101	0.08523751
192	0xbc63eb28	-0.013911046
193	0x3d93fda3	0.07226112
194	0xbd286e75	-0.041120965
195	0x3cf0e377	0.029405339
196	0xbd4c8a54	-0.049936607
197	0xbd9e3f2c	-0.07726893
198	0xbd61a370	-0.055087507
199	0x3da11907	0.07866102
200	0x3d14f707	0.036368396
201	0x3cd29369	0.025705056
202	0xbd2d4c5a	-0.042309143
203	0x3d99e0ac	0.07513556
204	0x3d186ba8	0.037212044
205	0x3dd497e3	0.103805326
206	0xbc43669b	-0.0119263185
207	0x3c6a3ad2	0.01429625
208	0xbb4ea806	-0.0031533255
209	0x3dc68e53	0.09695115
210	0xbd71992f	-0.058983978
211	0x3ca3b646	0.019984376
212	0x3dcffb1e	0.10155319
213	0xbc8ca1ab	-0.017166933
214	0x3db88bce	0.09011041
215	0xbd1b7091	-0.03794915
216	0x3c13cbe1	0.0090207765
217	0x3d1b0102	0.037842758
218	0x3dc2ed86	0.0951796
219	0x3dde4bda	0.10854311
220	0x3dd8fe0f	0.10595333
221	0xbceba145	-0.028763423
222	0x3db31c1a	0.08745594
223	0xbd5add59	-0.05343375
224	0xbd827ee3	-0.06371858
225	0x3b1ad7ba	0.0023627118
226	0x3cedc5da	0.029025007
227	0xbcc5a076	-0.024124365
228	0x3db640f4	0.088991076
229	0xbcfa3adc	-0.030545644
230	0xbdcfb943	-0.10142758
231	0xbd6db175	-0.058030564
232	0xbd82fa64	-0.063954145
233	0xbdd563b5	-0.10419408
234	0x3dccc282	0.09998037
235	0x3ddf3b0a	0.10899933
236	0xbcb85ef3	-0.022506213
237	0xbc0f7bd8	-0.008757554
238	0x3daf8229	0.08569748
239	0x3c81c54c	0.015841149
240	0xbb0d1281	-0.0021525922
241	0xba8b1948	-0.0010612393
242	0x3c4aa7ca	0.012369106
243	0x3d8d6538	0.069040716
244	0x3e2b568f	0.16732238
245	0xbdf574a7	-0.1198514
246	0x3db9db27	0.09075003
247	0xbbc9139e	-0.0061363718
248	0x3e182107	0.14856349
249	0xbcc99e88	-0.024611726
250	0x3e380dde	0.1797404
251	0x3e0a72ea	0.13520399
252	0x3d827149	0.06369264
253	0xbd8f9aa1	-0.07011915
254	0xbc20130d	-0.009770167
255	0x3dd8046b	0.10547718

conv3.bias f4 [32]
0	0x3d895fcf	0.06707727
1	0x3d25bbc6	0.040462278
2	0x3d95e0f1	0.07318295
3	0x3d87af11	0.06625188
4	0xbd6c2218	-0.0576497
5	0x3d7f6ba1	0.062358502
6	0x3cf158c9	0.029461281
7	0xba5e61ea	-0.0008483218
8	0xbd3b9b3d	-0.045802344
9	0xbd0e1f7d	-0.034698
10	0x3d93e2fc	0.07221028
11	0x3d5fd118	0.054642767
12	0x3d3f14c9	0.04665068
13	0xbd117650	-0.035513222
14	0x3c6dc7ec	0.014512997
15	0x3d5c4de2	0.053785212
16	0xbd45563d	-0.048177946
17	0xbd548166	-0.051881216
18	0x3c80dedd	0.01573127
19	0xbd3ff8ee	-0.046868257
20	0x3ca6afe7	0.020347549
21	0x3d16f835	0.036857802
22	0x3c8a31c5	0.016869435
23	0x3d01b19a	0.031663515
24	0xbd6daf0e	-0.058028273
25	0xbd63eb0a	-0.055644073
26	0xbc687c24	-0.014189754
27	0xbd19dfde	-0.037567012
28	0x3dad93f5	0.08475486
29	0xbd16e9ab	-0.036843937
30	0xbd9ae486	-0.07563119
31	0x3d04f056	0.032455765

layer1.weight f4 [128, 804]
0	0xbcf90843	-0.030399447
1	0x3b781682	0.0037855213
2	0xb9f66beb	-0.00047001182
3	0xbd07effa	-0.033187844
4	0x3cdc457d	0.026888603
5	0xbc79325c	-0.0152097605
6	0xbc8c3a1d	-0.017117554
7	0xbc118e3a	-0.008884007
8	0xbb49adfc	-0.0030773869
9	0xbca4da54	-0.020123638
10	0x3cb40d6c	0.021979056
11	0xbb4d6970	-0.0031343363
12	0x3ca5e75e	0.020251926
13	0x3ca2de47	0.01988138
14	0xbc86359c	-0.016382985
15	0x3ae27e90	0.001728015
16	0x3ca1d252	0.019753609
17	0xbd0fc6e0	-0.03510177
18	0x3caf1ee0	0.021377027
19	0x3cb22f50	0.021751076
20	0x3cd40faa	0.025886375
21	0x3be554ed	0.0069986493
22	0xbce04818	-0.027378127
23	0xbb9f29ae	-0.0048572635
24	0x3bbec01f	0.0058212425
25	0xbcf996b5	-0.03046737
26	0xbca81b3e	-0.020520803
27	0xbc68eb43	-0.014216247
28	0x3bac4c73	0.005258137
29	0xbd0dfcf2	-0.034665056
30	0x3ca2bf9f	0.019866763
31	0xbd018838	-0.03162405
32	0xbcf8309b	-0.030296614
33	0x3cb84398	0.022493169
34	0x3c866dae	0.016409721
35	0xbcb01df0	-0.02149865
36	0x3b9cdf05	0.004787328
37	0x3cbcc301	0.023042204
38	0xbb5c7afc	-0.003364264
39	0xbcf2710c	-0.02959492
40	0x3c9d8a3b	0.019230952
41	0x3c809a3b	0.015698543
42	0x3c8c106d	0.017097676
43	0xbcaf955c	-0.021433525
44	0xbc4ca27e	-0.012489913
45	0x3cf9e7af	0.030505983
46	0xbcac6fab	-0.021049341
47	0x3ce33736	0.027736288
48	0xbc82c130	-0.01596126
49	0x3c382500	0.01123929
50	0xbcdeaa8f	-0.027180938
51	0x3cf276bc	0.029597633
52	0x3cb58394	0.022157468
53	0xbcde81bd	-0.027161473
54	0xba5672a8	-0.0008180537
55	0xbc77ea73	-0.015131581
56	0x3ce63368	0.028100684
57	0xbc943e14	-0.018096007
58	0xbcfebc35	-0.031095603
59	0x3b56f1fc	0.0032798043
60	0xbcc8c8ce	-0.024509814
61	0xbcc99a3b	-0.024609676
62	0xbc7d7c7a	-0.015471572
63	0x3b5cba0d	0.003368023
64	0xba41792e	-0.0007380423
65	0xba7ec7cb	-0.00097191025
66	0xbcd688f6	-0.026188355
67	0x3c71772c	0.014737885
68	0xbc9f7a78	-0.019467577
69	0x3cdd8834	0.027042486
70	0x3c437232	0.011929082
71	0x3cd6bc32	0.026212785
72	0xbd030a14	-0.031992033
73	0x3b0828a8	0.0020776186
74	0x3c89a3a4	0.016801663
75	0xbc11d1d8	-0.008900128
76	0x3cb4d408	0.02207376
77	0x3ca26594	0.019823827
78	0xbca0617d	-0.019577736
79	0x3b2f82a4	0.0026780749
80	0x3c38dca8	0.011283077
81	0x3bd1ffd0	0.006408669
82	0x3c46577c	0.012105819
83	0xbcf17c54	-0.02947823
84	0xbc8a7c0e	-0.016904857
85	0x3cd67ade	0.026181635
86	0xbc9de7d3	-0.019275581
87	0x3ca7534c	0.020425461
88	0xbc5d9c0c	-0.013525974
89	0xbbdb8b51	-0.0066999574
90	0x3cfb5942	0.03068221
91	0xbcab3c47	-0.020902766
92	0xbc3ece12	-0.011645811
93	0xbbe50cf4	-0.0069900695
94	0x3ce409e9	0.027836757
95	0xbc0cffa8	-0.008605875
96	0xbcba34c0	-0.022730231
97	0xbd0bd760	-0.034140944
98	0xbb55102a	-0.0032510855
99	0xbc06cf1c	-0.00822809
100	0xbcb8d880	-0.022564173
101	0xb9229d81	-0.00015508199
102	0x3c8c768e	0.017146375
103	0x3a4d50e2	0.0007832182
104	0xbc544fe6	-0.012958502
105	0xbc344180	-0.011001945
106	0xbb7098b4	-0.0036712112
107	0x3c7a2066	0.015266513
108	0x3b8aa511	0.004231103
109	0xbbdb8e3a	-0.0067003043
110	0xbcadded0	-0.02122441
111	0x3ceefde4	0.029173799
112	0x3be7d023	0.0070743724
113	0xbc730cb4	-0.014834572
114	0x3ce20e6e	0.027594771
115	0x3cde3321	0.02712399
116	0x3c9054fc	0.017618649
117	0x3c456f44	0.012050454
118	0x3be1231e	0.0068706414
119	0xbc01453d	-0.007890043
120	0xbc654444	-0.013993327
121	0x3cbcd50b	0.023050806
122	0x3ba28206	0.0049593477
123	0x3c867a74	0.016415812
124	0x3c93c7e0	0.018039644
125	0xbca86377	-0.020555241
126	0xbbef2d2c	-0.007299086
127	0xbd0b59d1	-0.034021202
128	0x3aa58be6	0.0012630194
129	0x3ca7e615	0.020495454
130	0x3ca55949	0.020184176
131	0x3c8aea78	0.016957507
132	0x3ca6c7a6	0.020358872
133	0x3cd76674	0.02629397
134	0x3c94723a	0.018120874
135	0x3c99819e	0.018738564
136	0x3c0f4fbc	0.0087470375
137	0x3cce232e	0.02516326
138	0xbc4fe9b6	-0.012689998
139	0xbc64c659	-0.013963305
140	0xbcee58ec	-0.029095136
141	0xbcf64eac	-0.03006681
142	0x3c5f37e4	0.013624165
143	0xbcfedd51	-0.031111391
144	0x3cbddecf	0.023177532
145	0x3c6d151c	0.014470365
146	0xbcdb409c	-0.026764207
147	0xbc97a09a	-0.018509198
148	0xbc0113b0	-0.007878229
149	0x3be2e23a	0.006923941
150	0xbc2e124b	-0.010624479
151	0x3c8816b7	0.016612394
152	0xbc9b8bd8	-0.018987581
153	0xbc9146d2	-0.017733965
154	0xbccd84ea	-0.025087792
155	0xbc956d20	-0.018240511
156	0x3ce3bea4	0.027800865
157	0xbacad6bd	-0.0015475374
158	0xbc34703c	-0.011013087
159	0xbccaab5d	-0.024739916
160	0x3cbeb292	0.023278508
161	0x3c98c452	0.0186483
162	0xbc35f1a8	-0.011104979
163	0x3c657ef5	0.01400732
164	0xbca0c8df	-0.019627033
165	0x3d028c3a	0.03187201
166	0x3b8dba3e	0.0043251803
167	0xbc844243	-0.016144877
168	0x3c442ff2	0.011974322
169	0x3c8edcfd	0.01743936
170	0x3c916a22	0.017750803
171	0x3ca315b0	0.019907802
172	0xbcab16ae	-0.020884838
173	0x3c698863	0.0142537085
174	0xbc0cce8e	-0.008594168
175	0xbc9c912c	-0.019112192
176	0xbce7e563	-0.028307622
177	0xbc109840	-0.008825362
178	0xbc4f466c	-0.012651067
179	0xba8eff31	-0.0010909793
180	0xbcc7d84e	-0.024395134
181	0x3cc05489	0.02347781
182	0xbce19732	-0.027537916
183	0x3c76f8fb	0.01507401
184	0x3c0eb307	0.008709676
185	0xbcd9597a	-0.026531924
186	0xbca35a5e	-0.019940551
187	0x3c44bbb7	0.012007645
188	0x3ca9ad9d	0.020712668
189	0xbd01c91f	-0.031685945
190	0xbc9963ee	-0.018724408
191	0xbb7eba1c	-0.0038868254
192	0xbcab104a	-0.02088179
193	0x3ca868ea	0.02055784
194	0xbca9ff14	-0.020751514
195	0xbcf6dc8b	-0.03013446
196	0x3ce82190	0.028336316
197	0x3cb7e50c	0.022448085
198	0xbd009da9	-0.031400356
199	0xbbb3e668	-0.005490113
200	0xbc449ec2	-0.012000741
201	0xbc358e98	-0.01108136
202	0x3c966eaa	0.018363316
203	0xbb285df0	-0.0025690757
204	0xbb8df3d7	-0.0043320465
205	0xbd05efa9	-0.03269926
206	0x3c91fa1e	0.01781946
207	0x3bfa425a	0.0076373043
208	0xbcb71888	-0.022350565
209	0x3c4932ca	0.012280175
210	0xba9a8288	-0.0011788169
211	0xba682d52	-0.0008856851
212	0xbd06e113	-0.03292949
213	0x3ccc1898	0.024914071
214	0x3cdd86ef	0.02704188
215	0xbcc0697e	-0.023487803
216	0xbcafaa64	-0.021443553
217	0xbc05ec17	-0.008173964
218	0xbc40dd24	-0.011771474
219	0xbd12fdd8	-0.035886616
220	0x3c2e7aeb	0.010649423
221	0xbc86e053	-0.016464388
222	0xbca8d14d	-0.020607615
223	0x3cbdcfa6	0.023170304
224	0xbbfed011	-0.0077762683
225	0xbc47c29d	-0.0121923955
226	0x3c98a760	0.018634498
227	0x3cceaa74	0.025227763
228	0x3c6f19ec	0.014593583
229	0xbb6eafbc	-0.0036420664
230	0xbcc8ff5c	-0.024535827
231	0x3cb05ee8	0.02152963
232	0xbd0f9968	-0.03505841
233	0x3cd5eace	0.02611294
234	0xbc8656b2	-0.016398761
235	0xbc6fde04	-0.014640335
236	0x3c65a912	0.01401736
237	0x3c4510dc	0.012027945
238	0xbcb4b87c	-0.022060625
239	0x3cb6f360	0.022332847
240	0xbca55d34	-0.020186044
241	0x3cf5b194	0.029991902
242	0x3cce66d2	0.025195513
243	0xbc689c10	-0.014197364
244	0x3c35381c	0.011060741
245	0xbcdd23c1	-0.026994588
246	0x3c420d99	0.011844062
247	0x3ca41c92	0.020033155
248	0x3cc958d9	0.024578499
249	0xbb9bbd56	-0.004752795
250	0x3c8cba79	0.01717876
251	0xba81d944	-0.0009906669
252	0xbcd241e4	-0.025666185
253	0x3b2324e8	0.0024893824
254	0xbc8652f9	-0.016396986
255	0xbb5fb0f6	-0.0034132577

layer1.bias f4 [128]
0	0xbd0cc918	-0.034371465
1	0xbcafb84c	-0.021450184
2	0x3caf528c	0.021401666
3	0xbbbc154f	-0.005739845
4	0x3bbbb899	0.005728793
5	0xbaacf11d	-0.0013194416
6	0xbbfeed13	-0.0077797263
7	0x3c9a1cb3	0.018812513
8	0x3c4e5888	0.01259435
9	0xbd026ce1	-0.031842116
10	0x3c4390e3	0.011936399
11	0x3ca52379	0.020158516
12	0xbbea9759	-0.0071591553
13	0xbc9c4f8c	-0.0190809
14	0xbc8231c6	-0.015892874
15	0xbc1fd17b	-0.009754534
16	0xbc04304d	-0.008068156
17	0xbc805dd2	-0.015669737
18	0x3c443fed	0.011978132
19	0x3a1336b0	0.0005615754
20	0x3b6ba023	0.0035953603
21	0x3d14f63b	0.036367636
22	0x3ca6e3ba	0.02037226
23	0xbc5cbd25	-0.01347283
24	0x3cd68918	0.026188418
25	0x3bdab852	0.0066748047
26	0x3c26b72f	0.01017551
27	0x3c4ff048	0.012691565
28	0xbcc02a0d	-0.023457551
29	0x3d2676de	0.040640704
30	0x3ae57a4f	0.0017507764
31	0x3d39c312	0.04535205
32	0xbce8a8a7	-0.028400732
33	0xbcc3e14c	-0.02391114
34	0x3c86d6fb	0.016459933
35	0x3cbc41b1	0.022980543
36	0x3cbba6b7	0.022906644
37	0x3cc7aa80	0.024373293
38	0xbb9e40be	-0.004829495
39	0x3d100fd1	0.035171334
40	0x3ca8ff7b	0.020629635
41	0x3cbf4c01	0.023351671
42	0x3c99e003	0.018783575
43	0x3b67de2d	0.003538023
44	0x3cbf58cb	0.02335777
45	0xbca6f415	-0.02038006
46	0xbb59671b	-0.0033173028
47	0xbc2441a3	-0.010025415
48	0x3c2d31bd	0.010570941
49	0xbc844976	-0.01614831
50	0x3c40c8ca	0.011766622
51	0x3cb3a2cc	0.021928214
52	0xbd5c0905	-0.05371954
53	0x3d0cf090	0.034409106
54	0x3cfb4cbc	0.030676238
55	0xbc8f772b	-0.017512878
56	0x3d1c98ec	0.038231775
57	0x3c91ea08	0.01781179
58	0x3c815dad	0.015791738
59	0x3c35a825	0.011087452
60	0x3ca623fc	0.02028083
61	0xb7d5758a	-2.5446312e-05
62	0x3c241069	0.010013678
63	0x3be07626	0.006850022
64	0x3b001cb5	0.001954836
65	0xbcc1af31	-0.023643108
66	0x3d08abdb	0.03336702
67	0xbc0452fd	-0.008076427
68	0xbc889d6f	-0.016676633
69	0xbb96420d	-0.0045855106
70	0x3c5f0a43	0.013613286
71	0x3c2cafb0	0.010539934
72	0x3ce0057b	0.027346363
73	0x3c5b55b5	0.013387133
74	0xbbda2642	-0.0066573927
75	0xbc42f06f	-0.011898144
76	0xbbce70bb	-0.0063000596
77	0xbc521826	-0.01282314
78	0x3d27ecb1	0.04099721
79	0xbd10cb12	-0.035349913
80	0x3c2a2316	0.010384342
81	0xbd019444	-0.031635538
82	0xbcd1f5d2	-0.025629912
83	0xbd018e04	-0.031629577
84	0xbb1a50ae	-0.0023546624
85	0xbcd0dcc6	-0.025495898
86	0x3ce51bcd	0.027967358
87	0x3cc688cd	0.024235154
88	0xbc9dcdf0	-0.019263238
89	0xbcb296a0	-0.02180034
90	0x3be48a1c	0.0069744717
91	0x3beb846a	0.007187416
92	0x3c2b2772	0.010446416
93	0x3cc8bbc2	0.024503592
94	0xbcaf169b	-0.021373084
95	0xbcc3ff9f	-0.0239256
96	0xbaa5f253	-0.0012660719
97	0xbc21452f	-0.009843155
98	0x3cb84c7a	0.022497404
99	0xbba92a7a	-0.0051625343
100	0x3b8fc4b2	0.0043874616
101	0x3c365b58	0.0111301765
102	0xbcb05716	-0.0215259
103	0xbcabf6fc	-0.020991795
104	0x3d23cb95	0.039989073
105	0xbb99545a	-0.004679245
106	0x3ca3357a	0.01992296
107	0x3d0b131f	0.033953782
108	0x3c188b9a	0.009310627
109	0xbd14b5d0	-0.036306202
110	0x3c951353	0.018197691
111	0xbb2bbb87	-0.0026204304
112	0x3d0131c3	0.031541597
113	0xbccd0212	-0.025025401
114	0xb9cda836	-0.00039225974
115	0x3ccd26b4	0.02504287
116	0x3ca5090a	0.020145912
117	0x3c81665f	0.015795885
118	0x3a9a961c	0.0011794004
119	0xbd3f8b9c	-0.046764
120	0x3d00bdfe	0.03143119
121	0x3c44ef63	0.012019965
122	0xbcf92c02	-0.030416492
123	0xbbc4a102	-0.006000639
124	0x3cc2bbfd	0.02377128
125	0x3c756c0a	0.014979372
126	0x3cc1baff	0.023648737
127	0x3cebd8bc	0.02878987

layer2.weight f4 [128, 128]
0	0x3b1fd483	0.0024388141
1	0x3d1cd591	0.03828961
2	0x3d9bfbea	0.07616408
3	0x3d6de09c	0.058075532
4	0x3c4250d0	0.0118600875
5	0x3c82fd63	0.015989965
6	0xbcd762a6	-0.026292156
7	0xbc998578	-0.0187404
8	0x3ddd90ff	0.108186714
9	0xbd444f18	-0.047926992
10	0x3ce76cdd	0.028250152
11	0x3d39ad95	0.045331556
12	0xbe068c8f	-0.13139556
13	0x3cfa9da4	0.030592747
14	0xbe24251f	-0.16029786
15	0xbbc8617f	-0.006115138
16	0x39d40c74	0.0004044507
17	0x3b2ab78b	0.0026049342
18	0x3de59295	0.11209599
19	0xbde2a437	-0.11066478
20	0xbda1f774	-0.07908526
21	0xbdb2229c	-0.086980075
22	0xbd95716b	-0.072970234
23	0x3cd3ba3f	0.025845645
24	0x3e045a61	0.12925102
25	0x3d83fd7d	0.064448334
26	0x3b93bb25	0.0045083934
27	0x3d4c907f	0.04994249
28	0x3c153eea	0.009109238
29	0xbda68aae	-0.0813192
30	0x3c23dc58	0.0100012645
31	0xbde6896d	-0.11256681
32	0x3df48d05	0.1194096
33	0xbdabc384	-0.08386901
34	0xbd879ac4	-0.06621316
35	0x3d8ec60d	0.06971369
36	0x3d50bd4e	0.050961785
37	0xbd923bfc	-0.07140347
38	0x38de8c40	0.000106119085
39	0xbcd79c24	-0.02631957
40	0xbdbdcdc5	-0.09267763
41	0xbe4d9e87	-0.20080005
42	0x3cad80aa	0.021179516
43	0x3e999b5d	0.30001345
44	0xbd7afadc	-0.061274394
45	0x3d7b81c6	0.06140306
46	0xbdd04781	-0.10169888
47	0xbda6d9b8	-0.08146995
48	0xbb2e2b10	-0.002657596
49	0x3ca281bc	0.019837253
50	0x3dc9bfc5	0.0985103
51	0x3d876f3b	0.066130124
52	0x3e46e8ce	0.19424745
53	0x3dc1c854	0.09462038
54	0x3cd13af8	0.025540814
55	0x3e928cbe	0.28623003
56	0xbd9497e3	-0.072555326
57	0xbcf1aa9f	-0.029500304
58	0xbe39e1ca	-0.18152538
59	0xbdd05c6e	-0.101738796
60	0xbc4851d3	-0.01222654
61	0xbeac51b9	-0.336561
62	0x3cfc7b6e	0.030820575
63	0x3d04e214	0.032442167
64	0xbe82b4d4	-0.25528586
65	0xbd7b4796	-0.061347567
66	0xbcb37419	-0.021905946
67	0x3ddedd0f	0.10882007
68	0xbcae5e40	-0.021285176
69	0x3e02369a	0.12716141
70	0x3d2738ba	0.040825583
71	0xbd30cab1	-0.04316205
72	0xbd6aa369	-0.057284746
73	0x3d0e5e10	0.034757674
74	0x3d31dde2	0.043424495
75	0xbe91b93c	-0.28461635
76	0x3d65187f	0.055931564
77	0xbdc87c63	-0.0978935
78	0x3bdb927a	0.006700811
79	0xbd57c950	-0.05268222
80	0x3c8f8bdc	0.017522745
81	0x3d3dc63f	0.04633164
82	0xbd7fb833	-0.062431525
83	0x3cbc2fff	0.022972105
84	0xbcec9a93	-0.0288823
85	0x3d5f6c0f	0.054546412
86	0xbc536b3b	-0.012903984
87	0x3de4c583	0.11170485
88	0xbd03425d	-0.03204571
89	0x3d2c2a72	0.042032667
90	0xbdf737ab	-0.12071165
91	0xbd3f10f0	-0.046647012
92	0x3d6e2a3c	0.058145747
93	0x3cc7bf31	0.02438316
94	0xbdf97134	-0.12179795
95	0x3d25e605	0.040502567
96	0x3cf88b6a	0.030339915
97	0xbdc7c7ea	-0.097549275
98	0xbe0e85b1	-0.13918187
99	0x3d89e107	0.06732374
100	0x3e16b73f	0.1471834
101	0x3d1034ae	0.03520649
102	0xbdd5ff75	-0.10449115
103	0xbd12e6d6	-0.035864674
104	0x3c766fde	0.01504132
105	0xbd5e5186	-0.054276966
106	0xbe431597	-0.19051205
107	0xbe36f18d	-0.17865582
108	0xbb5261c2	-0.0032101725
109	0xbe521bf6	-0.20518479
110	0xbe25431d	-0.16138883
111	0xbd1d8133	-0.038453292
112	0xbebb7a28	-0.36616635
113	0xbd8eafc8	-0.06967121
114	0xbd8e73e1	-0.06955696
115	0x3d88fd0e	0.06688891
116	0x3d39c23c	0.045351252
117	0x3def57a1	0.11686636
118	0x3e5dcf75	0.2166117
119	0xbe1c4579	-0.15260877
120	0xbd046bf1	-0.032329503
121	0x3b95e6f0	0.004574649
122	0xbc999e72	-0.01875231
123	0x3d1a5760	0.037680984
124	0x3e099f78	0.13439739
125	0xbc42e8a7	-0.011896289
126	0x3d39991d	0.045312036
127	0xbdd3d65d	-0.10343621
128	0xbce61c7a	-0.02808975
129	0x3d25b1d8	0.04045281
130	0x3bf1e8f4	0.0073825065
131	0x3c8aef1e	0.016959723
132	0x3d1e3703	0.038626682
133	0x3d873ef1	0.06603802
134	0xbe79dd28	-0.2440077
135	0xbe2210e3	-0.15826754
136	0x3c99a6a7	0.018756224
137	0x3cb9ccc4	0.022680648
138	0x3d9e3129	0.0772422
139	0x3ddd567e	0.10807513
140	0xbd791ad9	-0.06081662
141	0xbc37a544	-0.011208836
142	0x3e2666b6	0.16250119
143	0xbd413ed4	-0.04717906
144	0xbb5f299c	-0.00340519
145	0xbda1a34b	-0.07892474
146	0x3db4326f	0.08798682
147	0x3e0016e4	0.12508732
148	0x3c46028c	0.012085568
149	0xbde2f309	-0.110815115
150	0xbd87ddc2	-0.06634094
151	0x3d4cd222	0.050005086
152	0xbc83565f	-0.016032396
153	0xbb94ed08	-0.004544858
154	0xbc7a8498	-0.015290402
155	0x3dd40625	0.103527345
156	0xbc0b8374	-0.008515228
157	0x3dd71f37	0.10504001
158	0xbd97c9a8	-0.0741151
159	0xbd0765cf	-0.033056077
160	0x3e07ea42	0.13272956
161	0xbe196710	-0.14980721
162	0x3b4fd779	0.0031714125
163	0x3db4ad80	0.08822155
164	0xbc142654	-0.009042341
165	0x3d3a3c8c	0.0454679
166	0x3e081378	0.13288677
167	0x3defb604	0.117046386
168	0xbda57de5	-0.08080653
169	0x3d91a2bf	0.071111195
170	0xbcca0ad1	-0.02466336
171	0x3e12c5f8	0.14333332
172	0xbc3c1b6f	-0.01148115
173	0x3d4f4cfc	0.050610527
174	0xbdc49bd0	-0.096000314
175	0x3bf32c4b	0.0074210516
176	0xbdc2970b	-0.095014654
177	0x3d92b9cc	0.07164344
178	0x3db24caa	0.08706029
179	0x3c3228b8	0.010873966
180	0xbdd7e67f	-0.105420105
181	0x3dc9ca46	0.09853034
182	0xbe05e48b	-0.13075463
183	0xbd8b3109	-0.06796462
184	0xbcdbd33b	-0.026834121
185	0xbbe14556	-0.0068747206
186	0xbd7801ed	-0.06054871
187	0xbd927947	-0.07152038
188	0xbdb96d8a	-0.09054096
189	0xbe668997	-0.22513424
190	0x3bd7d47d	0.00658661
191	0xbcd8f1da	-0.026482511
192	0xbbdf0a64	-0.0068066586
193	0xbd35550d	-0.044270564
194	0x38ad9537	8.277076e-05
195	0x3d46ca10	0.048532546
196	0x3db82354	0.08991113
197	0x3e15a914	0.1461528
198	0xbd56d0fa	-0.05244539
199	0x3db9b3dc	0.090675086
200	0x3d868402	0.06568147
201	0x3cf7a5b6	0.030230384
202	0xbd5cbcab	-0.053890865
203	0xbe2ec7e7	-0.17068444
204	0x3d122df5	0.03568836
205	0xbe58c384	-0.21168333
206	0xbc0ce7d7	-0.008600197
207	0x3ca06dc5	0.019583592
208	0x3e218de9	0.1577679
209	0xbdd5d48f	-0.10440933
210	0x3ad8bd76	0.0016535956
211	0x3c847483	0.016168838
212	0x3ceab342	0.02864993
213	0x3dd71e37	0.1050381
214	0x3cebfd61	0.028807344
215	0x3d516e38	0.051130503
216	0xbd2dd856	-0.042442642
217	0xbdeddb92	-0.11614145
218	0x3e46a034	0.1939705
219	0x3cd4de8d	0.025985027
220	0x3d907220	0.070530176
221	0xbc918c6b	-0.017767152
222	0xbe4e1aa5	-0.20127352
223	0x3b9625f8	0.004582163
224	0xbd73532c	-0.05940549
225	0xbcf4a5f6	-0.029864293
226	0x3e06fdfb	0.13182823
227	0xbdcac316	-0.09900491
228	0x3d4a94ca	0.049458303
229	0xb901cf74	-0.00012379681
230	0x3da1aad8	0.07893914
231	0x3d6f33c4	0.058398977
232	0x3cfafc72	0.030637953
233	0xbd337324	-0.04381098
234	0xbe466a8a	-0.19376579
235	0xbe07a40a	-0.1324617
236	0xbd831218	-0.063999355
237	0xbea4f09a	-0.32214814
238	0x3c536bcf	0.012904122
239	0x3cb570f1	0.022148581
240	0x3bcd588b	0.0062666587
241	0xbd559e7f	-0.052153107
242	0x3e1134f1	0.14180352
243	0x3d2b5d65	0.041837115
244	0xbd9ed7ca	-0.07756002
245	0x3d26270f	0.040564593
246	0xbdd2e3e2	-0.102973714
247	0x3da30dc6	0.079616114
248	0x3d363e4b	0.044493
249	0xba8c7fa6	-0.0010719195
250	0x3d6bec43	0.057598364
251	0xbd3dce40	-0.046339273
252	0x3d5d2c8b	0.053997558
253	0x3da765f7	0.08173745
254	0x3c8d4116	0.01724295
255	0x3c12346f	0.008923634

layer2.bias f4 [128]
0	0xbc7918c4	-0.0152036585
1	0x3d490a42	0.04908205
2	0xbd692311	-0.056918208
3	0x3daeed73	0.085413836
4	0x3cc328b9	0.023823129
5	0x3d6ccd0f	0.057812747
6	0xbc991614	-0.018687285
7	0x3cc20d66	0.02368803
8	0x3dafbedb	0.08581325
9	0xbcf8ec47	-0.030386103
10	0x3d8f2cad	0.06990943
11	0x3cdbf48c	0.026850007
12	0xbd9c7dc8	-0.07641178
13	0xbcd5a70a	-0.026080627
14	0x3d6303d7	0.055423584
15	0xbceacde3	-0.028662628
16	0x3d581a2d	0.05275934
17	0x3c1acc6d	0.009448153
18	0xb96f230c	-0.00022805872
19	0x3c044662	0.008073421
20	0xbdadab8f	-0.08479988
21	0xbd92b2b0	-0.07162988
22	0xbd895ea0	-0.067075014
23	0xbd5d0446	-0.053959154
24	0xbd6284ae	-0.055302314
25	0x3d8631b0	0.06552446
26	0xbd476280	-0.04867792
27	0x3d360454	0.04443772
28	0xbce7f689	-0.0283158
29	0xbbda93f4	-0.0066704694
30	0x3cab2051	0.020889433
31	0xbc6f4a13	-0.014605063
32	0xbda9736a	-0.082739666
33	0x3d0c86d8	0.034308285
34	0xbd59bf91	-0.053161208
35	0x3d915474	0.07096186
36	0x3c79ccb4	0.015246559
37	0x3cc57bf8	0.024106964
38	0x3dc730d6	0.097261116
39	0x3ccffb37	0.025388343
40	0xbd4189ef	-0.047250684
41	0xbd27a0cb	-0.04092483
42	0xbd5edaa0	-0.054407716
43	0x3d92c0e7	0.071656995
44	0xbd03280b	-0.03202061
45	0xbccd54c9	-0.025064843
46	0xbbe96f7a	-0.0071238847
47	0xbcde88e5	-0.027164886
48	0x3d4d5654	0.050131157
49	0x3cb9bdc9	0.022673504
50	0xbd95e476	-0.07318966
51	0x3cc54eae	0.024085369
52	0x3d714371	0.058902208
53	0x3c5d67cc	0.013513517
54	0x3d6d0718	0.057868093
55	0x3d952cac	0.07283911
56	0x3c821dbf	0.015883325
57	0x3d8b850f	0.06812488
58	0xbd17a9e8	-0.03702727
59	0x3c8452ed	0.016152823
60	0xb8bd965e	-9.04023e-05
61	0xbd8e131e	-0.0693724
62	0xbc6e231c	-0.014534738
63	0x3d5f3e31	0.05450267
64	0xbd692b21	-0.056925897
65	0xbd6ac55d	-0.057317127
66	0x3c90bd6e	0.017668452
67	0xbd20379e	-0.03911554
68	0x3d2a12e7	0.041521933
69	0x3d63dcc6	0.055630468
70	0xbccc54f0	-0.024942845
71	0x3d35ae78	0.04435584
72	0xbd059fa3	-0.032622945
73	0x3d2cc62b	0.042181175
74	0x3d21c83d	0.039497603
75	0x3d4b107d	0.04957627
76	0xbc54f737	-0.012998394
77	0xbd0102d2	-0.03149683
78	0xbd95665f	-0.07294916
79	0xbcb9ffc9	-0.022704976
80	0xbc57fbe4	-0.013182614
81	0x3d8158a3	0.06315734
82	0x3d5befd4	0.053695515
83	0x3dcae02c	0.09906039
84	0x3b6c0115	0.0036011387
85	0xbbd373fe	-0.0064530363
86	0xbc014461	-0.007889838
87	0xbd81ef03	-0.06344416
88	0xbcd86080	-0.026413202
89	0x3d9520f9	0.0728168
90	0xbcb6070a	-0.022220153
91	0x3c539efa	0.012916321
92	0x3d9fc58a	0.078013495
93	0xbc5f2433	-0.01361947
94	0xbda906d3	-0.08253255
95	0x3cf48fb6	0.029853683
96	0xbcb10229	-0.021607475
97	0xbd4db840	-0.050224543
98	0xbc818a43	-0.015812999
99	0xbcfb6d1c	-0.030691676
100	0xbd0242c2	-0.031801946
101	0x3ce6e93b	0.028187385
102	0xbd0f40d9	-0.034973953
103	0xbd1ab7ed	-0.03777306
104	0x3c2ca4ee	0.010537369
105	0xbc6f087c	-0.014589425
106	0x3cd4d338	0.025979623
107	0x3ce7827e	0.028260466
108	0xbd2bd1e0	-0.0419482
109	0xbd9e942e	-0.07743107
110	0xbccf30d5	-0.02529184
111	0x3d20d90c	0.039269492
112	0x3d3a1a80	0.04543543
113	0xbc3f4b25	-0.011675631
114	0xbbf682f4	-0.007522935
115	0xbd479894	-0.048729494
116	0x3c67d8fc	0.014150854
117	0xbd2146ca	-0.03937415
118	0xbc0c920b	-0.008579741
119	0x3cf3dc14	0.029768027
120	0x3b0dd4b1	0.0021641667
121	0xbc943226	-0.018090319
122	0xbd17870a	-0.036994018
123	0x3d4aa309	0.04947189
124	0xbde3df1f	-0.11126541
125	0x3af60691	0.0018770267
126	0xbcc06413	-0.02348522
127	0xbc4be2a2	-0.01244417

layer3.weight f4 [4, 128]
0	0xbdc394bd	-0.09549854
1	0xbe2a64d6	-0.16640028
2	0x3d95bdd5	0.07311598
3	0xbe4e1710	-0.20125985
4	0x3e811bb8	0.2521646
5	0xbdc54d5c	-0.09633896
6	0xbd360004	-0.04443361
7	0xbc6a47e3	-0.014299366
8	0xbe3891c2	-0.18024352
9	0x3e629402	0.22126773
10	0x3e0df023	0.13861136
11	0x3dc4672c	0.09589991
12	0xbde268dd	-0.11055157
13	0xbe8a5abc	-0.2702235
14	0xbd82378b	-0.0635825
15	0x3d84cb25	0.06484059
16	0xbbcbba5f	-0.0062172855
17	0xbda1f023	-0.079071306
18	0xbd680f06	-0.056654952
19	0xbe775084	-0.24151808
20	0x3eb2e72d	0.34941998
21	0x3c4ed4aa	0.012623945
22	0xbda26e24	-0.07931164
23	0x3ebfd7b1	0.37469247
24	0x3e79b3da	0.24385014
25	0x3d599087	0.053116348
26	0x3d4d6d02	0.050152786
27	0x3dd9d558	0.10636395
28	0xbe4d7ff5	-0.20068343
29	0x3c3a1678	0.011357896
30	0x3e257210	0.16156793
31	0x3ea8f90a	0.33002502
32	0xbbf9434e	-0.0076069003
33	0xbe72228f	-0.23645996
34	0x3cb8c0e7	0.02255292
35	0x3d7641e4	0.060121432
36	0xbe682538	-0.22670448
37	0x3e74639d	0.23866124
38	0xbdcb33bc	-0.09921977
39	0xbe49157d	-0.19637103
40	0x3e112689	0.14174856
41	0x3dc24e31	0.0948757
42	0xbbb106e8	-0.0054024346
43	0xbe0ca3bf	-0.13734339
44	0xbd23e5a0	-0.04001391
45	0xbd844198	-0.064578235
46	0x3e74a1eb	0.23889892
47	0xbe5541bd	-0.20825858
48	0x3e870971	0.2637439
49	0x3d869a9c	0.06572458
50	0xbd6225f8	-0.05521199
51	0x3d8969ae	0.0670961
52	0x3c650a33	0.013979482
53	0x3d9e9502	0.07743265
54	0xbdd09033	-0.10183754
55	0xbd6fc6a4	-0.058539048
56	0x3d4ca2ba	0.049959876
57	0xbe883498	-0.26602626
58	0x3e2a3c54	0.16624576
59	0xbd6b3a2b	-0.05742852
60	0xbe6b6a4c	-0.22989768
61	0x3d88b6bc	0.06675479
62	0xbe887994	-0.26655257
63	0x3ca7d389	0.02048661
64	0xbc1fe4b7	-0.00975912
65	0xbd2648ba	-0.0405967
66	0xbce89ae3	-0.028394168
67	0x3e64ea9c	0.22355121
68	0xbd066d1d	-0.032818902
69	0x3d9f0b8d	0.07765875
70	0xbda793e6	-0.08182506
71	0x3b8b4a30	0.004250787
72	0xbe51189d	-0.20419545
73	0x3e4fb624	0.20284325
74	0x3e35f61d	0.17769666
75	0xbe0c7503	-0.13716511
76	0x3e391ffa	0.18078604
77	0x3e4faaa4	0.20279938
78	0xbe3f96c1	-0.18709852
79	0xbcb34671	-0.021884175
80	0x3c31fbc8	0.010863252
81	0x3e6f22e3	0.23353152
82	0xbdb94b93	-0.09047618
83	0xbdd43c51	-0.10363067
84	0x3e3bffc3	0.18359284
85	0x3d7759ec	0.06038849
86	0xbc5e4de8	-0.013568379
87	0x3e396c75	0.1810778
88	0xbc35b388	-0.011090167
89	0x3d8fa540	0.07013941
90	0x3e3ce14c	0.18445319
91	0x3e8f7d39	0.28025225
92	0xbe0d9ac7	-0.13828574
93	0x3d882c2d	0.06649051
94	0x3d3513bd	0.044208277
95	0x3e3cf2ce	0.18451998
96	0x3e438b14	0.19096023
97	0x3dd4c05a	0.10388251
98	0xbd1131ce	-0.035447888
99	0x3e4b347c	0.1984424
100	0x3e84f0d1	0.25964978
101	0x3dea2863	0.114334844
102	0xbda2310b	-0.079195105
103	0xbc0a7691	-0.00845112
104	0xbd9a6780	-0.07539272
105	0x3ccfcc08	0.025365844
106	0xbd49d682	-0.049276836
107	0xbdcc8675	-0.09986583
108	0xbe86446a	-0.2622407
109	0x3d28296e	0.041055135
110	0xbd6f6b44	-0.058451906
111	0x3b832c8f	0.0040031145
112	0x3c1f10f1	0.009708629
113	0xbde6d65b	-0.11271354
114	0x3bb43f06	0.005500677
115	0xbd830f25	-0.06399373
116	0x3c7339bc	0.014845308
117	0xbd4fa967	-0.050698664
118	0x3dac2c03	0.08406832
119	0xbe547d2a	-0.20750871
120	0xbd8198a5	-0.06327943
121	0xbdec222a	-0.11529954
122	0x3de66566	0.11249809
123	0xbe0f1618	-0.13973272
124	0xbf169d89	-0.5883413
125	0xbe37170f	-0.1787989
126	0xbe8097ec	-0.25115907
127	0x3e44042e	0.1914222
128	0xbe1faf71	-0.1559427
129	0x3d753e36	0.059873782
130	0xbe9744ed	-0.29544774
131	0xbaa47e9d	-0.0012549941
132	0xbe033525	-0.12813242
133	0x3e07d65b	0.13265364
134	0xbd28e008	-0.041229278
135	0x3c5bffcd	0.013427687
136	0xbdd16637	-0.10224574
137	0xbe41e316	-0.18934283
138	0x3df2604d	0.11834774
139	0xbeb621fa	-0.35572797
140	0xbe8f1dc2	-0.2795239
141	0xba14070b	-0.00056468014
142	0x3d28b340	0.04118657
143	0x3c40373b	0.011731918
144	0xbe3b90a8	-0.183169
145	0x3f101352	0.5627948
146	0x3d836b75	0.0641698
147	0xbe906e6b	-0.28209242
148	0x3c85370d	0.016261602
149	0x3d4fcf56	0.05073484
150	0xbec7d4fa	-0.39029676
151	0xbe0cd8bd	-0.13754554
152	0xbe8b70c4	-0.2723447
153	0xbe8748a0	-0.26422596
154	0xbd614d49	-0.055005345
155	0x3cb9f79c	0.022701077
156	0xbea107c3	-0.31451234
157	0x3df63466	0.12021713
158	0x3dd77e0e	0.1052209
159	0x3eca087a	0.39459592
160	0xbcda1a21	-0.026623787
161	0xbec3cb7e	-0.3824119
162	0x3f23f978	0.64052534
163	0xbd04a186	-0.032380603
164	0x3d8252b8	0.063634336
165	0x3e8047c1	0.25054744
166	0x3c0a56bd	0.008443532
167	0x3dcba0d5	0.09942786
168	0xbddbf25e	-0.10739587
169	0xbe67b23b	-0.22626583
170	0x3da50bbb	0.08058878
171	0x3e0e1e3a	0.13878718
172	0x3da96744	0.082716495
173	0x3e47a572	0.19496706
174	0xbf14c89f	-0.58118623
175	0x3cc68d46	0.024237286
176	0x3e8419f1	0.25801042
177	0xbe93705e	-0.28796667
178	0xbd8abc57	-0.06774204
179	0xbd9720f2	-0.07379331
180	0xbcf23634	-0.029566862
181	0xbccbf33e	-0.02489626
182	0x3e1feb46	0.15617093
183	0x3d520730	0.051276386
184	0x3d8a4282	0.067509666
185	0xbce2a78d	-0.027667785
186	0x3e7587b9	0.23977555
187	0xbd679e82	-0.05654765
188	0x3e5c8ac2	0.21537307
189	0xbdc26576	-0.094920084
190	0xbeb51bcd	-0.35372773
191	0x3cd5d6fb	0.026103487
192	0xbc909eb2	-0.017653797
193	0x3d9d7d45	0.07689909
194	0x3ce75f4f	0.028243689
195	0x3e8e82f5	0.27834287
196	0xbd9568d4	-0.07295385
197	0xbd5346a6	-0.051581047
198	0x3d4bd7d2	0.04976637
199	0xbcbf0dca	-0.023322005
200	0xbe5534e8	-0.20820963
201	0xbd8dd0ce	-0.06924592
202	0x3dba47fb	0.090957604
203	0xbc4770f4	-0.012172926
204	0xbd9a5999	-0.07536621
205	0x3e25f56c	0.16206902
206	0xbd5979d3	-0.053094696
207	0xbebca3bd	-0.36843672
208	0x3bc0471a	0.005867851
209	0xbe0e6423	-0.13905387
210	0xbe85fb3a	-0.26168233
211	0x3ea52f27	0.32262537
212	0x3e6b4299	0.22974624
213	0x3ec1cd3b	0.3785189
214	0x3d7654ec	0.06013958
215	0xbeb9afdc	-0.36266983
216	0x3cf1aabc	0.029500358
217	0xbe108513	-0.14113264
218	0x3e1aecfe	0.15129468
219	0x3e37a768	0.17934954
220	0x3e920135	0.28516546
221	0x3d488f9a	0.048965074
222	0x3eb124f4	0.34598505
223	0xbcd20ec8	-0.025641814
224	0x3e3d81b1	0.18506505
225	0x3e784d9f	0.2424836
226	0xbc3307bc	-0.010927137
227	0x3e717da5	0.23583086
228	0xbe0ef266	-0.13959655
229	0xbe906c44	-0.282076
230	0x3bd6ecbe	0.0065589836
231	0x3df9ed12	0.12203421
232	0xbc626e68	-0.013820268
233	0xbb18e464	-0.002332949
234	0xbca9b206	-0.020714771
235	0x3d5e6dd5	0.054303963
236	0xbdf1f974	-0.118151575
237	0xbd92e5f9	-0.0717277
238	0xbe921403	-0.28530893
239	0x3ce17bb2	0.027524803
240	0xbe990b76	-0.29891557
241	0x3e1359a3	0.14389662
242	0x3e6343d2	0.2219384
243	0xbda1a31b	-0.07892438
244	0xbd0b0836	-0.033943377
245	0xbe9cb7a6	-0.30608863
246	0x3dafef37	0.085905485
247	0xbe03752e	-0.12837669
248	0x3debc2d3	0.11511769
249	0xbde887e0	-0.11354041
250	0x3dfd7bc9	0.12377126
251	0x3e7ba247	0.24573623
252	0x3eff2397	0.4983184
253	0x3e8b149c	0.2716416
254	0xbe2935c3	-0.16524415
255	0x3dade89a	0.08491631

layer3.bias f4 [4]
0	0x3cd40e48	0.025885716
1	0xbceaadda	-0.028647352
2	0xbd16b978	-0.03679797
3	0x3d934e34	0.071926504
